model/testcase_2_distsquare_eps_0.0004_l_0.004_auglag_lbfgsiters_100addloss_0_adddim_0__seed_1/model51000.pkl (torch, 40352 bytes, 22 tensors)

Qincpt f4 [100, 1, 8]
0	0x3f6384af	0.88874334
1	0x3f98f360	1.1949272
2	0x3f18eb6b	0.5973422
3	0x3f8c4c17	1.0960721
4	0x3f6c41ca	0.92287886
5	0x3f74b2be	0.9558524
6	0x3f7d735e	0.9900416
7	0x3f8d9968	1.1062441
8	0x3f5d88e1	0.86536986
9	0x3f5e57d1	0.8685275
10	0x3f2f04a3	0.6836645
11	0x3f59f188	0.8513417
12	0x3f4088ff	0.7520904
13	0x3f82e17b	1.0225061
14	0x3f11a159	0.5688682
15	0x3f62fb81	0.88665015
16	0x3f544885	0.82923156
17	0x3f3d69cd	0.73989564
18	0x3f17ce73	0.5929939
19	0x3f48bb83	0.7841112
20	0x3f881ba9	1.0633441
21	0x3f419106	0.75611913
22	0x3f29eacb	0.6637389
23	0x3f8617c6	1.0476005
24	0x3f870504	1.0548406
25	0x3f815999	1.0105468
26	0x3f1d2df6	0.61398256
27	0x3f42b6dc	0.7606027
28	0x3f624730	0.88389874
29	0x3f57cb2b	0.84294385
30	0x3f09cc21	0.538271
31	0x3f754ecf	0.9582338
32	0x3fb4efc2	1.4135668
33	0x3f90eb3a	1.1321785
34	0x3f6c16d4	0.9222233
35	0x3fa2516d	1.2681099
36	0x3f599412	0.8499156
37	0x3f892fb0	1.0717678
38	0x3f0199ec	0.5062549
39	0x3faff92d	1.3747917
40	0x3f60eea1	0.8786412
41	0x3f8a748b	1.0816816
42	0x3f94de98	1.163043
43	0x3f5e0636	0.8672823
44	0x3f586aaa	0.84537756
45	0x3f6c017b	0.9218976
46	0x3f80c75e	1.0060842
47	0x3f89848d	1.0743576
48	0x3f47608a	0.7788168
49	0x3f2af926	0.6678642
50	0x3f2f8f33	0.6857788
51	0x3f5a67e6	0.85314786
52	0x3f5fec1e	0.8746966
53	0x3f4358ed	0.76307565
54	0x3f5cd8f1	0.86268526
55	0x3f363030	0.7116728
56	0x3f653a68	0.89542246
57	0x3f67e6ad	0.9058636
58	0x3f8d7f42	1.1054461
59	0x3f8249d0	1.0178776
60	0x3f533671	0.82504946
61	0x3f94a2b2	1.1612151
62	0x3f929225	1.145085
63	0x3f718450	0.9434252
64	0x3f12fde0	0.5741863
65	0x3f2a4ad3	0.6652042
66	0x3f66b970	0.90126705
67	0x3f1852f1	0.5950156
68	0x3f633644	0.8875468
69	0x3f86b345	1.0523459
70	0x3f5fd664	0.8743651
71	0x3f00fc0c	0.50384593
72	0x3f313065	0.6921447
73	0x3f69ac45	0.9127849
74	0x3f533cdf	0.82514757
75	0x3f4e3dba	0.8056294
76	0x3f998500	1.1993713
77	0x3efc4742	0.49273115
78	0x3f5b4ee2	0.8566724
79	0x3fa9e7a2	1.3273814
80	0x3f7e0797	0.9923033
81	0x3f65b0ca	0.89722884
82	0x3f789638	0.97104216
83	0x3f6bd16d	0.92116433
84	0x3f7bb3db	0.9832131
85	0x3f69b7d4	0.91296124
86	0x3f5b6264	0.8569701
87	0x3f9280c4	1.1445546
88	0x3f4fa15a	0.8110558
89	0x3f4637f1	0.7742911
90	0x3f4a7367	0.7908234
91	0x3f6b74d8	0.91975164
92	0x3f81bfc9	1.0136653
93	0x3f767d7c	0.96285224
94	0x3f416337	0.75542015
95	0x3f55f69c	0.8357942
96	0x3f6229b9	0.88344914
97	0x3f54ddf5	0.8315118
98	0x3f7d120c	0.9885566
99	0x3f71a16d	0.9438694
100	0x3f94cce0	1.1625023
101	0x3f80a3ca	1.0049984
102	0x3f8bb6fe	1.091522
103	0x3f8bbf87	1.0917825
104	0x3f89d2e3	1.0767483
105	0x3f1d008a	0.6132895
106	0x3f69c085	0.91309386
107	0x3f80eac4	1.0071645
108	0x3f99b4be	1.2008283
109	0x3fa7a8d7	1.3098401
110	0x3f0f81b9	0.56057316
111	0x3f530be3	0.8244001
112	0x3f4f05f2	0.80868447
113	0x3f3f2505	0.7466586
114	0x3f766f0f	0.9626321
115	0x3f3c36e1	0.7352124
116	0x3f91046e	1.1329477
117	0x3fa24921	1.2678567
118	0x3f55f673	0.83579177
119	0x3f25f1f8	0.6482234
120	0x3f3748a8	0.7159524
121	0x3f24e385	0.6440967
122	0x3f055fbd	0.5209921
123	0x3f5d3141	0.8640328
124	0x3fa04676	1.2521503
125	0x3e943e4e	0.28953785
126	0x3f48e1af	0.78469366
127	0x3fa49f03	1.2861027
128	0x3f2c0a1a	0.67202914
129	0x3f4f56a2	0.80991566
130	0x3f7b6234	0.9819672
131	0x3f7967ab	0.9742381
132	0x3f641079	0.89087635
133	0x3f5b42ba	0.8564869
134	0x3f82f0c3	1.0229725
135	0x3f55bd7a	0.83492243
136	0x3fbe33f3	1.4859604
137	0x3f8fead6	1.1243541
138	0x3f94d8a8	1.1628618
139	0x3fa9b90e	1.3259599
140	0x3f4995f0	0.7874441
141	0x3f8eae8e	1.114702
142	0x3eee0fb3	0.46496353
143	0x3f6c0b07	0.92204326
144	0x3f40eb61	0.7535916
145	0x3f625db0	0.88424206
146	0x3f084f9c	0.53246474
147	0x3f96ccf9	1.1781303
148	0x3f9c6200	1.2217407
149	0x3e1d68e6	0.15372047
150	0x3f322cf4	0.69599843
151	0x3fc3ae97	1.5287656
152	0x3f49ed4c	0.7887771
153	0x3f453c1f	0.7704486
154	0x3f69cb29	0.9132562
155	0x3f6b8406	0.91998327
156	0x3f87a1e3	1.0596279
157	0x3f55f8eb	0.83582944
158	0x3f85e16b	1.0459417
159	0x3f9536c2	1.1657336
160	0x3f5ab23a	0.854282
161	0x3f87abc5	1.0599295
162	0x3f5e910a	0.8694006
163	0x3f969bae	1.176626
164	0x3f5b9cf2	0.85786355
165	0x3f399edc	0.72508025
166	0x3f600f8d	0.8752373
167	0x3f8aea33	1.0852722
168	0x3f4d6644	0.8023417
169	0x3f67fc5a	0.9061943
170	0x3f71c0dc	0.94434905
171	0x3f8e62f6	1.112395
172	0x3f9c6a75	1.2219988
173	0x3f398e25	0.7248252
174	0x3f672175	0.90285426
175	0x3fa15954	1.2605386
176	0x3f5f869d	0.8731478
177	0x3f43f11e	0.7653979
178	0x3f65a9e1	0.8971234
179	0x3f642532	0.89119256
180	0x3f8f7aad	1.1209313
181	0x3f2dbda7	0.6786751
182	0x3f841ffb	1.032226
183	0x3f37aff6	0.7175287
184	0x3f2f46fc	0.6846769
185	0x3f195d73	0.5990822
186	0x3f1b5618	0.60678244
187	0x3f11e742	0.56993496
188	0x3f4ce1cd	0.80032045
189	0x3f91009c	1.1328311
190	0x3f08ef98	0.5349059
191	0x3ee7030d	0.45119515
192	0x3f718f82	0.943596
193	0x3fa1ff0f	1.2655963
194	0x3fa98df3	1.3246444
195	0x3f9488ad	1.160421
196	0x3f5e8595	0.8692258
197	0x3f668ccc	0.9005859
198	0x3f892e5a	1.071727
199	0x3fb65a12	1.4246237
200	0x3f725199	0.9465576
201	0x3f8ef38b	1.1168073
202	0x3f9d3095	1.2280451
203	0x3f785ccf	0.97016615
204	0x3f5452a6	0.8293861
205	0x3f5b9946	0.8578075
206	0x3f70a0aa	0.93995154
207	0x3f8820b9	1.0634986
208	0x3faeeda9	1.3666278
209	0x3fb33c3e	1.400276
210	0x3f824e93	1.0180229
211	0x3fbde374	1.4835038
212	0x3f846a5e	1.0344961
213	0x3fabe67d	1.3429714
214	0x3f32ef04	0.6989596
215	0x3fbd9377	1.4810628
216	0x3f33cc08	0.702332
217	0x3fc90f2e	1.5707757
218	0x3f5bbb0d	0.8583229
219	0x3f49e7bf	0.7886924
220	0x3f3525b5	0.7076066
221	0x3f648391	0.89263254
222	0x3f60e23a	0.87845194
223	0x3fa26e56	1.2689922
224	0x3f37abb4	0.71746373
225	0x3f1efe52	0.6210681
226	0x3f5f04db	0.87116784
227	0x3f48f2bf	0.784954
228	0x3f8afb24	1.0857892
229	0x3f854fbb	1.0414957
230	0x3f21f4cd	0.6326416
231	0x3f4313aa	0.7620188
232	0x3f7d5187	0.98952526
233	0x3f59ae09	0.8503118
234	0x3f67bad2	0.9051944
235	0x3f814567	1.0099305
236	0x3f6d93a5	0.9280341
237	0x3f54cefc	0.83128333
238	0x3f6681a9	0.90041596
239	0x3f891121	1.0708352
240	0x3f58d6a3	0.8470251
241	0x3f70f847	0.9412884
242	0x3f42d4ff	0.76106256
243	0x3f5a9d85	0.85396606
244	0x3f6acaf0	0.9171591
245	0x3f46ba77	0.7762827
246	0x3f297646	0.66196096
247	0x3f6440ce	0.89161384
248	0x3f423983	0.75869006
249	0x3f483f48	0.7822156
250	0x3f656e8f	0.89621824
251	0x3f626ace	0.8844422
252	0x3fa4d759	1.2878219
253	0x3f8e12d1	1.1099492
254	0x3f48afdd	0.78393346
255	0x3fa03999	1.2517577

Qslope f4 [100, 1, 8]
0	0x3ff15db7	1.8856725
1	0x3f569211	0.8381663
2	0x3fd9d03f	1.7016677
3	0x3f86ee5c	1.0541492
4	0x400e4119	2.2227232
5	0x3f7afe08	0.9804387
6	0x3fc4d76e	1.5378244
7	0x401422b6	2.3146186
8	0x3f38fc85	0.72260314
9	0x3f3e78db	0.7440316
10	0x3f8ab26d	1.0835701
11	0x3f26a07b	0.65088624
12	0x3f2db4c3	0.67853945
13	0x3f06114a	0.5237013
14	0x3fae02ad	1.3594567
15	0x3f0e4d89	0.5558706
16	0x3f36ec38	0.7145419
17	0x3f5d6274	0.8647835
18	0x3f8a5dff	1.0809935
19	0x3f462d7a	0.7741314
20	0x3e93a370	0.2883563
21	0x3f3b3f28	0.73143244
22	0x3f8ca7fd	1.0988766
23	0x3edca581	0.4309502
24	0x3f002b4d	0.5006607
25	0x3f13feae	0.57810485
26	0x3f89c5f7	1.0763539
27	0x3f509403	0.8147585
28	0x3f05dad8	0.52287054
29	0x3f2e7496	0.68146646
30	0x3fa825a4	1.3136487
31	0x3f0618f1	0.5238181
32	0x3f4cdab7	0.8002123
33	0x3f857664	1.0426755
34	0x3f6e8ccd	0.93183595
35	0x3e98a18e	0.29810756
36	0x3f0ba07c	0.54541755
37	0x3e39d2d4	0.18146831
38	0x3fbac789	1.4592143
39	0xbe1d4350	-0.15357709
40	0x3fff2ee0	1.993618
41	0x3f9bd6f0	1.2174969
42	0x3f3e4ff0	0.74340725
43	0x3f904b75	1.1273028
44	0x3fa44850	1.2834568
45	0xbe722c1f	-0.23649643
46	0x3f791d38	0.9731021
47	0x3f9574e8	1.1676302
48	0x3f5d53b9	0.86455876
49	0x3f7d71d4	0.9900181
50	0x3f856a1a	1.0423005
51	0x3f47ba4b	0.78018636
52	0x3f2c2665	0.67246085
53	0x3f263c61	0.6493588
54	0x3f631b70	0.8871374
55	0x3f7bc8ca	0.98353255
56	0x3f611c5d	0.87933904
57	0x3f7aa278	0.9790416
58	0x3f149934	0.5804627
59	0x3f33bbb9	0.7020832
60	0x3f82ddc2	1.0223925
61	0xbbf628ec	-0.0075122025
62	0x3f2f8352	0.68559754
63	0x3f8ba543	1.0909809
64	0x3f8225da	1.0167801
65	0x3f76c9ec	0.9640186
66	0x3f5bc09d	0.8584078
67	0x3f874bfc	1.0570064
68	0x3f1c9e8c	0.61179423
69	0x3ee1740a	0.44033843
70	0x3f6fef51	0.9372454
71	0x3f909f9c	1.1298709
72	0x3f7166b0	0.94297314
73	0x3f32072f	0.6954221
74	0x3f72cd97	0.94844955
75	0x3f4a9864	0.7913878
76	0x3e85c132	0.2612396
77	0x3f88758b	1.0660871
78	0x3f67a130	0.9048033
79	0x3ea1e322	0.316186
80	0x3f16432c	0.58696246
81	0x3f291dd2	0.6606113
82	0x3f4ba68a	0.79550993
83	0x3f104824	0.5636008
84	0x3edcfc1f	0.43161103
85	0x3f200a30	0.62515545
86	0x3f8d5144	1.1040425
87	0x3ec14579	0.37748316
88	0x3f4846bf	0.7823295
89	0x3f62719b	0.884546
90	0x3f6c40bc	0.92286277
91	0x3f2c92a0	0.6741123
92	0x3f00b957	0.50282806
93	0x3efef120	0.4979334
94	0x3f8abd71	1.0839063
95	0x3f547047	0.8298382
96	0x3f391f67	0.7231354
97	0x3f56f5ab	0.8396861
98	0x3f4010d3	0.7502567
99	0x3f39aab9	0.7252613
100	0x3eed0b93	0.46297893
101	0x3ef0110d	0.4688801
102	0x3f46c909	0.77650505
103	0x3f2b1a7b	0.6683728
104	0x3f2e64ba	0.68122447
105	0x3f88cb34	1.0687013
106	0x3f6cc3ae	0.92486084
107	0x3f1c2490	0.6099329
108	0x3e4b0ff8	0.1983031
109	0x3e94d90b	0.2907184
110	0x3f8e04a1	1.1095163
111	0x3f3ff480	0.7498245
112	0x3f41706a	0.75562155
113	0x3f6cc86b	0.92493314
114	0x3f5defb0	0.8669386
115	0x3f5ad8e6	0.8548721
116	0x3e74d711	0.23910166
117	0x3e5a1ec2	0.21300796
118	0x3f7b25c6	0.9810451
119	0x3f564ed3	0.83714026
120	0x3f6bb902	0.92079175
121	0x3f7a16d8	0.97691107
122	0x3f9905c1	1.1954881
123	0x3f3b6244	0.73196816
124	0x3e51b211	0.20478083
125	0x3f9bc2a5	1.2168776
126	0x3f6de348	0.9292493
127	0x3ecb9841	0.39764598
128	0x3f84dca6	1.0379837
129	0x3f55aac0	0.8346367
130	0x3f28c054	0.6591847
131	0x3f1b2239	0.60599095
132	0x3f35a900	0.70961
133	0x3f1a577d	0.60289747
134	0x3f446257	0.76712555
135	0x3f7567cb	0.958615
136	0x4025d587	2.5911577
137	0x3fcb6407	1.5889901
138	0x3e6d51b9	0.23175706
139	0x3ed3d095	0.41370073
140	0x3ffd01b2	1.9766142
141	0xbee32183	-0.44361505
142	0x3fa45e2b	1.2841238
143	0x402096ed	2.5092118
144	0x3f87dbce	1.0613954
145	0x3f2cbe6c	0.6747806
146	0x3f984c31	1.1898252
147	0x3e720131	0.23633267
148	0x3e6c673c	0.23086256
149	0x3fcbb3f0	1.5914288
150	0x3f96854c	1.1759429
151	0x3db9894a	0.09059389
152	0x3f62fa0c	0.8866279
153	0x3f694e6a	0.91135275
154	0x3f5e2f4a	0.8679091
155	0x3f3a3888	0.7274251
156	0x3f2dd573	0.6790382
157	0x3f18c41b	0.59674233
158	0x3f4e1250	0.8049669
159	0x3f3a762a	0.72836554
160	0x3f89820d	1.0742813
161	0x3f296809	0.6617437
162	0x3f4ee460	0.8081722
163	0x3eb8f39d	0.36123362
164	0x3f7309ed	0.9493702
165	0x3f635d43	0.8881418
166	0x3f864877	1.0490865
167	0x3f5f7414	0.87286496
168	0x3f5047d3	0.81359595
169	0x3f3969de	0.72427166
170	0x3f578af8	0.84196424
171	0x3ed2b736	0.41155404
172	0x3ea0159b	0.31266484
173	0x3f4d7849	0.80261666
174	0x3f847ecb	1.0351194
175	0x3ebd2303	0.36940774
176	0x3f42ea5a	0.7613884
177	0x3f605e1c	0.876436
178	0x3f4b72a7	0.7947182
179	0x3f3c0ec7	0.7346005
180	0x3e9ac278	0.30226493
181	0x3f5349fb	0.8253476
182	0x3f3111e8	0.6916795
183	0x3f5880a6	0.845713
184	0x3f5588ea	0.8341204
185	0x3f7dd4a0	0.99152565
186	0x3f931255	1.148997
187	0x3f8359f0	1.0261822
188	0x3f1853f4	0.595031
189	0x3e9f5f4d	0.31127396
190	0x3fa91673	1.3209976
191	0x3f8d4b02	1.1038516
192	0x3fcce5b0	1.6007595
193	0x3f251e41	0.6449929
194	0x3e9c8376	0.30569047
195	0x3ebe2ab7	0.37141964
196	0x3fa1059e	1.2579839
197	0x3f1a3de4	0.6025069
198	0x3f834ada	1.0257218
199	0x3e9d8441	0.30764964
200	0x401a13f0	2.407467
201	0x3fa92b45	1.321633
202	0x3e92f099	0.28699186
203	0x3f77c083	0.96778125
204	0x3fbf3904	1.4939275
205	0x3cbc76f3	0.023005938
206	0x3f779e17	0.967256
207	0x3f9766ca	1.1828244
208	0x3fac6f57	1.3471478
209	0x3ec916ef	0.3927531
210	0x3e128aba	0.14310732
211	0x393d94c0	0.00018079858
212	0x3f74584b	0.95447224
213	0x3ef0fd10	0.4706807
214	0x3fa4d9c4	1.2878957
215	0x3f31b9e3	0.69424266
216	0x3f8eeb51	1.1165563
217	0x3e069776	0.13143715
218	0x3f8016a1	1.0006906
219	0x3f502113	0.8130047
220	0x3f91828b	1.1367964
221	0x3f91e15c	1.1396899
222	0x3f9de00e	1.2334001
223	0x3ee6c636	0.45073098
224	0x3f6217be	0.8831748
225	0x3f6672f4	0.90019155
226	0x3f592110	0.84816074
227	0x3f450e2f	0.7697477
228	0x3e91ff04	0.28514874
229	0x3efde119	0.49585798
230	0x3f9857f3	1.190184
231	0x3f611848	0.87927675
232	0x3f284b9e	0.6574038
233	0x3f508a9a	0.8146149
234	0x3f5b9d22	0.8578664
235	0x3f0afd45	0.5429271
236	0x3f154ea9	0.5832315
237	0x3f0842e1	0.5322705
238	0x3f60ee6c	0.878638
239	0x3f1ddc1c	0.61663985
240	0x3f473aeb	0.77824277
241	0x3f2383a6	0.63872755
242	0x3f6abe1f	0.9169635
243	0x3f32b3d4	0.69805646
244	0x3efd0e63	0.4942504
245	0x3f4c0874	0.797004
246	0x3f938acc	1.1526732
247	0x3f08cc75	0.53436977
248	0x3f5819d1	0.8441439
249	0x3f520481	0.8203812
250	0x3f69369a	0.9109894
251	0x3f18ab67	0.5963654
252	0x3db96da2	0.09054114
253	0x3eff8f55	0.4991404
254	0x3f96470c	1.1740432
255	0x3eb738f0	0.35785627

Pincpt f4 [100, 1, 8]
0	0x3fa233e8	1.267209
1	0x3f84e4fe	1.0382383
2	0x3fb5d0cb	1.4204344
3	0x3f94d7ed	1.1628395
4	0x3ecf3d41	0.4047642
5	0x3f3e51cb	0.74343556
6	0x3fa96475	1.3233782
7	0x3fb6031c	1.4219699
8	0x3f8d720f	1.1050433
9	0x3f974b63	1.1819881
10	0x3f7959cd	0.9740265
11	0x3f8cc016	1.099612
12	0x3f7f837f	0.9981002
13	0x3f8b9de8	1.0907564
14	0x3f8dc6dc	1.1076312
15	0x3f92177b	1.1413416
16	0x3fa2d946	1.2722557
17	0x3f8c8522	1.0978129
18	0x3f67f4fe	0.90608203
19	0x3fa4e7a8	1.2883196
20	0x3f6e6a43	0.9313089
21	0x3f76c6e0	0.9639721
22	0x3faf93e6	1.371701
23	0x3f8de76f	1.1086253
24	0x3f90d4d7	1.1314954
25	0x3f8486c8	1.0353632
26	0x3f81be62	1.0136225
27	0x3f90a1c8	1.1299372
28	0x3f7f6c20	0.9977436
29	0x3f85f711	1.0466024
30	0x3f937684	1.1520543
31	0x3f90f467	1.1324586
32	0x3f80b778	1.005599
33	0x3fa20625	1.2658125
34	0x3f4dadb2	0.80343163
35	0x3f95c987	1.1702126
36	0x3f0648e1	0.52454954
37	0x3f85952d	1.043615
38	0x3fc2d564	1.5221372
39	0x3f9dcd92	1.232836
40	0x3f2e8f20	0.6818714
41	0x3f8a4b7d	1.0804287
42	0x3f5a50fb	0.85279816
43	0x3f360b5c	0.71111083
44	0x3f94e5bd	1.163261
45	0x3f970102	1.1797183
46	0x3f4240cc	0.7588012
47	0x3f9dbe38	1.2323675
48	0x3f92d999	1.1472656
49	0x3f6bda86	0.92130315
50	0x3f8026cc	1.001184
51	0x3f8cefbc	1.1010661
52	0x3f986413	1.190554
53	0x3f82b049	1.0210048
54	0x3f8a82bd	1.0821148
55	0x3f8a311b	1.0796236
56	0x3f8c7753	1.0973915
57	0x3f7e0903	0.992325
58	0x3f82222c	1.0166678
59	0x3f8522ec	1.0401282
60	0x3f90e557	1.1319989
61	0x3f87148e	1.0553148
62	0x3f7f1832	0.99646294
63	0x3f9168ed	1.1360146
64	0x3f8d8290	1.105547
65	0x3f89f66e	1.0778329
66	0x3f7a71f2	0.97830117
67	0x3f88df98	1.0693235
68	0x3f931df0	1.1493511
69	0x3f8c8ec0	1.0981064
70	0x3f83a723	1.0285381
71	0x3f8c42b7	1.095786
72	0x3fa2b3d3	1.2711128
73	0x3f84e9a8	1.0383806
74	0x3f5fd416	0.8743299
75	0x3f9c0c93	1.2191337
76	0x3f9cd0fc	1.2251277
77	0x3f7b0689	0.98056847
78	0x3f9d2103	1.2275699
79	0x3f83806b	1.0273565
80	0x3f8cbf3a	1.0995858
81	0x3f829319	1.0201141
82	0x3f727585	0.9471057
83	0x3f867355	1.0503947
84	0x3f9cff81	1.2265474
85	0x3f8a7a4d	1.0818573
86	0x3f78e58b	0.97225255
87	0x3f85b389	1.0445415
88	0x3f8d71b1	1.1050321
89	0x3f7c1402	0.9846803
90	0x3f870ad0	1.0550175
91	0x3f84a499	1.0362731
92	0x3f932b22	1.1497538
93	0x3f899f9b	1.0751833
94	0x3f8148e8	1.0100374
95	0x3f91d471	1.1392957
96	0x3f8ce7b6	1.1008213
97	0x3f6e7751	0.9315081
98	0x3f85e9a6	1.0461929
99	0x3f838a22	1.027653
100	0x3f994949	1.197549
101	0x3f89f395	1.077746
102	0x3f6e68fe	0.93128955
103	0x3f8f72fe	1.1206968
104	0x3f97dbdf	1.1863974
105	0x3f9b3f25	1.2128645
106	0x3f51b364	0.81914353
107	0x3fa0ed3f	1.2572402
108	0x3f808409	1.0040294
109	0x3f884130	1.0644894
110	0x3fb5b01c	1.4194369
111	0x3f9bca3e	1.2171094
112	0x3f8e26b9	1.1105567
113	0x3fa598f1	1.2937299
114	0x3f6a0d22	0.9142629
115	0x3f8e7142	1.1128314
116	0x3f84c2a0	1.0371895
117	0x3f8d2ef1	1.102995
118	0x3f9619a2	1.1726573
119	0x3f9003a5	1.1251112
120	0x3fa535c8	1.2907038
121	0x3f7234f9	0.9461208
122	0x3f6507f2	0.8946525
123	0x3fa24c79	1.2679588
124	0x3f955a89	1.1668254
125	0x3f6ead93	0.93233603
126	0x3fa58d08	1.2933664
127	0x3f8a9a84	1.0828404
128	0x3f8d7ecc	1.105432
129	0x3f6926a2	0.91074574
130	0x3f82fb3a	1.0232918
131	0x3f85832a	1.0430653
132	0x3f9ca3cb	1.2237486
133	0x3f8673e7	1.050412
134	0x3f75eb1a	0.9606186
135	0x3f8ad81f	1.0847205
136	0x3f1a0f32	0.60179436
137	0x3f84802f	1.0351619
138	0x3f78ce57	0.9718985
139	0x3f5526ba	0.8326222
140	0x3f60051d	0.875078
141	0x3f9c187a	1.219497
142	0x3fa5ef05	1.2963568
143	0x3fbe296a	1.4856389
144	0x3fa19cce	1.2625978
145	0x3f7d7190	0.9900141
146	0x3f6f04fc	0.9336698
147	0x3f9ffe62	1.2499506
148	0x3f8898ac	1.0671592
149	0x3f7054f5	0.93879634
150	0x3fa54420	1.2911415
151	0x3f915d4b	1.1356596
152	0x3f8debfc	1.1087642
153	0x3f6185a2	0.8809453
154	0x3f79b72b	0.9754512
155	0x3f846cfc	1.0345759
156	0x3fa7d9ca	1.3113339
157	0x3f88e3b5	1.0694491
158	0x3f600a11	0.8751536
159	0x3f87898f	1.0588855
160	0x3f897132	1.073767
161	0x3f6db24e	0.92850196
162	0x3f8bb12a	1.0913441
163	0x3f82acc3	1.0208973
164	0x3f8d6d87	1.104905
165	0x3f865960	1.0496025
166	0x3f7af9d9	0.9803749
167	0x3f9a6e96	1.2064998
168	0x3f8b815c	1.0898852
169	0x3f720674	0.94541097
170	0x3f825c1b	1.0184358
171	0x3f7f86e1	0.99815184
172	0x3fa245d4	1.267756
173	0x3f887151	1.0659581
174	0x3f672009	0.90283257
175	0x3f885b45	1.0652853
176	0x3f93b03f	1.1538161
177	0x3f830609	1.0236217
178	0x3f80af3d	1.0053478
179	0x3f91a50a	1.1378491
180	0x3f8d8bac	1.105825
181	0x3f83ef76	1.0307453
182	0x3f949591	1.1608144
183	0x3f881d74	1.0633988
184	0x3f91be8c	1.1386275
185	0x3f8d5b90	1.1043568
186	0x3f6fa53c	0.936115
187	0x3f90d1b4	1.1313996
188	0x3f883f15	1.0644251
189	0x3f8a67d0	1.0812931
190	0x3f8dfc80	1.1092682
191	0x3f8e324b	1.1109098
192	0x3f72c2e4	0.9482863
193	0x3f90e464	1.1319699
194	0x3f7a2a08	0.97720385
195	0x3f5ff7fe	0.8748778
196	0x3f8e5908	1.112092
197	0x3f857a7b	1.0428003
198	0x3f659e12	0.8969432
199	0x3f8269de	1.0188558
200	0x3f2ed130	0.68287945
201	0x3f8a35f2	1.0797713
202	0x3f732135	0.94972545
203	0x3f39bb87	0.7255177
204	0x3f878755	1.0588175
205	0x3f8f5c56	1.1200054
206	0x3f524fb9	0.821529
207	0x3f940566	1.1564147
208	0x3f7db861	0.99109465
209	0x3f838099	1.027362
210	0x3fb14391	1.3848745
211	0x3f61b3e8	0.8816514
212	0x3f2ad922	0.6673757
213	0x3f4ba4a8	0.7954812
214	0x3f9f0739	1.2424079
215	0x3fb2b9d5	1.3962961
216	0x3f8d05c1	1.1017381
217	0x3fa70247	1.304757
218	0x3fa49ec2	1.2860949
219	0x3f6f66ce	0.9351624
220	0x3f6a2ea6	0.9147743
221	0x3f852d38	1.0404425
222	0x3f814d12	1.0101645
223	0x3f9f674f	1.2453402
224	0x3f9a2bc0	1.2044601
225	0x3f806686	1.0031288
226	0x3f5e50bc	0.8684194
227	0x3f989ab9	1.1922218
228	0x3f9b247c	1.2120509
229	0x3f839638	1.0280218
230	0x3f93a300	1.1534119
231	0x3f8537c0	1.0407639
232	0x3f906e76	1.128371
233	0x3f718056	0.9433645
234	0x3f6b3feb	0.91894406
235	0x3f897dd1	1.0741521
236	0x3f9fbe4f	1.2479953
237	0x3f81c5de	1.0138509
238	0x3f876859	1.0578719
239	0x3f86894a	1.0510647
240	0x3f966dd2	1.1752264
241	0x3f8e26c5	1.1105582
242	0x3f7a27dd	0.97717077
243	0x3f990f51	1.1957799
244	0x3f6f3c04	0.9345095
245	0x3f848399	1.035266
246	0x3fa1b4cf	1.2633303
247	0x3f902b38	1.1263189
248	0x3f8faf3f	1.1225356
249	0x3f9601ba	1.1719277
250	0x3f76956d	0.96321756
251	0x3f861d2a	1.047765
252	0x3f9ac31e	1.2090795
253	0x3f90fd42	1.1327288
254	0x3f7a5475	0.9778512
255	0x3f8cd03d	1.1001049

K f4 [8, 60]
0	0x3e1369ca	0.14395824
1	0xbbf5d601	-0.007502318
2	0xbbd64be5	-0.006539809
3	0x3dbd7f8e	0.09252845
4	0xba834a87	-0.0010016718
5	0xbbc79e78	-0.006091889
6	0x3b636601	0.003469825
7	0x3e12eb3b	0.14347546
8	0xbbe95b05	-0.007121446
9	0x3e243d20	0.16038942
10	0x3e1a3bf3	0.15061931
11	0xbc50e2ae	-0.012749357
12	0xbb11aacd	-0.002222705
13	0x3c08afa9	0.008342662
14	0x3e21c324	0.15797096
15	0x3b993c1c	0.004676355
16	0xbbe46244	-0.006969722
17	0xbc3e2ddd	-0.011607614
18	0x3be539de	0.0069954237
19	0x3b02785b	0.0019908163
20	0x3e1ebc0f	0.15501426
21	0x3e22e4b4	0.15907556
22	0xbbd9390f	-0.0066291164
23	0xbba085d1	-0.0048987647
24	0x3c347fd7	0.0110168075
25	0xbae69a57	-0.0017593604
26	0xbcf77006	-0.030204784
27	0xbc6cfcd8	-0.0144645795
28	0x3e223ee7	0.15844308
29	0xbc623f84	-0.013809089
30	0xbc02c176	-0.007980695
31	0xbd06aa1a	-0.032877065
32	0xbc1d0a7f	-0.009585022
33	0xbc4973af	-0.0122956475
34	0x3e2263de	0.15858409
35	0x3e1bf1af	0.15228914
36	0x3e215e52	0.15758637
37	0xbc1e2d23	-0.009654316
38	0xbc9c7de7	-0.019103004
39	0x3e1b16c3	0.15145402
40	0xbbe92822	-0.00711538
41	0x3b3fd8d3	0.0029273524
42	0xbacee40b	-0.0015784515
43	0xb996ed72	-0.0002878714
44	0x3e38791b	0.18014948
45	0xbc89ea04	-0.01683522
46	0x3e306380	0.17225456
47	0x3e19a352	0.15003708
48	0xbd26c9ff	-0.040719982
49	0xbb972bd3	-0.0046133786
50	0xbbaf0fcb	-0.005342459
51	0xbb8f3595	-0.004370401
52	0x3bf9e395	0.007626007
53	0x3b90ac9f	0.0044151093
54	0x3e2d20be	0.16907021
55	0x3ca519d4	0.020153917
56	0x3e229bdd	0.1587977
57	0x3c19c99d	0.009386447
58	0xbc1b66b2	-0.009484934
59	0x3e1a32e0	0.1505847
60	0x3e35e521	0.17763187
61	0xbc0e7925	-0.008695875
62	0xbd0871ad	-0.033311535
63	0x3dcb4a66	0.099263
64	0xb985b546	-0.00025502796
65	0xbc27a998	-0.010233305
66	0xbd23b8d6	-0.039971195
67	0x3e1e2b3e	0.15446183
68	0xbb0a05e0	-0.002106063
69	0x3e26d2b2	0.16291311
70	0x3e36e880	0.17862129
71	0xbc25f3aa	-0.010128895
72	0xbbe6ac2a	-0.0070395665
73	0xbc2a16be	-0.010381399
74	0x3e1d1466	0.15339813
75	0xbc083160	-0.008312553
76	0xbb971154	-0.00461022
77	0xbbb7871e	-0.005600824
78	0x3b819f56	0.003955762
79	0xbc20efb0	-0.009822771
80	0x3e170591	0.14748217
81	0x3e271270	0.16315627
82	0xbbd64b4e	-0.0065397387
83	0xbc1e0a6c	-0.009646039
84	0xbc6b0282	-0.01434386
85	0xbba41b3e	-0.0050081303
86	0xbbc5ab6c	-0.006032398
87	0xbad1b4c9	-0.0015999313
88	0x3e29d459	0.1658491
89	0xbc4f4511	-0.012650744
90	0xbc2a9714	-0.010411996
91	0xbcc6ac0e	-0.024251964
92	0xbd1c6d2d	-0.038190056
93	0xbc8560aa	-0.016281445
94	0x3e299f8a	0.16564766
95	0x3e3b4b27	0.18290387
96	0x3e2bcf63	0.1677833
97	0x3aea7ed2	0.0017890579
98	0xbc4c45f6	-0.012467852
99	0x3e1ca92a	0.15298906
100	0x3c008daa	0.007846275
101	0xbc055730	-0.008138463
102	0xbc17f961	-0.009275765
103	0x3c362f19	0.011119627
104	0x3e33d24f	0.17560695
105	0xb9dbbc83	-0.00041911387
106	0x3e255f99	0.16149749
107	0x3e23deeb	0.16003005
108	0xbd57162b	-0.052511375
109	0xbc853d8e	-0.016264703
110	0xbcaa4ab2	-0.02078757
111	0xbc39b300	-0.011334181
112	0x3c0f29ab	0.008737962
113	0xbbb795f8	-0.0056025945
114	0x3e3376a1	0.17525722
115	0x3c05d412	0.008168237
116	0x3e28be5a	0.16478863
117	0x3b47f486	0.0030510738
118	0xbb14a2da	-0.0022680075
119	0x3e22289d	0.15835805
120	0x3e5de815	0.21670564
121	0xbb18eff7	-0.002333639
122	0xb90d43f9	-0.0001347213
123	0x3e0d5f8f	0.13805984
124	0xbca23c22	-0.019804064
125	0x3c935704	0.017985828
126	0x3caf968b	0.02143409
127	0x3e4a853d	0.19777389
128	0x3be96d79	0.007123646
129	0x3e3a479d	0.18191381
130	0x3e49e130	0.19714808
131	0x3b016d74	0.0019749077
132	0xbb469287	-0.003029974
133	0xbcd526b7	-0.026019437
134	0x3e4ece27	0.20195828
135	0xbc03c944	-0.008043591
136	0xbc83fb76	-0.016111117
137	0xbc995291	-0.018716129
138	0x3bb1f529	0.0054308367
139	0x3bd87dbd	0.006606786
140	0x3e4ebc26	0.2018896
141	0x3e4fa079	0.20276059
142	0x3c8c5af5	0.017133215
143	0x37dfdd8d	2.668684e-05
144	0xbc5f5b90	-0.01363267
145	0xbc211738	-0.009832196
146	0x3bf5a9ca	0.007497047
147	0x3bd25407	0.0064187082
148	0x3e4eba7c	0.20188326
149	0xbc412086	-0.011787539
150	0x3bb4ac4e	0.0055137044
151	0xbd401641	-0.046896223
152	0xbcb68a01	-0.022282602
153	0xbc2956b9	-0.010335618
154	0x3e494148	0.19653809
155	0x3e57c610	0.21071649
156	0x3e5308e4	0.2060886
157	0x3c0d2e6e	0.008617027
158	0xbce28bf9	-0.027654635
159	0x3e534e7a	0.20635405
160	0xbaefd6f8	-0.0018298319
161	0xbb0b683b	-0.0021271843
162	0xbc099e60	-0.008399576
163	0xbb89a1a7	-0.0042001787
164	0x3e443654	0.1916135
165	0xbc84ab74	-0.016195036
166	0x3e4c76d2	0.19967201
167	0x3e49eb0e	0.19718572
168	0xbce9597e	-0.028485056
169	0x3bad4bb8	0.0052885674
170	0x3bc62694	0.0060470793
171	0xbc94bbb4	-0.01815591
172	0xbb8434d0	-0.004034616
173	0xbc1d2574	-0.009591449
174	0x3e4a10d2	0.19732979
175	0xba4ebc77	-0.000788636
176	0x3e505930	0.20346522
177	0x3c3efd0e	0.011657013
178	0xbb13f9e9	-0.0022579378
179	0x3e5474e4	0.20747715
180	0x3e1d7695	0.15377267
181	0x3ab97e67	0.0014152051
182	0xbad68380	-0.0016366094
183	0x3dcf4ced	0.10122094
184	0x3c8d16d0	0.017222792
185	0xbb46f389	-0.003035756
186	0xbcf92293	-0.030411994
187	0x3e32129e	0.17389914
188	0x3a874ccc	0.001032257
189	0x3e2f956b	0.17146842
190	0x3e21f826	0.15817317
191	0xba3a0313	-0.0007095795
192	0xbbba4a92	-0.005685159
193	0xb86abd59	-5.596629e-05
194	0x3e36947b	0.17830078
195	0xbb0012d1	-0.0019542465
196	0x3ba8ba3b	0.0051491535
197	0xbc975869	-0.018474774
198	0xbceef086	-0.029167425
199	0xbbb9e714	-0.0056732986
200	0x3e195b7e	0.14976308
201	0x3e2ebc96	0.17064127
202	0xbc109707	-0.00882507
203	0xbc92db08	-0.017926708
204	0xbc7d429b	-0.0154577745
205	0xbae325c4	-0.0017329981
206	0xb9b5ad2b	-0.0003465203
207	0x3a159518	0.00057061156
208	0x3e2e87c7	0.17043982
209	0x3b40d9cd	0.0029426694
210	0xbbaa96d8	-0.0052059703
211	0xbc9388ec	-0.018009625
212	0xbcd517a5	-0.026012251
213	0x3bf89e5b	0.007587237
214	0x3e375b43	0.17905907
215	0x3e330c6b	0.17485206
216	0x3e1d0dba	0.15337268
217	0x3b21c35c	0.0024683094
218	0xbc0bba33	-0.00852828
219	0x3e20013c	0.15625471
220	0xbb7a50d1	-0.0038195143
221	0xbbbc3062	-0.0057430724
222	0x3c6ebc41	0.01457125
223	0x3c9113a1	0.017709555
224	0x3e35ccfc	0.17753977
225	0xbc300147	-0.010742492
226	0x3e232cd6	0.15935072
227	0x3e17c5bb	0.14821522
228	0xbc9b955e	-0.018992122
229	0x3b33a887	0.0027413683
230	0xbb095946	-0.0020957752
231	0x3b7dc323	0.0038721047
232	0xba5144ac	-0.000798295
233	0x3b5ff3d2	0.0034172428
234	0x3e2f3777	0.17111002
235	0xbc62be78	-0.013839357
236	0x3e365d7b	0.17809097
237	0xbcc1b8bb	-0.023647657
238	0xbc89cf98	-0.016822621
239	0x3e281fcd	0.16418381
240	0x3e12231a	0.14271203
241	0x3c19c202	0.009384634
242	0x3c70243c	0.014657076
243	0x3d9880db	0.07446452
244	0xbbf411c6	-0.007448408
245	0xbb047c5a	-0.002021572
246	0xbd0e2282	-0.034700878
247	0x3e122c64	0.14274746
248	0x3b75f0d9	0.003752759
249	0x3e10d43d	0.14143462
250	0x3e0c4251	0.13697173
251	0x38a1c2a4	7.713333e-05
252	0xba8a79fe	-0.0010564921
253	0xbca57b82	-0.020200495
254	0x3e13dead	0.14440413
255	0x3bb88574	0.005631143

a f4 [60]
0	0xbe1df406	-0.15425119
1	0xb9a5900e	-0.00031578582
2	0xbbb7b18f	-0.0056058834
3	0xbe06c939	-0.13162698
4	0x3bedf1e7	0.007261503
5	0x3bde77fe	0.0067892065
6	0x3cfe8672	0.031069968
7	0xbe1cc147	-0.15308104
8	0xbc771e5b	-0.015082921
9	0xbe1d4534	-0.1535843
10	0xbe22a1d1	-0.1588204
11	0x3b8caf72	0.0042933756
12	0xbcb4180d	-0.021984125
13	0xbbba8c83	-0.00569302
14	0xbe1703de	-0.14747569
15	0xbccfa84b	-0.025348803
16	0xbc81d445	-0.015848288
17	0x3b0e1414	0.0021679448
18	0xbabb1f6d	-0.0014276333
19	0x3c69de23	0.014274153
20	0xbe103bfe	-0.14085385
21	0xbe17e0a8	-0.14831793
22	0x3aa87518	0.001285228
23	0x3cc952bd	0.024575585
24	0x3c31832d	0.010834497
25	0x3bee6014	0.007274637
26	0xba85ad03	-0.0010198656
27	0x3bafecdd	0.0053688125
28	0xbe1c77db	-0.15280096
29	0xbb8e7090	-0.0043469146
30	0x3b4110d2	0.0029459489
31	0xbb9c7b1b	-0.0047754175
32	0x3ba78242	0.0051119635
33	0x3b516688	0.0031951983
34	0xbe17c86d	-0.1482255
35	0xbe1c22d9	-0.15247668
36	0xbe15d51c	-0.14632076
37	0xbb8ba167	-0.004261184
38	0xb9a029d7	-0.0003054875
39	0xbe1d0940	-0.1533556
40	0xbbbed4f5	-0.0058237263
41	0x3c67b38e	0.01414193
42	0xbc8ed942	-0.017437581
43	0x3a93f8ad	0.0011289321
44	0xbe1b4d15	-0.15166123
45	0xbbaae56c	-0.0052153375
46	0xbe1e27bc	-0.15444845
47	0xbe16b952	-0.14719132
48	0x3a9942a6	0.0011692836
49	0x3b5613ee	0.0032665688
50	0xbbb42865	-0.0054979795
51	0xbcc4feb5	-0.024047235
52	0x3c890d7f	0.016730068
53	0xbb95b127	-0.0045682373
54	0xbe191895	-0.14950784
55	0x3c0ff969	0.008787491
56	0xbe1aa195	-0.15100701
57	0x3c348914	0.01101901
58	0xbab38453	-0.0013696052
59	0xbe1e87ac	-0.15481442

b f4 [60]
0	0x3dfe83ee	0.12427507
1	0x00000000	0.0
2	0x00000000	0.0
3	0x3de6af1a	0.11263867
4	0x00000000	0.0
5	0x00000000	0.0
6	0xbd4d519a	-0.05012665
7	0x3dffc0a1	0.12487913
8	0x00000000	0.0
9	0x3dfba3df	0.12287115
10	0x3dfa2232	0.122135535
11	0xbc207193	-0.009792703
12	0x00000000	0.0
13	0xbc0e2889	-0.0086766565
14	0x3df48ae1	0.119405515
15	0x00000000	0.0
16	0x00000000	0.0
17	0x00000000	0.0
18	0x00000000	0.0
19	0x00000000	0.0
20	0x3dd8cc83	0.105858825
21	0x3df5654b	0.11982211
22	0x00000000	0.0
23	0xbcbeacd2	-0.023275767
24	0x00000000	0.0
25	0x00000000	0.0
26	0xbbf2d2e1	-0.0074103926
27	0x00000000	0.0
28	0x3dfc7733	0.12327423
29	0xbbf04f83	-0.0073336973
30	0x00000000	0.0
31	0xbd00f1e7	-0.031480696
32	0xbce09875	-0.027416447
33	0xbc42a869	-0.011880972
34	0x3df5d2c6	0.120030925
35	0x3e015739	0.12630929
36	0x3def4c39	0.1168446
37	0xbc2778ee	-0.010221703
38	0xbca905a6	-0.020632576
39	0x3de5ef66	0.11227302
40	0xbbc4c428	-0.006004829
41	0x00000000	0.0
42	0x00000000	0.0
43	0x00000000	0.0
44	0x3df93172	0.12167634
45	0xbbd2123c	-0.006410865
46	0x3df5e634	0.120067984
47	0x3df276f9	0.118390985
48	0xbd011fca	-0.031524457
49	0xbc29c376	-0.010361543
50	0xbbc4c5f4	-0.006005043
51	0x00000000	0.0
52	0x00000000	0.0
53	0x00000000	0.0
54	0x3dfad546	0.1224771
55	0x00000000	0.0
56	0x3df5472f	0.11976468
57	0x00000000	0.0
58	0xbbf99db8	-0.0076176785
59	0x3df45ed5	0.1193215

K f4 [8, 60]
0	0x3e6057d0	0.21908498
1	0xbddab299	-0.10678596
2	0x3c8e41d6	0.017365377
3	0x3ab122aa	0.0013514359
4	0xbb997dca	-0.0046841847
5	0x3bd59553	0.006518045
6	0xbad1ed41	-0.0016016142
7	0xbdb2b567	-0.08726006
8	0x3eb0fffa	0.34570295
9	0xbf818b20	-1.0120583
10	0xbc885eab	-0.016646704
11	0xbdfba1d5	-0.122867264
12	0x3c45324e	0.012035919
13	0x3d0cdc37	0.0343897
14	0xbda26b76	-0.07930653
15	0xb98e985a	-0.0002719786
16	0x3e90c21e	0.282731
17	0x3d23a4d0	0.0399521
18	0xbcbec5ef	-0.023287741
19	0xbc50001d	-0.0126953395
20	0xbf48c1de	-0.7842082
21	0x3cccbc9c	0.02499228
22	0x3b842f5d	0.0040339665
23	0x3c7e67f1	0.015527711
24	0x3bb6934f	0.00557176
25	0x3cee4cfd	0.029089445
26	0x3d515db1	0.05111474
27	0x3e1ba9ac	0.15201443
28	0x3e6ea310	0.23304391
29	0x3d8ad59a	0.067790225
30	0x3dc2a640	0.09504366
31	0xbf43526e	-0.7629765
32	0xbcd366e9	-0.025805907
33	0x3e93eef2	0.28893238
34	0x3e1a0673	0.15041523
35	0xbc632398	-0.013863467
36	0x3dd2c8f6	0.102922365
37	0xbcc84f53	-0.024451887
38	0x3dbde549	0.09272248
39	0xbe4db413	-0.20088224
40	0xbdc72ad9	-0.097249694
41	0x3e8955c5	0.2682325
42	0xbe82c18b	-0.25538287
43	0xbd3128d3	-0.043251824
44	0xbc2ab1b0	-0.010418341
45	0xbc9d7350	-0.019220024
46	0x3d60df98	0.054900736
47	0xbe9dcfb3	-0.30822524
48	0xba3b6046	-0.000714783
49	0x3b047224	0.0020209635
50	0xbe166f2f	-0.1469085
51	0xbc5665f3	-0.01308583
52	0x3e75a4e2	0.23988679
53	0xbd06b276	-0.032885037
54	0xbc6bd73a	-0.014394576
55	0xbde114d7	-0.10990303
56	0xbd150d5a	-0.036389686
57	0xbd0552de	-0.03254973
58	0xbbd60ca7	-0.00653227
59	0xbf45c526	-0.7725395
60	0xbf8a61b0	-1.0811062
61	0xbeb3f8f7	-0.35150883
62	0x3bff9ed3	0.0078009157
63	0xbc5020b4	-0.0127031095
64	0xbc04c5df	-0.008103817
65	0xbc097b67	-0.008391238
66	0x3aea51a4	0.0017877114
67	0xbeb56cee	-0.3543467
68	0x3e085c7b	0.13316528
69	0xbebe89a4	-0.37214386
70	0xbc2800e6	-0.01025412
71	0x3d651c00	0.055934906
72	0xbb575244	-0.003285543
73	0x3e21c1d8	0.15796602
74	0xbec52819	-0.38507155
75	0x3e98336c	0.29726732
76	0x3e2c2365	0.16810377
77	0x3bc613ab	0.006044825
78	0x3e851560	0.2599287
79	0xbc86f503	-0.016474253
80	0x3b07452a	0.002064059
81	0xbbb984dc	-0.00566159
82	0x3a6d1caf	0.00090451067
83	0xbcf48d6e	-0.029852595
84	0x3c4f61bf	0.012657582
85	0xbc55b438	-0.013043456
86	0x3e8fe8ce	0.28107303
87	0x3e4a19bf	0.19736384
88	0xbe8e7558	-0.278239
89	0x3e159e1b	0.14611094
90	0x3e06e56b	0.13173454
91	0x3c811b19	0.015759991
92	0xbc0a8f7e	-0.008457063
93	0x3e0b4b86	0.13603029
94	0xbdf6a86e	-0.12043844
95	0xbd39eeb1	-0.04539365
96	0x3e41b79f	0.18917702
97	0xbb46cd58	-0.0030334797
98	0x3e2182f9	0.15772618
99	0x3f2b496e	0.6690892
100	0x3d5860b2	0.05282659
101	0xbe7682e0	-0.24073362
102	0xbec43403	-0.38320932
103	0x3e89020a	0.26759368
104	0xb8328d09	-4.2569856e-05
105	0xbc91ea8c	-0.017812036
106	0x3e7085f9	0.23488607
107	0x3dba8f23	0.091093324
108	0xbb3690de	-0.0027857344
109	0xbc8aeb0b	-0.01695778
110	0xbee3deb5	-0.4450585
111	0xbc9a5fa9	-0.018844442
112	0xbf1513bc	-0.5823324
113	0x3c69ac24	0.014262233
114	0xbcb8c6b0	-0.02255568
115	0xbe2c4ff3	-0.16827373
116	0x3e9677eb	0.29388365
117	0x3c825219	0.015908288
118	0xbc68b655	-0.014203628
119	0xbbbca786	-0.005757275
120	0xbe4d2242	-0.200326
121	0x3e8aed21	0.2713404
122	0xbae4edc9	-0.0017465885
123	0xbb51caea	-0.0032011815
124	0xbc23ce36	-0.009997895
125	0xbd83892d	-0.064226486
126	0xbcba09a7	-0.02270968
127	0x3ea01d2e	0.31272262
128	0xbede4500	-0.43412018
129	0xbe22e38c	-0.15907115
130	0xbd1ed855	-0.03878053
131	0xbedc2137	-0.4299409
132	0xbd4d05fc	-0.050054535
133	0x3e56ecf4	0.20988828
134	0x3ea240a6	0.31689948
135	0x3e4c4c3c	0.19950956
136	0x3e9a2c27	0.3011181
137	0xbe7521b0	-0.23938632
138	0x3e58745d	0.21138139
139	0xbd51b49a	-0.051197626
140	0x3e82cba6	0.25545996
141	0xbd023591	-0.031789366
142	0xbcd07288	-0.025445238
143	0xbd5c9452	-0.053852387
144	0xbc8b676a	-0.017017085
145	0xbceab8c9	-0.028652566
146	0x3e3363ec	0.17518586
147	0x3ec389ce	0.38191074
148	0xbe1b532c	-0.15168446
149	0x3e3b113c	0.18268293
150	0x3e237bd9	0.15965213
151	0x3e6fad74	0.23406011
152	0xbd67d841	-0.05660272
153	0xbd8322ef	-0.064031474
154	0x3e1d5104	0.15362936
155	0xbd2dd393	-0.0424381
156	0x3e39153b	0.18074505
157	0xbd34cd73	-0.044141244
158	0x3e2d32c5	0.16913898
159	0xbd7aa105	-0.061188716
160	0xbe73cf0f	-0.23809455
161	0x3e057a9b	0.13035052
162	0xbdb653f4	-0.089027315
163	0xbdd0db95	-0.10198132
164	0xbca1db13	-0.019757783
165	0xbd4ca815	-0.049964983
166	0x3e36f7db	0.17867987
167	0xbf498094	-0.7871182
168	0xbc4317f9	-0.011907571
169	0xbd879bb8	-0.06621498
170	0x3f83afdf	1.0288047
171	0xbd2cd41b	-0.042194467
172	0x3edd56ea	0.43230373
173	0xbd884f23	-0.06655719
174	0xbd53a3fa	-0.051670052
175	0xbf3d1af6	-0.73869264
176	0xbf1aeb20	-0.6051502
177	0xbd69afdc	-0.05705248
178	0xbd676ecc	-0.05650215
179	0x3e7cf368	0.24702227
180	0x3f033738	0.5125613
181	0xbe646492	-0.2230399
182	0xbabe4914	-0.0014517629
183	0x3baaef04	0.005216481
184	0x3bcfae8d	0.0063379467
185	0xbc8a69d6	-0.01689617
186	0xbb86007b	-0.0040894127
187	0xbe45f146	-0.1933032
188	0x3edc2a1d	0.4300088
189	0xbf079b55	-0.5297139
190	0xbc5ced9c	-0.013484385
191	0x3e40d90d	0.18832798
192	0x3c9b730a	0.018975753
193	0x3e820b76	0.2539937
194	0xbe4ff457	-0.20308052
195	0x3e3a8310	0.18214059
196	0x3e559986	0.20859346
197	0x3e1b4275	0.1516207
198	0x3e7e0bee	0.24809238
199	0x3bfe249a	0.007755828
200	0x3f4dadda	0.803434
201	0x3c1c238a	0.009529958
202	0x3cfb798a	0.030697603
203	0xbcb7660d	-0.022387529
204	0x3cf4e22b	0.029893002
205	0xbb00971a	-0.0019621314
206	0x3e5022fc	0.20325845
207	0x3e848f55	0.25890604
208	0x3d1be23b	0.038057547
209	0x3e7c49fc	0.24637598
210	0x3e68ce81	0.22735025
211	0x3f4d2dc9	0.8014799
212	0xbcb0084b	-0.02148833
213	0xbe532de3	-0.20622973
214	0xbe17327e	-0.14765355
215	0xbc99e5cd	-0.018786335
216	0x3e68135b	0.22663634
217	0xbcbacf4b	-0.022803923
218	0x3e64bfbd	0.22338767
219	0xbdf71027	-0.12063628
220	0xbe6d9e70	-0.2320497
221	0x3ecf6b29	0.40511444
222	0xbe4c2c05	-0.19938667
223	0xbdb40fc2	-0.08792068
224	0x3c0b4dfa	0.008502478
225	0xbc9b1a2b	-0.018933376
226	0x3e53f438	0.20698631
227	0x3e0e8dad	0.13921233
228	0xba419785	-0.0007384944
229	0xbd34e042	-0.04415918
230	0xbe747d6b	-0.23875968
231	0xbc8ee61d	-0.017443711
232	0xbe5a62d5	-0.21326764
233	0xba8dac22	-0.0010808746
234	0xbc3a548f	-0.011372699
235	0x3ec9acb0	0.39389563
236	0x3ee524ae	0.44754547
237	0x3aa85893	0.001284378
238	0xbcaf713e	-0.021416303
239	0x3f48837a	0.7832562
240	0xbe6d25ea	-0.23158994
241	0xbcf06d25	-0.02934892
242	0xbcb7b087	-0.022423042
243	0xbc4058cd	-0.011739922
244	0x3bbd998e	0.0057861274
245	0xbd604f38	-0.05476305
246	0xbd660b4b	-0.056163114
247	0xbd806681	-0.06269551
248	0xbe13b3ac	-0.14424008
249	0xbe14d385	-0.14533813
250	0xbda0686f	-0.07832419
251	0x3b2bfd87	0.0026243643
252	0xbd3370da	-0.043808796
253	0x3e896e41	0.2684193
254	0xbd5721bc	-0.052522406
255	0x3e4db970	0.2009027

a f4 [60]
0	0xbf68ff12	-0.91014206
1	0x3eb9c1f3	0.36280784
2	0x3b6ac85e	0.0035824995
3	0x3b52b7f0	0.0032153092
4	0xbbef8db8	-0.0073105954
5	0x3dd6927a	0.10477157
6	0xbc65f9d9	-0.014036619
7	0x3ec20485	0.37894073
8	0xbf129a3a	-0.5726658
9	0x3f88c704	1.0685735
10	0x3c066959	0.008203828
11	0x3efb7a14	0.49116576
12	0x3ca11a8b	0.019665977
13	0x3e426839	0.1898507
14	0x3eb3b039	0.35095385
15	0x3e2cd5b7	0.168784
16	0xbf000fbe	-0.5002402
17	0xbc2525b0	-0.010079786
18	0x3e590c16	0.21196017
19	0xbc049dcd	-0.008094263
20	0x3f8a7fec	1.0820289
21	0xbc873b8a	-0.016507883
22	0xbd25a951	-0.040444676
23	0x3c24fc06	0.010069853
24	0xbd63bc97	-0.055599775
25	0xbc0d78a0	-0.008634716
26	0x3e1596af	0.14608262
27	0xbf4906fb	-0.78526276
28	0xbd979f71	-0.07403458
29	0x3e1a3878	0.15060604
30	0x3de1daff	0.11028098
31	0x3f8727d4	1.055903
32	0x3bf6e2f6	0.00753438
33	0xbe93b5c7	-0.28849623
34	0xbe6f4eba	-0.23369876
35	0x3cd9be3d	0.02657997
36	0x3dfa4c1b	0.12221547
37	0x3cd41a84	0.02589155
38	0x3ded5be6	0.11589794
39	0xbf2ea8f5	-0.6822656
40	0xbf0866d1	-0.53281885
41	0x3e800837	0.25006267
42	0x3f2b3239	0.6687351
43	0xbeb4e561	-0.35331252
44	0x3c54b07b	0.012981529
45	0x3c7da3d3	0.015480953
46	0x3e02b6c5	0.12765034
47	0x3f63a0e8	0.889174
48	0xbc2882c4	-0.010285083
49	0xbd0ec749	-0.034858022
50	0x3f36989f	0.7132663
51	0xbb82000e	-0.0039672917
52	0x3eecdbbb	0.4626139
53	0x3d1b59c4	0.037927404
54	0xbcc71e35	-0.024306396
55	0xbf38efec	-0.7224109
56	0xbf4a5b9b	-0.7904603
57	0x3c71ae76	0.014751067
58	0xbc61c339	-0.013779455
59	0x3f86ec8a	1.0540936

b f4 [60]
0	0x3e9fbcc2	0.31198698
1	0x3f5659ad	0.83730584
2	0xbcc977d0	-0.024593264
3	0xbd233d0d	-0.039853144
4	0xbd00f551	-0.031483952
5	0xbd9ff30f	-0.078100316
6	0xbd5fda25	-0.0546514
7	0x3f4b526b	0.79422635
8	0x3f115317	0.5676741
9	0x3ebea7af	0.37237307
10	0xbda2c882	-0.079484
11	0x3fa669f5	1.3001086
12	0xbd210b9d	-0.039317716
13	0xbe6f8e6a	-0.2339417
14	0x3f4fccc1	0.81171805
15	0xbe3a0164	-0.18164593
16	0x3f08defe	0.5346526
17	0x3efed72b	0.49773535
18	0xbe3f7709	-0.18697752
19	0xbd79ae4d	-0.06095724
20	0x3ecb9795	0.39764085
21	0xbd4443fd	-0.0479164
22	0xbcc27c9b	-0.023741057
23	0xbd89becd	-0.067258455
24	0xbd0aa3f7	-0.033847775
25	0xbd565259	-0.052324627
26	0xbe121a69	-0.14267887
27	0x3f52dfb6	0.82372606
28	0x3f4fb61c	0.8113725
29	0xbe54a01c	-0.20764202
30	0xbe2a7b56	-0.16648611
31	0x3ec88289	0.3916209
32	0xbd58bc05	-0.052913684
33	0x3ec8ba64	0.39204705
34	0x3f625b66	0.8842071
35	0xbd88a974	-0.066729456
36	0xbd8badc7	-0.06820255
37	0xbd58e413	-0.052951884
38	0xbe2a0081	-0.16601755
39	0x3e33410a	0.17505279
40	0x3e6364b5	0.22206385
41	0xbe421cdf	-0.18956326
42	0x3f84472a	1.0334218
43	0xbe29ee17	-0.1659473
44	0xbc80045b	-0.015627077
45	0xbd50a27a	-0.0509362
46	0xbe11fb32	-0.1425598
47	0x3e371eb2	0.17882803
48	0xbd345b5a	-0.044032432
49	0xbd8c2577	-0.06843083
50	0x3f6ebda6	0.9325813
51	0xbd770d3a	-0.06031535
52	0xbec3b61c	-0.38224876
53	0xbdb18771	-0.086684115
54	0xbd7e1436	-0.062030993
55	0xbe5b1efc	-0.21398538
56	0x3f025015	0.50903445
57	0xbd898be0	-0.06716132
58	0xbd955ef5	-0.07293502
59	0x3ecd1913	0.40058193

K f4 [8, 60]
0	0x3b7f80c9	0.0038986674
1	0x3df97f55	0.1218249
2	0x3b2fd1ef	0.002682801
3	0xbf3195ce	-0.6936921
4	0xbcb8a9c1	-0.022541882
5	0xba933110	-0.0011229832
6	0x3cc29dbb	0.023756852
7	0xbf5035c6	-0.8133205
8	0x3a622324	0.0008626452
9	0x3d18d95a	0.037316658
10	0xbd80d89e	-0.062913164
11	0xbc8d8046	-0.01727308
12	0xbd30d4bd	-0.043171633
13	0xbcb1c3d7	-0.021699829
14	0x3c1ab616	0.009442827
15	0xbe9c13ac	-0.30483758
16	0x3deba67c	0.11506364
17	0x3e6f8682	0.23391154
18	0xbdd8f232	-0.1059307
19	0xba4d632e	-0.00078349083
20	0x3de7d23b	0.11319395
21	0x3c8b3ba5	0.016996214
22	0xbcc5693d	-0.024098033
23	0xbd16a99b	-0.036782842
24	0xbcd32508	-0.025774494
25	0xbc727cea	-0.01480029
26	0x3eb4b098	0.3529098
27	0xbc8ccdd7	-0.017187996
28	0x3cf5db3a	0.030011762
29	0x3d73085e	0.05933415
30	0xbcc3c5a6	-0.023897957
31	0x3acea057	0.0015764338
32	0xbe3439a8	-0.17600119
33	0x3de06744	0.10957196
34	0xbc7906ae	-0.0151993465
35	0xbcd06ae9	-0.025441604
36	0x3df4eed4	0.11959615
37	0xbe625287	-0.22101794
38	0xbbab05dc	-0.0052192044
39	0xbc3fc7b6	-0.01170533
40	0xbc1799b3	-0.009252953
41	0xbe94cd7d	-0.29063025
42	0xbbbcd900	-0.005763173
43	0xbc9fa04f	-0.01948562
44	0xbcd63ef0	-0.026153058
45	0x3dedd760	0.11613345
46	0xbdb0b0ad	-0.08627448
47	0x3e00a332	0.12562254
48	0x3debefa9	0.11520321
49	0x3e063e39	0.13109674
50	0xbc4fc57f	-0.012681364
51	0xbc9a7b53	-0.018857634
52	0xbc3b9c01	-0.011450768
53	0xbdcfe01a	-0.10150166
54	0x3dd2a123	0.10284641
55	0xbb97c9d4	-0.004632214
56	0x3e29d90f	0.16586708
57	0x3bbaca34	0.005700374
58	0xbcaafae9	-0.020871596
59	0xbcb8cc99	-0.022558497
60	0xbc0d112d	-0.008610052
61	0x3de269f9	0.11055369
62	0xbb172f5d	-0.0023069002
63	0x3fc0c5c7	1.5060357
64	0xbd0530d6	-0.032517277
65	0x3917263b	0.00014414724
66	0x3c92de3b	0.017928233
67	0x3e4ac09b	0.19800036
68	0x3b902fd9	0.004400235
69	0xbe11525e	-0.14191577
70	0x3e09a119	0.1344036
71	0x3ca3d161	0.0199973
72	0xbd805ea9	-0.06268055
73	0xbd44db12	-0.048060484
74	0xbc1ac646	-0.009446686
75	0xbd690be1	-0.056896094
76	0x3db824a8	0.089913666
77	0x3ea035fd	0.3129119
78	0x3da5a60d	0.08088312
79	0xbcb18415	-0.021669427
80	0x3db39609	0.08768851
81	0x3c0262f2	0.007958161
82	0xbd003b5a	-0.031306602
83	0xbd19b82b	-0.037529152
84	0xbd1b6f94	-0.037948206
85	0x3c073346	0.008251971
86	0xbd3b32ba	-0.045702673
87	0xbc2d1515	-0.010564108
88	0x3c9a2f67	0.018821431
89	0x3ed08399	0.407254
90	0xbd11fab9	-0.0356395
91	0xbc90bcfd	-0.017668242
92	0xbf1a20c2	-0.60206234
93	0x3db8f633	0.09031334
94	0x39ba7185	0.00035561263
95	0xbd0317e5	-0.03200521
96	0x3dbe5b1f	0.09294724
97	0x3d98d19a	0.07461853
98	0xbc17d240	-0.009266436
99	0x3c74cba7	0.014941133
100	0xbcce59c9	-0.025189297
101	0x3ed2ee51	0.41197446
102	0xbca92c74	-0.02065108
103	0xbca93f39	-0.02066003
104	0xbccb8dc6	-0.024847876
105	0x3dc18d09	0.094507284
106	0xbd72ca9c	-0.059275255
107	0x3dcf0b8c	0.10109624
108	0x3dbce959	0.09224195
109	0x3dd04543	0.101694606
110	0x3ca44c01	0.020055773
111	0xbd0640e9	-0.032776747
112	0x3af4616b	0.0018644755
113	0xbd3dff15	-0.046385843
114	0x3dbc299f	0.09187626
115	0xbc452595	-0.012032886
116	0xbea8a2f9	-0.32936838
117	0xbb9b9361	-0.0047477935
118	0xbd26641e	-0.040622823
119	0xbd08edfc	-0.033430085
120	0xbc0726bf	-0.008248984
121	0x3e683d08	0.22679532
122	0xbcc8644a	-0.024461884
123	0x3e764bac	0.24052304
124	0xbc65d8dc	-0.014028754
125	0x3baf9cc0	0.005359262
126	0xbca5b7d8	-0.020229265
127	0x3e96217a	0.29322416
128	0x38f4f6e7	0.00011680816
129	0xbdae65a9	-0.08515484
130	0x3e92febe	0.28709978
131	0xbccfab99	-0.025350379
132	0xbd036bb4	-0.032085136
133	0xbca24a36	-0.019810777
134	0xbb3e3c22	-0.0029027541
135	0x3e3d2b8b	0.18473642
136	0x3e6fcb7e	0.2341747
137	0x3ec04739	0.3755434
138	0x3d46f9f0	0.048578203
139	0xbc28c697	-0.010301254
140	0x3e634b9e	0.22196814
141	0x3b7ab785	0.0038256359
142	0xbd4842c0	-0.048891783
143	0xbd4e5a38	-0.050379008
144	0xbc6ded4c	-0.014521908
145	0xbc34d140	-0.011036217
146	0x3f61a08b	0.88135594
147	0x39b0b1c1	0.00033701773
148	0xbcefd26b	-0.02927514
149	0x3e5f5036	0.21807942
150	0xbcee32ab	-0.029076895
151	0xbbd6d5bb	-0.0065562404
152	0xbefe916c	-0.49720323
153	0x3e65ede3	0.22454028
154	0xbc8013e5	-0.015634486
155	0xbd132262	-0.035921462
156	0x3e670098	0.2255882
157	0x3da00dfb	0.078151666
158	0xb807f87b	-3.2417924e-05
159	0xbc6ff58d	-0.014645946
160	0xbd22db33	-0.039759826
161	0xbe70cd95	-0.23515923
162	0xbc53f18d	-0.012936008
163	0xbcdd6f16	-0.027030509
164	0xbcc47abd	-0.023984307
165	0x3e63fbcd	0.22264023
166	0xbe37567a	-0.17904082
167	0x3e5ff598	0.2187103
168	0x3e65678d	0.22402783
169	0x3e5dc2a8	0.21656287
170	0xbce62b04	-0.028096683
171	0xbcbae7e8	-0.02281566
172	0xbc936942	-0.017994527
173	0xbe4851a0	-0.19562387
174	0x3e5ccb00	0.21561813
175	0xbc3a3b5d	-0.011366692
176	0x3ea741ce	0.32667392
177	0xbc4abb27	-0.012373722
178	0xbb2215c8	-0.002473222
179	0xbcf170b0	-0.029472679
180	0xbc860c18	-0.016363189
181	0x3e115d2d	0.141957
182	0xb9b1437a	-0.00033810345
183	0xbf093b66	-0.5360626
184	0xbc78343d	-0.015149173
185	0xbb83676f	-0.004010133
186	0x3c8fabfd	0.017538065
187	0x3ee76b7f	0.451992
188	0x3c2ad4cd	0.010426712
189	0xbe75211f	-0.23938416
190	0x3e8061e1	0.25074676
191	0xbc0cf7e5	-0.008604025
192	0xbd6e7fd5	-0.05822738
193	0xbbe88e14	-0.007097015
194	0xbc055184	-0.008137111
195	0x3e9063f0	0.28201246
196	0x3e16d477	0.14729486
197	0x3eafa4ab	0.3430532
198	0x3e2563c1	0.16151334
199	0xbb5af0f4	-0.003340778
200	0x3e1a34b9	0.15059175
201	0xbc7cc0ab	-0.015426795
202	0xbcf513da	-0.029916693
203	0xbcddb5e7	-0.027064277
204	0x3cc37d81	0.023863556
205	0xbc95978d	-0.018260742
206	0xbc9fde14	-0.019515075
207	0x3bad7f04	0.0052946825
208	0xbd05d900	-0.03267765
209	0x3edf9fb0	0.4367652
210	0xbcf64829	-0.030063706
211	0xbcd4386e	-0.025905814
212	0x3d0fb3bc	0.035083517
213	0x3e29189b	0.16513292
214	0xbbf2e718	-0.0074128024
215	0xbcc70b59	-0.024297403
216	0x3e1d8185	0.15381439
217	0x3ec2a3d9	0.3801563
218	0x3b376c56	0.0027988157
219	0xbabddffa	-0.0014486306
220	0xbc8b5c98	-0.017011926
221	0xbe666fc4	-0.22503573
222	0xbb1fc833	-0.0024380803
223	0xbcd5ecb1	-0.02611384
224	0x3cd884ad	0.026430452
225	0x3e21025f	0.15723561
226	0xbed4a45a	-0.4153164
227	0x3e0ed92b	0.1395003
228	0x3e169906	0.14706811
229	0x3e058b95	0.13041528
230	0xbb0a1b62	-0.002107345
231	0x3caab9c0	0.020840526
232	0x3b00ad12	0.0019634408
233	0xbee580c3	-0.448248
234	0x3e1e2f86	0.15447816
235	0xbb12b7e8	-0.0022387449
236	0xbe8f253e	-0.279581
237	0xbc40d4db	-0.011769499
238	0xbccb3fe2	-0.024810735
239	0xbca5aaf7	-0.020223124
240	0xbbb66aa1	-0.0055669104
241	0x3df49d22	0.11944033
242	0xbcc864e0	-0.024462163
243	0xbe6d0559	-0.23146571
244	0xbc8240dc	-0.015900068
245	0xbc6e7c3d	-0.014555988
246	0xbc904ae0	-0.017613828
247	0x3f1fc1eb	0.6240527
248	0xbc5fb5be	-0.013654171
249	0x3e9cf545	0.30655876
250	0x3e8e3f55	0.27782694
251	0xbd000f14	-0.03126438
252	0xbcc462cf	-0.023972897
253	0xbc102a8b	-0.0087992055
254	0xbc515259	-0.012775981
255	0xbee02312	-0.43776757

a f4 [60]
0	0xbc452f45	-0.012035196
1	0xbe210bce	-0.1572716
2	0x3bc1c1a8	0.005912978
3	0xbfa3bcc2	-1.2791979
4	0xbc02a01d	-0.007972744
5	0x3accce93	0.0015625529
6	0x3d4fe490	0.050755084
7	0x3fdc617e	1.7217252
8	0x3bb87f83	0.005630435
9	0xc01ae46b	-2.4201915
10	0x3f21996c	0.6312473
11	0xbcadccd3	-0.021215832
12	0x3cd8d4e4	0.026468702
13	0xbb243a2e	-0.0025059092
14	0xbc1f6dd0	-0.009730771
15	0xbf057e2a	-0.52145636
16	0xbe17530f	-0.14777778
17	0x3e8bbf4d	0.27294388
18	0xbf814b41	-1.0101091
19	0xb91c8f73	-0.00014930758
20	0xbe1f0c67	-0.15532075
21	0xbbb9cb53	-0.00566999
22	0xbb3d8769	-0.0028919822
23	0x3cdfaa22	0.027302805
24	0x3c782bd1	0.015147165
25	0xbc11dde0	-0.008902997
26	0x3fb4e647	1.4132775
27	0xbc555182	-0.013019921
28	0x3ce52867	0.027973367
29	0x3f924b4e	1.1429231
30	0x3ba4627a	0.005016622
31	0xbc56f252	-0.013119297
32	0xbf2ad95a	-0.667379
33	0xbe1afe15	-0.15135987
34	0x3c2e760f	0.010648265
35	0xbc321eda	-0.010871613
36	0xbe1de3c6	-0.1541892
37	0xbf633282	-0.88748944
38	0x3c24f610	0.0100684315
39	0xbb95cdc6	-0.0045716492
40	0x3c8d21fc	0.01722812
41	0xc0460401	-3.0939944
42	0xbb84853e	-0.004044204
43	0x3c9c1f4b	0.01905789
44	0x3c2e89c0	0.010652959
45	0xbe19a418	-0.15004003
46	0xbf100c66	-0.5626892
47	0xbe1f205a	-0.15539685
48	0xbe22d534	-0.15901643
49	0xbe174842	-0.14773658
50	0x3c301eed	0.010749561
51	0x3a156ada	0.0005699821
52	0x3a1251c3	0.00055816415
53	0xbf2842d0	-0.6572695
54	0xbe13422d	-0.14380713
55	0x3a2f3e0a	0.0006684965
56	0x3ed565bd	0.41679183
57	0xbb27a953	-0.0025583103
58	0xbc8b525a	-0.017007042
59	0xbcf3b0b2	-0.02974734

b f4 [60]
0	0x00000000	0.0
1	0x3e2f50ee	0.17120716
2	0xbc2d87ba	-0.010591442
3	0xbe898941	-0.2686253
4	0xbc9f0f77	-0.019416554
5	0x00000000	0.0
6	0xbcc173c1	-0.023614766
7	0xbed87901	-0.4227982
8	0xbbc63f17	-0.0060500014
9	0x3f9154ec	1.1354041
10	0xbef0e49d	-0.47049418
11	0xbcba58aa	-0.022747356
12	0x3ca65577	0.020304425
13	0xbcc50eec	-0.024054967
14	0x00000000	0.0
15	0x3f0e0f66	0.55492246
16	0x3e32791f	0.17429017
17	0x3e98516c	0.2974962
18	0x3eebeb44	0.4607793
19	0xbbe3307b	-0.0069332696
20	0x3e2eaa3b	0.17057125
21	0x00000000	0.0
22	0xbcfd78d6	-0.030941408
23	0xbccc9a3e	-0.024975892
24	0xbcc78f17	-0.024360223
25	0x00000000	0.0
26	0x3df598a9	0.11992008
27	0xbca8b736	-0.020595174
28	0xbcf7b02b	-0.03023537
29	0xbf07a35a	-0.5298363
30	0xbcbf041c	-0.02331739
31	0x00000000	0.0
32	0xbdde60cd	-0.10858307
33	0x3e2e12ec	0.16999406
34	0xbc12d5a6	-0.008962071
35	0xbce90c28	-0.02844818
36	0x3e2c7d59	0.16844691
37	0x3cf51e3b	0.029921642
38	0xbbc4c9cd	-0.006005502
39	0xbc0029c5	-0.007822459
40	0xbcac16e2	-0.021007005
41	0x3f928a6f	1.1448497
42	0xbbf98477	-0.007614668
43	0xbcbbc12b	-0.022919258
44	0xbcc75847	-0.024334086
45	0x3e2cdfea	0.16882291
46	0xbe0ff0f8	-0.14056766
47	0x3e29c922	0.16580632
48	0x3e2e1afb	0.1700248
49	0x3e280122	0.16406682
50	0xbcac49ba	-0.02103125
51	0xbcc6ad45	-0.024252543
52	0xbc551942	-0.01300651
53	0xbe104577	-0.14088999
54	0x3e2d7bd6	0.16941771
55	0xbbe60ce4	-0.0070205797
56	0x3d2efb62	0.042720206
57	0x00000000	0.0
58	0xbca95cc3	-0.020674115
59	0xbcf10c1c	-0.02942472
