model/testcase_2_distsquare_eps_0.0004_l_0.004_auglag_lbfgsiters_100addloss_0_adddim_0__seed_1/model37000.pkl (torch, 40352 bytes, 22 tensors)

Qincpt f4 [100, 1, 8]
0.9837163 1.1982437 0.6956506 1.0814173 0.9826533 0.9288222 1.0359075 1.0549989
0.849898 0.91525376 0.67174435 0.86364764 0.82000685 1.005134 0.65979433 0.9461926
0.7850964 0.70644104 0.5788824 0.6842967 1.0649495 0.7005093 0.6315869 1.0815098
0.9271415 0.97156787 0.6152429 0.71298134 0.8945542 0.8403409 0.6741976 0.93230236
1.2638932 1.020861 0.9280777 1.1627431 1.0506425 1.0868392 0.61161596 1.2391214
0.89342934 1.1008985 1.0621042 0.8663751 0.7494134 0.851432 0.99284375 1.078733
0.8646287 0.69661105 0.72236794 0.8923981 0.9158357 0.6986891 0.9404614 0.7651634
0.95398504 0.7690898 1.0796185 0.97886413 0.83697146 0.78752387 1.0460793 0.8423187
0.6632308 0.72056544 0.97729796 0.65570617 0.83779055 1.0701083 0.87913513 0.52965117
0.7018352 0.8138551 0.7421102 0.6395066 1.1466746 0.43552446 0.76586646 1.2282555
0.9736844 1.1221989 1.1413038 0.98610437 0.9133663 1.1816435 0.97188705 1.2206022
0.857549 0.76001483 0.8013542 0.90650237 1.0260689 0.8699518 0.7757578 0.8787853
0.9125084 0.8886843 1.0976827 0.9850036 1.1522546 1.0607134 1.1469877 1.1443802
0.9309188 0.5589637 0.85415024 0.9698593 1.231336 1.1924852 0.6839482 0.77911854
0.83894926 0.75512874 1.0377543 0.8073571 1.1019326 1.2470056 0.85253596 0.7636464
0.700511 0.61679584 0.47798365 0.6825615 1.2406389 0.23507257 0.72739196 1.3707018
0.7864759 0.8335742 0.9924993 0.9720307 0.89167935 0.79682696 1.0294176 0.805997
1.371099 1.1412932 1.1114985 1.2295978 0.8345058 1.058698 0.6010832 0.8491475
0.8043985 0.9036695 0.41872054 0.9923185 1.2930762 0.010099864 0.750391 1.6276302
0.8416033 0.81462514 1.0048084 0.9230138 1.1036773 0.60459167 1.0653845 1.3209962
0.96017253 1.1966219 0.9662832 1.1349376 0.8520368 0.68563676 1.0092362 1.1403977
0.8665152 0.9430795 0.95036507 1.0924346 1.2441791 0.7399986 0.96053743 1.3616327
0.90497804 0.732825 0.9054014 0.8389353 1.0937196 0.62631756 0.98611176 0.68902457
0.7237426 0.7146489 0.6532829 0.6290374 0.7915763 1.1483458 0.58058643 0.5474926
0.9424776 1.3216548 1.2768624 1.075782 0.88639677 0.84434223 1.0832553 1.4147274
0.9545959 1.0687782 1.16149 0.9701705 0.8033062 0.89555407 0.97150314 1.0218127
1.4284943 1.4831531 0.98024565 1.4422746 0.9794723 1.2869674 0.6481956 1.5907606
0.8297182 1.5609623 0.83900523 0.8606769 0.70313215 1.1154702 0.9851339 1.1485761
0.7683917 0.6410505 0.8944915 0.8520441 1.0820192 1.0594317 0.6570006 0.87853795
0.9985723 1.0765858 1.0433059 1.0881087 0.96013373 0.96438116 1.0577052 1.2212138
0.8854064 0.8871259 0.77029645 0.81379825 0.89597064 0.9037047 0.6784552 0.80985975
0.78198475 0.8956023 0.9175846 0.8773542 1.1813158 1.1010941 0.7820056 1.3354112
00000000: d5d4 7b3f 0d60 993f 2816 323f e26b 8a3f
00000010: 2b8f 7b3f 4bc7 6d3f 9e98 843f 340a 873f
00000020: ea92 593f 124e 6a3f 70f7 2b3f 0318 5d3f
00000030: f8eb 513f 3ba8 803f 48e8 283f ae39 723f
00000040: 14fc 483f 52d9 343f a331 143f 122e 2f3f
00000050: 4450 883f 9454 333f aeaf 213f ea6e 8a3f
00000060: 2559 6d3f acb8 783f 8f80 1d3f f285 363f
00000070: 8101 653f 9520 573f 3798 2c3f 5eab 6e3f
00000080: 41c7 a13f 93ab 823f 8096 6d3f c4d4 943f
00000090: 747b 863f 8c1d 8b3f dd92 1c3f 889b 9e3f
000000a0: c9b7 643f 3eea 8c3f 08f3 873f c2ca 5d3f
000000b0: 8ed9 3f3f 73f7 593f 022b 7e3f ec13 8a3f
000000c0: 4e58 5d3f 1a55 323f 1bed 383f 3474 643f
000000d0: 3574 6a3f 4add 323f 14c2 703f c0e1 433f
000000e0: 5d38 743f 12e3 443f f030 8a3f d796 7a3f
000000f0: c343 563f 2a9b 493f ede5 853f 33a2 573f
00000100: 7ec9 293f fa76 383f 3330 7a3f 5cdc 273f
00000110: 7179 563f 4ff9 883f 000f 613f 3897 073f
00000120: 79ab 333f cf58 503f effa 3d3f b4b6 233f
00000130: 3cc6 923f 10fd de3e d30f 443f 7a37 9d3f
00000140: 6143 793f 37a4 8f3f 3e16 923f 5671 7c3f
00000150: 60d2 693f 1840 973f 97cd 783f b13c 9c3f
00000160: 5588 5b3f 5590 423f 8d25 4d3f 8a10 683f
00000170: 3a56 833f 29b5 5e3f 1098 463f 13f8 603f
00000180: 279a 693f d080 633f de80 8c3f 3229 7c3f
00000190: 147d 933f 75c5 873f 7ed0 923f 0d7b 923f
000001a0: b250 6e3f 3f18 0f3f 97a9 5a3f b348 783f
000001b0: 6b9c 9d3f 5ba3 983f 3b17 2f3f 5074 473f
000001c0: 61c5 563f 1e50 413f 22d5 843f f4ae 4e3f
000001d0: 210c 8d3f e19d 9f3f cc3f 5a3f 557e 433f
000001e0: b054 333f 55e6 1d3f 46ba f43e 5abc 2e3f
000001f0: 41cd 9e3f ddb6 703e 5c36 3a3f 2873 af3f
00000200: 7c56 493f 1e65 553f 6f14 7e3f 01d7 783f
00000210: 1945 643f dafc 4b3f f5c3 833f d255 4e3f
00000220: 2c80 af3f e515 923f 9545 8e3f 7663 9d3f
00000230: 2ca2 553f 6b83 873f 97e0 193f bb61 593f
00000240: 0fed 4d3f e256 673f 8a62 d63e 9608 7e3f
00000250: 8583 a53f e679 253c a019 403f 3056 d03f
00000260: 5073 573f 468b 503f 909d 803f a24a 6c3f
00000270: 4c45 8d3f 85c6 1a3f 855e 883f 6716 a93f
00000280: decd 753f e82a 993f 565e 773f a345 913f
00000290: 151f 5a3f e485 2f3f a72e 813f 8df8 913f
000002a0: f1d3 5d3f a86d 713f 204b 733f e6d4 8b3f
000002b0: 4341 9f3f 8c70 3d3f c8e5 753f fb49 ae3f
000002c0: a4ac 673f 6b9a 3b3f 63c8 673f 77c4 563f
000002d0: 01ff 8b3f 5956 203f d271 7c3f ea63 303f
000002e0: 3247 393f 3bf3 363f 8c3d 273f 9808 213f
000002f0: bfa4 4a3f fffc 923f 50a1 143f 7a28 0c3f
00000300: 3646 713f fc2b a93f 3a70 a33f 39b3 893f
00000310: e6ea 623f d026 583f 1ca8 8a3f ca15 b53f
00000320: 6660 743f b9cd 883f b4ab 943f 185d 783f
00000330: 7aa5 4d3f 0843 653f 6eb4 783f c2ca 823f
00000340: e7d8 b63f f6d7 bd3f 61f1 7a3f 749c b83f
00000350: b2be 7a3f 59bb a43f 26f0 253f 0b9e cb3f
00000360: 6968 543f 9dcd c73f 0cc9 563f 5255 5c3f
00000370: 7800 343f bac7 8e3f bc31 7c3f 8b04 933f
00000380: 52b5 443f e31b 243f 65fd 643f 901f 5a3f
00000390: 9b7f 8a3f 759b 873f 3131 283f dde7 603f
000003a0: 6fa2 7f3f 90cd 893f 0c8b 853f 2547 8b3f
000003b0: 53cb 753f afe1 763f e262 873f bc50 9c3f
000003c0: fea9 623f af1a 633f 2632 453f 1555 503f
000003d0: 555e 653f 3159 673f 3daf 2d3f f852 4f3f
000003e0: 2730 483f 3146 653f d3e6 6a3f 499a 603f
000003f0: 5b35 973f a7f0 8c3f 8531 483f c1ee aa3f

Qslope f4 [100, 1, 8]
1.6266747 0.9157136 1.6949847 1.1582075 2.120385 1.2698573 1.3959849 2.414983
0.673571 0.7843176 1.0483655 0.7341392 0.6523114 0.6587939 1.1725594 0.58266956
0.7124267 0.91060454 1.175662 0.96046484 0.32826626 0.99241483 1.1946391 0.4041342
0.544406 0.6277363 1.1021357 0.96269816 0.54319626 0.76698005 1.1743662 0.53783035
0.2995076 0.6687067 0.75913715 0.42282954 0.34745464 0.63024366 1.1447469 0.16044062
2.4282198 1.33914 1.0583287 1.3064582 1.7468137 0.87399715 1.1903979 0.9683012
0.7141864 0.9488543 0.9484279 0.7836428 0.7012585 0.86205345 0.8170021 0.93471223
0.61557513 0.89265364 0.47824407 0.529126 0.811237 0.37199405 0.6443134 1.0646256
0.92637944 0.9338791 0.8694936 1.0662621 0.73231965 0.59635395 0.96164966 1.0623056
0.8537591 0.78679794 1.0123051 0.9644023 0.36334342 1.1381197 0.9697297 0.38857502
0.54668915 0.5561938 0.76479936 0.5733171 0.5330605 0.40820637 0.9364793 0.32125682
0.73979557 0.93219554 0.99434996 0.7854666 0.60772055 0.7444754 1.0805582 0.783387
0.67222416 0.80280685 0.78729594 0.8033402 0.6016655 0.5540477 0.75738204 0.5734958
0.6856893 1.16858 0.9794375 0.7602331 0.35631424 0.5910975 1.1267744 0.8469005
0.77420795 0.97351545 0.8678913 0.91467994 0.40232047 0.477733 0.95434266 0.7573234
0.87473565 1.0031284 1.2577494 0.95177007 0.317096 1.4069681 0.98228025 0.2924947
0.86766833 0.7781793 0.6670954 0.6264043 0.64491814 0.75169873 0.72796166 0.8696422
1.8420684 1.4523145 0.44443625 0.50099987 1.7473207 0.35442516 1.1676073 2.0252075
0.92256725 0.65540105 1.3548876 0.61418873 0.17807758 2.038532 1.1774027 -0.12257105
0.8178092 0.8362351 0.92934674 0.74939835 0.8511384 0.82529354 0.8280612 0.6041117
0.90120304 0.4905901 0.77892387 0.46934837 1.0871208 1.2448249 1.0197624 0.8089327
0.7731896 0.69209176 0.86496365 0.5486168 0.3874449 0.9669182 0.95101833 0.26858497
0.67794144 0.90241385 0.82271326 0.86037636 0.38577998 1.0982836 0.7851958 0.8285897
0.7760722 1.0095708 1.0962014 0.995756 0.6311742 0.5084915 1.2369664 0.9872938
2.1579957 0.9023444 0.54754066 0.7505072 1.6376102 1.1738437 1.1097188 0.6042294
2.1998382 1.3107429 0.67188764 1.0917741 1.6051764 0.849341 1.1226382 1.0948448
2.4629478 0.77915686 1.0010406 0.3609878 1.4510936 1.5601298 1.6535256 0.31745866
1.501791 0.27070794 1.1026253 0.79814017 1.6822511 1.0341227 1.1554191 1.1789151
0.8464958 1.0022562 0.89597005 0.82004917 0.5033343 0.59804916 1.121968 0.7655348
0.83691144 0.7112577 0.80040276 0.56446165 0.72277755 0.45290595 0.7442709 0.46803248
0.72179854 0.7465263 0.9786426 0.81663954 0.55237406 0.88839334 1.0637926 0.67369556
0.7103058 0.87792647 0.9401943 0.6828356 0.21579403 0.6142479 1.0933372 0.3321591
00000000: e036 d03f 356c 6a3f 42f5 d83f 2540 943f
00000010: 63b4 0740 af8a a23f a2af b23f 158f 1a40
00000020: 266f 2c3f 0ac9 483f d730 863f 8cf0 3b3f
00000030: e1fd 263f b8a6 283f 6d16 963f d529 153f
00000040: 9961 363f 611d 693f 187c 963f 06e1 753f
00000050: 8412 a83e e60e 7e3f efe9 983f aeea ce3e
00000060: 315e 0b3f 53b3 203f c812 8d3f 6373 763f
00000070: e90e 0b3f ce58 443f a251 963f 40af 093f
00000080: 0f59 993e 5d30 2b3f d056 423f 1d7d d83e
00000090: 93e5 b13e a657 213f 1187 923f 8c4a 243e
000000a0: f467 1b40 f168 ab3f 5177 873f 063a a73f
000000b0: 9797 df3f 47be 5f3f f55e 983f 96e2 773f
000000c0: ebd4 363f 1ee8 723f 2ccc 723f d19c 483f
000000d0: ad85 333f 89af 5c3f 0d27 513f 4d49 6f3f
000000e0: 5596 1d3f f384 643f 68dc f43e cd74 073f
000000f0: 3aad 4f3f 0176 be3e b9f1 243f a745 883f
00000100: 3427 6d3f b312 6f3f 2297 5e3f 477b 883f
00000110: 4d79 3b3f a7aa 183f ac2e 763f a1f9 873f
00000120: f58f 5a3f 976b 493f 3793 813f 12e3 763f
00000130: 2608 ba3e e8ad 913f 3540 783f 4ef3 c63e
00000140: d2f3 0b3f b862 0e3f e4c9 433f e9c4 123f
00000150: a776 083f 6d00 d13e 1bbd 6f3f c67b a43e
00000160: 3e63 3d3f 5ea4 6e3f b88d 7e3f 5714 493f
00000170: 9393 1b3f f195 3e3f bb4f 8a3f 0d8c 483f
00000180: e216 2c3f c084 4d3f 3a8c 493f b4a7 4d3f
00000190: c006 1a3f 12d6 0d3f cae3 413f 9fd0 123f
000001a0: 5589 2f3f 0894 953f 6abc 7a3f a39e 423f
000001b0: d26e b63e 2a52 173f 253a 903f 79ce 583f
000001c0: 7e32 463f 4f38 793f 202e 5e3f 7728 6a3f
000001d0: f3fc cd3e 6b99 f43e cd4f 743f f2df 413f
000001e0: adee 5f3f 8366 803f effd a03f 34a7 733f
000001f0: 685a a23e 8817 b43f b876 7b3f dec1 953e
00000200: 831f 5e3f c236 473f c4c6 2a3f 085c 203f
00000210: 5b19 253f 546f 403f b25b 3a3f dfa0 5e3f
00000220: e6c8 eb3f 71e5 b93f 268d e33e 8741 003f
00000230: 34a8 df3f 3777 b53e 2874 953f 009d 0140
00000240: 5e2d 6c3f 5dc8 273f f56c ad3f 793b 1d3f
00000250: f859 363e 4f77 0240 22b5 963f 8806 fbbd
00000260: f25b 513f 8113 563f abe9 6d3f 92d8 3f3f
00000270: 35e4 593f 7046 533f d2fb 533f 10a7 1a3f
00000280: 3eb5 663f a02e fb3e 8e67 473f 6e4e f03e
00000290: c626 8b3f 6c56 9f3f 9387 823f 3716 4f3f
000002a0: c1ef 453f ed2c 313f 426e 5d3f 2772 0c3f
000002b0: 2e5f c63e f387 773f f075 733f f883 893e
000002c0: 928d 2d3f 9804 673f 569d 523f a041 5c3f
000002d0: f484 c53e 8f94 8c3f 9802 493f 741e 543f
000002e0: abac 463f 9e39 813f 5450 8c3f dde9 7e3f
000002f0: a294 213f 802c 023f ea54 9e3f 49bf 7c3f
00000300: 9a1c 0a40 0b00 673f a02b 0c3f 3d21 403f
00000310: 369d d13f 8340 963f 440b 8e3f c7ae 1a3f
00000320: 26ca 0c40 6cc6 a73f d400 2c3f 41bf 8b3f
00000330: 6c76 cd3f 696e 593f 9cb2 8f3f e023 8c3f
00000340: f0a0 1d40 d376 473f 1922 803f 65d3 b83e
00000350: 6fbd b93f 55b2 c73f baa6 d33f f189 a23e
00000360: b03a c03f 3b9a 8a3e d322 8d3f ea52 4c3f
00000370: 0154 d73f 225e 843f c6e4 933f b1e6 963f
00000380: f3b3 583f ee49 803f 4b5e 653f beee 513f
00000390: 84da 003f c019 193f a69c 8f3f 17fa 433f
000003a0: d43f 563f fc14 363f 32e7 4c3f 8f80 103f
000003b0: f307 393f 4ae3 e73e 8a88 3e3f f4a1 ef3e
000003c0: cac7 383f 591c 3f3f 5288 7a3f 4a0f 513f
000003d0: 6368 0d3f bf6d 633f 5b2a 883f 5077 2c3f
000003e0: 9ad6 353f cabf 603f 93b0 703f 50ce 2e3f
000003f0: 1cf9 5c3e 5a3f 1d3f 79f2 8b3f c210 aa3e

Pincpt f4 [100, 1, 8]
1.3907123 1.1381192 1.368491 1.2427921 0.52829754 0.7548509 1.4021916 1.3393772
1.1162891 1.2403468 1.0873934 1.0710537 0.9640519 1.088877 1.093363 1.2544843
1.205356 1.1543863 0.9572139 1.1834267 1.022336 1.0630867 1.2230462 1.1848176
1.1431314 1.037378 1.0113126 1.1314598 1.0054775 1.0632445 1.1015186 1.1802195
1.1404878 1.2209935 1.0213757 1.1157007 0.9451239 1.0493908 1.2566863 1.2423452
0.6701788 0.98786056 0.76636827 0.69632643 0.9656311 1.1085447 0.85850155 1.251093
1.1840938 0.8571462 1.0315741 1.1510677 1.1694986 1.0203947 1.0807757 1.1307753
1.1949754 0.8744913 0.83985835 1.096117 1.3350245 0.9130751 1.1242642 0.93381965
1.1007922 1.124636 0.9332691 1.1004984 1.1379474 1.1514428 1.0666349 1.176979
1.2866122 1.0303801 0.8278263 1.2226994 1.2884084 0.95962554 1.2922782 0.98721683
1.0841389 1.3334028 0.82767737 1.0237155 1.1944481 1.1092 1.1128699 1.1248081
1.0817623 1.0048937 1.0716445 1.0256538 1.1929644 1.1407623 0.95486 1.1708287
1.0447417 0.9656337 1.0301923 1.0037136 1.2584965 1.1875632 0.8522432 1.14327
1.2181745 1.1212685 1.0952559 1.1646466 0.9257774 1.0495119 1.2556618 1.33174
1.0811404 1.2830809 0.89712936 1.0956248 1.0602899 1.1663162 1.152678 1.2661426
1.3427074 1.051367 0.86073864 1.3006293 1.1520315 0.9324225 1.3811558 1.0692388
1.1325812 0.9305514 0.9709265 1.0965235 1.1915478 1.0427482 1.0457366 1.0934483
0.74949306 0.97891074 0.9923452 0.8110548 1.0197383 1.2144548 1.1971725 1.4874778
1.280903 0.9491642 1.0306802 1.2741125 0.97499716 0.9347958 1.2515943 1.2036377
1.119592 0.9249508 0.82585776 1.0445752 1.4346156 1.1013635 0.89491946 0.90770537
1.1087482 1.0941241 1.0654045 1.0704681 1.0030757 1.0362387 1.0360669 1.1794645
1.0889356 0.9651529 1.0176034 1.050885 1.2349821 1.1258533 0.93818545 1.1363732
1.191711 0.9817397 1.022189 1.1626899 1.1240889 1.061895 1.1467539 1.1173885
1.0987545 1.2745148 1.0488487 1.0547755 1.005243 1.117629 1.0908703 1.2572378
0.78430593 1.0610118 1.0009296 0.69371426 1.191032 1.087129 0.7708455 1.0570939
0.7439954 0.9490829 0.88241196 0.74296355 1.0322993 1.0987706 0.9018546 1.1952994
0.7601186 0.9366174 1.1175843 0.87015194 0.6158672 1.0353799 1.2469264 1.5595572
1.2099925 1.339635 1.3043972 1.0955484 0.64118266 0.90604144 1.2935344 1.2656653
1.2001014 1.089566 0.9279044 1.1774691 1.1468067 1.0592353 1.2143704 1.1686872
1.0893202 1.0932857 0.96121913 0.9902466 1.1649635 1.0372738 1.0732561 1.076306
1.3150585 1.1960615 0.94942164 1.2890743 0.9334832 0.9698023 1.4615273 1.2035753
1.1036329 1.4081113 0.90009195 1.0589359 1.2207656 1.1477557 1.0804844 1.1317486
00000000: dc02 b23f e4ad 913f b72a af3f d013 9f3f
00000010: 823e 073f e93d 413f 047b b33f b670 ab3f
00000020: 90e2 8e3f afc3 9e3f b52f 8b3f 4a18 893f
00000030: 1bcc 763f 5260 8b3f 52f3 8b3f f192 a03f
00000040: 1b49 9a3f eec2 933f f80b 753f 877a 973f
00000050: e8db 823f 3a13 883f c78c 9c3f 1aa8 973f
00000060: 2152 923f cdc8 843f b172 813f add3 903f
00000070: 7db3 803f 6518 883f 90fe 8c3f 6f11 973f
00000080: 81fb 913f 8449 9c3f 70bc 823f 48cf 8e3f
00000090: a4f3 713f 7052 863f 19db a03f 2b05 9f3f
000000a0: d690 2b3f 6ee4 7c3f b630 443f 7342 323f
000000b0: 9a33 773f cbe4 8d3f c2c6 5b3f d123 a03f
000000c0: 6390 973f ef6d 5b3f 9f0a 843f 3056 933f
000000d0: 21b2 953f 4b9c 823f dc56 8a3f 3fbd 903f
000000e0: f4f4 983f a9de 5f3f f500 573f 904d 8c3f
000000f0: 15e2 aa3f 4abf 693f e4e7 8f3f ce0e 6f3f
00000100: c2e6 8c3f 13f4 8f3f b9ea 6e3f 22dd 8c3f
00000110: 43a8 913f 7a62 933f 7e87 883f 3fa7 963f
00000120: b5af a43f 7fe3 833f 6dec 533f 6a81 9c3f
00000130: 91ea a43f 05aa 753f 5f69 a53f 3eba 7c3f
00000140: 10c5 8a3f f1ac aa3f aae2 533f 1c09 833f
00000150: ade3 983f 44fa 8d3f 8572 8e3f b6f9 8f3f
00000160: 3077 8a3f 5ba0 803f a62b 893f a048 833f
00000170: 0fb3 983f 8004 923f b471 743f b7dd 953f
00000180: 19ba 853f c533 773f 57dd 833f b079 803f
00000190: 6a16 a13f 1202 983f 9c2c 5a3f ac56 923f
000001a0: 24ed 9b3f ba85 8f3f 5831 8c3f 2413 953f
000001b0: bfff 6c3f 6856 863f 87b9 a03f 7576 aa3f
000001c0: cf62 8a3f ff3b a43f 45aa 653f 6f3d 8c3f
000001d0: 94b7 873f d949 953f f48a 933f f610 a23f
000001e0: d6dd ab3f 3293 863f 5e59 5c3f 057b a63f
000001f0: c575 933f 3eb3 6e3f b7c9 b03f d1dc 883f
00000200: 6cf8 903f 9e38 6e3f a48e 783f e25a 8c3f
00000210: a384 983f c678 853f b2da 853f 1df6 8b3f
00000220: c7de 3f3f e599 7a3f 560a 7e3f 4aa1 4f3f
00000230: c986 823f 4173 9b3f f33c 993f ac65 be3f
00000240: a1f4 a33f 6dfc 723f 54ed 833f 1e16 a33f
00000250: 6a99 793f c74e 6f3f 3e34 a03f cd10 9a3f
00000260: ca4e 8f3f 93c9 6c3f 6a6b 533f a4b4 853f
00000270: 7ca1 b73f 7bf9 8c3f 7119 653f 615f 683f
00000280: 76eb 8d3f 420c 8c3f 2d5f 883f 1905 893f
00000290: c964 803f 78a3 843f d79d 843f b1f8 963f
000002a0: 3e62 8b3f 4314 773f d440 823f 6683 863f
000002b0: e513 9e3f f61b 903f ec2c 703f ad74 913f
000002c0: fc89 983f 4b53 7b3f 17d7 823f 06d3 943f
000002d0: 25e2 8f3f 2dec 873f d5c8 923f 9606 8f3f
000002e0: fda3 8c3f 4d23 a33f ad40 863f e202 873f
000002f0: cdab 803f 780e 8f3f a3a1 8b3f 2bed a03f
00000300: 46c8 483f 3ccf 873f 761e 803f 4297 313f
00000310: bd73 983f 0b27 8b3f 2156 453f da4e 873f
00000320: 7c76 3e3f 19f7 723f c0e5 613f dc32 3e3f
00000330: 6222 843f 84a4 8c3f f1df 663f 92ff 983f
00000340: 2297 423f 28c6 6f3f 010d 8f3f 47c2 5e3f
00000350: 79a9 1d3f 5487 843f 499b 9f3f 929f c73f
00000360: 09e1 9a3f 2979 ab3f 7df6 a63f ee3a 8c3f
00000370: 8c24 243f 55f2 673f 8992 a53f 5201 a23f
00000380: ec9c 993f e676 8b3f 258b 6d3f 4fb7 963f
00000390: 90ca 923f 0695 873f 7d70 9b3f 8b97 953f
000003a0: d86e 8b3f c9f0 8b3f 7512 763f cd80 7d3f
000003b0: 861d 953f 63c5 843f 7560 893f 65c4 893f
000003c0: d653 a83f 8b18 993f 4c0d 733f 6300 a53f
000003d0: c1f8 6e3f f744 783f 5413 bb3f c10e 9a3f
000003e0: d843 8d3f fe3c b43f 6d6c 663f 368b 873f
000003f0: 0c42 9c3f a9e9 923f 504d 8a3f 23dd 903f

K f4 [8, 60]
0.13971739 -0.007502318 -0.006539809 0.09218478 -0.0010016718 -0.006091889 0.003469825 0.13764216
-0.007121446 0.155553 0.14583382 -0.012749357 -0.002222705 0.008342662 0.15446861 0.004676355
-0.006969722 -0.011607614 0.0069954237 0.0019908163 0.15372261 0.15556814 -0.0066291164 -0.0048987647
0.0110168075 -0.0017593604 -0.030204784 -0.0144645795 0.1540282 -0.013809089 -0.007980695 -0.032877065
-0.009585022 -0.0122956475 0.15446378 0.14701971 0.15559067 -0.009654316 -0.019103004 0.14821416
-0.00711538 0.0029273524 -0.0015784515 -0.0002878714 0.1760647 -0.01683522 0.1685926 0.14735064
-0.0092739165 -0.0046133786 -0.005342459 -0.004370401 0.007626007 0.0044151093 0.16527013 0.020153917
0.15451525 0.009386447 -0.009484934 0.14642653 0.17032072 -0.008695875 -0.033311535 0.09621824
-0.00025502796 -0.010233305 -0.039971195 0.14614734 -0.002106063 0.15517446 0.17108774 -0.010128895
-0.0070395665 -0.010381399 0.1461153 -0.008312553 -0.00461022 -0.005600824 0.003955762 -0.009822771
0.14194486 0.15623678 -0.0065397387 -0.009646039 -0.01434386 -0.0050081303 -0.006032398 -0.0015999313
0.15826249 -0.012650744 -0.010411996 -0.024251964 -0.038190056 -0.016281445 0.15826717 0.1751623
0.16174449 0.0017890579 -0.012467852 0.14618133 0.007846275 -0.008138463 -0.009275765 0.011119627
0.16815807 -0.00041911387 0.15421231 0.15364303 -0.021020837 -0.016264703 -0.02078757 -0.011334181
0.008737962 -0.0056025945 0.1682176 0.008168237 0.15744962 0.0030510738 -0.0022680075 0.15088207
0.21531592 -0.002333639 -0.0001347213 0.14060925 -0.019804064 0.017985828 0.02143409 0.19591522
0.007123646 0.1801706 0.1956149 0.0019749077 -0.003029974 -0.026019437 0.20096466 -0.008043591
-0.016111117 -0.018716129 0.0054308367 0.006606786 0.20175177 0.2016201 0.017133215 2.668684e-05
-0.01363267 -0.009832196 0.007497047 0.0064187082 0.20040153 -0.011787539 0.0055137044 -0.046896223
-0.022282602 -0.010335618 0.19531958 0.20900655 0.20580578 0.008617027 -0.027654635 0.20595497
-0.0018298319 -0.0021271843 -0.008399576 -0.0042001787 0.19006747 -0.016195036 0.1984237 0.19664127
0.0030957633 0.0052885674 0.0060470793 -0.01815591 -0.004034616 -0.009591449 0.19613487 -0.000788636
0.2022029 0.011657013 -0.0022579378 0.20623046 0.15270646 0.0014152051 -0.0016366094 0.10503852
0.017222792 -0.003035756 -0.030411994 0.17467038 0.001032257 0.17110603 0.1576617 -0.0007095795
-0.005685159 -5.596629e-05 0.17781243 -0.0019542465 0.0051491535 -0.018474774 -0.029167425 -0.0056732986
0.14790972 0.16957924 -0.00882507 -0.017926708 -0.0154577745 -0.0017329981 -0.0003465203 0.00057061156
0.16993389 0.0029426694 -0.0052059703 -0.018009625 -0.026012251 0.007587237 0.17877097 0.17486306
0.1518962 0.0024683094 -0.00852828 0.15622433 -0.0038195143 -0.0057430724 0.01457125 0.017709555
0.17644347 -0.010742492 0.15819752 0.14728253 0.012470404 0.0027413683 -0.0020957752 0.0038721047
-0.000798295 0.0034172428 0.17041749 -0.013839357 0.17783338 -0.023647657 -0.016822621 0.1636325
0.1336422 0.009384634 0.014657076 0.06732792 -0.007448408 -0.002021572 -0.034700878 0.13337663
0.003752759 0.13221936 0.12786336 7.713333e-05 -0.0010564921 -0.020200495 0.134652 0.005631143
00000000: 1312 0f3e 01d6 f5bb e54b d6bb 60cb bc3d
00000010: 874a 83ba 789e c7bb 0166 633b 11f2 0c3e
00000020: 055b e9bb 4949 1f3e 7655 153e aee2 50bc
00000030: cdaa 11bb a9af 083c 052d 1e3e 1c3c 993b
00000040: 4462 e4bb dd2d 3ebc de39 e53b 5b78 023b
00000050: 7669 1d3e 414d 1f3e 0f39 d9bb d185 a0bb
00000060: d77f 343c 579a e6ba 0670 f7bc d8fc 6cbc
00000070: 92b9 1d3e 843f 62bc 76c1 02bc 1aaa 06bd
00000080: 7f0a 1dbc af73 49bc c12b 1e3e 568c 163e
00000090: 2953 1f3e 232d 1ebc e77d 9cbc 74c5 173e
000000a0: 2228 e9bb d3d8 3f3b 0be4 ceba 72ed 96b9
000000b0: 4e4a 343e 04ea 89bc 8aa3 2c3e 16e3 163e
000000c0: a0f1 17bc d32b 97bb cb0f afbb 9535 8fbb
000000d0: 95e3 f93b 9fac 903b 933c 293e d419 a53c
000000e0: 3f39 1e3e 9dc9 193c b266 1bbc d6f0 153e
000000f0: 8e68 2e3e 2579 0ebc ad71 08bd 120e c53d
00000100: 46b5 85b9 98a9 27bc d6b8 23bd a6a7 153e
00000110: e005 0abb 0ee6 1e3e a031 2f3e aaf3 25bc
00000120: 2aac e6bb be16 2abc 409f 153e 6031 08bc
00000130: 5411 97bb 1e87 b7bb 569f 813b b0ef 20bc
00000140: fe59 113e 89fc 1f3e 4e4b d6bb 6c0a 1ebc
00000150: 8202 6bbc 3e1b a4bb 6cab c5bb c9b4 d1ba
00000160: 900f 223e 1145 4fbc 1497 2abc 0eac c6bc
00000170: 2d6d 1cbd aa60 85bc ca10 223e bf5d 333e
00000180: 59a0 253e d27e ea3a f645 4cbc 8fb0 153e
00000190: aa8d 003c 3057 05bc 61f9 17bc 192f 363c
000001a0: a131 2c3e 83bc dbb9 d5e9 1d3e 9954 1d3e
000001b0: e433 acbc 8e3d 85bc b24a aabc 00b3 39bc
000001c0: ab29 0f3c f895 b7bb 3c41 2c3e 12d4 053c
000001d0: 793a 213e 86f4 473b daa2 14bb d480 1a3e
000001e0: c77b 5c3e f7ef 18bb f943 0db9 dffb 0f3e
000001f0: 223c a2bc 0457 933c 8b96 af3c 009e 483e
00000200: 796d e93b a47e 383e 464f 483e 746d 013b
00000210: 8792 46bb b726 d5bc aec9 4d3e 44c9 03bc
00000220: 76fb 83bc 9152 99bc 29f5 b13b bd7d d83b
00000230: 0498 4e3e 8075 4e3e f55a 8c3c 8ddd df37
00000240: 905b 5fbc 3817 21bc caa9 f53b 0754 d23b
00000250: 0f36 4d3e 8620 41bc 4eac b43b 4116 40bd
00000260: 018a b6bc b956 29bc db01 483e d005 563e
00000270: c0be 523e 6e2e 0d3c f98b e2bc dce5 523e
00000280: f8d6 efba 3b68 0bbb 609e 09bc a7a1 89bb
00000290: 0ca1 423e 74ab 84bc 952f 4b3e 545c 493e
000002a0: 4ae2 4a3b b84b ad3b 9426 c63b b4bb 94bc
000002b0: d034 84bb 7425 1dbc 94d7 483e 77bc 4eba
000002c0: 470e 4f3e 0efd 3e3c e9f9 13bb 142e 533e
000002d0: 155f 1c3e 677e b93a 8083 d6ba 701e d73d
000002e0: d016 8d3c 89f3 46bb 9322 f9bc cbdc 323e
000002f0: cc4c 873a 6b36 2f3e 1272 213e 1303 3aba
00000300: 924a babb 59bd 6ab8 7614 363e d112 00bb
00000310: 3bba a83b 6958 97bc 86f0 eebc 14e7 b9bb
00000320: a575 173e 2ea6 2d3e 0797 10bc 08db 92bc
00000330: 9b42 7dbc c425 e3ba 2bad b5b9 1895 153a
00000340: 2603 2e3e cdd9 403b d896 aabb ec88 93bc
00000350: a517 d5bc 5b9e f83b bd0f 373e 4d0f 333e
00000360: ad8a 1b3e 5cc3 213b 33ba 0bbc 45f9 1f3e
00000370: d150 7abb 6230 bcbb 41bc 6e3c a113 913c
00000380: 99ad 343e 4701 30bc 88fe 213e 3bd1 163e
00000390: aa50 4c3c 87a8 333b 4659 09bb 23c3 7d3b
000003a0: ac44 51ba d2f3 5f3b ec81 2e3e 78be 62bc
000003b0: f419 363e bbb8 c1bc 98cf 89bc 478f 273e
000003c0: 80d9 083e 02c2 193c 3c24 703c 38e3 893d
000003d0: c611 f4bb 5a7c 04bb 8222 0ebd e293 083e
000003e0: d9f0 753b 8364 073e 9dee 023e a4c2 a138
000003f0: fe79 8aba 827b a5bc 37e2 093e 7485 b83b

a f4 [60]
-0.15068784 -0.00031578582 -0.0056058834 -0.15234 0.007261503 0.0067892065 0.031069968 -0.15051353
-0.015082921 -0.14991447 -0.1560391 0.0042933756 -0.021984125 -0.00569302 -0.1437882 -0.025348803
-0.015848288 0.0021679448 -0.0014276333 0.014274153 -0.13942046 -0.14506291 0.001285228 0.024575585
0.010834497 0.007274637 -0.0010198656 0.0053688125 -0.14897874 -0.0043469146 0.0029459489 -0.0047754175
0.0051119635 0.0031951983 -0.14472836 -0.14902467 -0.14390692 -0.004261184 -0.0003054875 -0.15353428
-0.0058237263 0.01414193 -0.017437581 0.0011289321 -0.14646542 -0.0052153375 -0.15049964 -0.14534824
0.0034665063 0.0032665688 -0.0054979795 -0.024047235 0.016730068 -0.0045682373 -0.14583905 0.008787491
-0.14839609 0.01101901 -0.0013696052 -0.15209271
00000000: ea4d 1abe 0e90 a5b9 8fb1 b7bb 04ff 1bbe
00000010: e7f1 ed3b fe77 de3b 7286 fe3c 3820 1abe
00000020: 5b1e 77bc 2e83 19be b7c8 1fbe 72af 8c3b
00000030: 0d18 b4bc 838c babb 373d 13be 4ba8 cfbc
00000040: 45d4 81bc 1414 0e3b 6d1f bbba 23de 693c
00000050: 3dc4 0ebe 5f8b 14be 1875 a83a bd52 c93c
00000060: 2d83 313c 1460 ee3b 03ad 85ba ddec af3b
00000070: e28d 18be 9070 8ebb d210 413b 1b7b 9cbb
00000080: 4282 a73b 8866 513b ac33 14be ec99 18be
00000090: 565c 13be 67a1 8bbb d729 a0b9 1738 1dbe
000000a0: f5d4 bebb 8eb3 673c 42d9 8ebc adf8 933a
000000b0: 08fb 15be 6ce5 aabb 941c 1abe 2bd6 14be
000000c0: 532e 633b ee13 563b 6528 b4bb b5fe c4bc
000000d0: 7f0d 893c 27b1 95bb d556 15be 69f9 0f3c
000000e0: 25f5 17be 1489 343c 5384 b3ba 31be 1bbe

b f4 [60]
0.13118012 0.0 0.0 0.14315887 0.0 0.0 -0.05012665 0.13174294
0.0 0.12848009 0.12874553 -0.009792703 0.0 -0.0086766565 0.1268643 0.0
0.0 0.0 0.0 0.0 0.11635604 0.12709643 0.0 -0.023275767
0.0 0.0 -0.0074103926 0.0 0.12960273 -0.0073336973 0.0 -0.031480696
-0.027416447 -0.011880972 0.12733401 0.13283671 0.12638201 -0.010221703 -0.020632576 0.12356287
-0.006004829 0.0 0.0 0.0 0.12692083 -0.006410865 0.12667793 0.12792163
0.0 -0.010361543 -0.006005043 0.0 0.0 0.0 0.12946449 0.0
0.12734994 0.0 -0.0076176785 0.12678686
00000000: 1554 063e 0000 0000 0000 0000 3d98 123e
00000010: 0000 0000 0000 0000 9a51 4dbd 9fe7 063e
00000020: 0000 0000 4990 033e ded5 033e 9371 20bc
00000030: 0000 0000 8928 0ebc b7e8 013e 0000 0000
00000040: 0000 0000 0000 0000 0000 0000 0000 0000
00000050: 134c ee3d 9125 023e 0000 0000 d2ac bebc
00000060: 0000 0000 0000 0000 e1d2 f2bb 0000 0000
00000070: 94b6 043e 834f f0bb 0000 0000 e7f1 00bd
00000080: 7598 e0bc 69a8 42bc d963 023e 5906 083e
00000090: 496a 013e ee78 27bc a605 a9bc 880e fd3d
000000a0: 28c4 c4bb 0000 0000 0000 0000 0000 0000
000000b0: 89f7 013e 3c12 d2bb dcb7 013e e3fd 023e
000000c0: 0000 0000 76c3 29bc f4c5 c4bb 0000 0000
000000d0: 0000 0000 0000 0000 5792 043e 0000 0000
000000e0: 0668 023e 0000 0000 b89d f9bb 6ad4 013e

K f4 [8, 60]
0.29227293 -0.16597593 0.017365377 0.0013514359 -0.0046841847 0.038268887 -0.0016016142 -0.14563043
0.37497434 -0.9887562 0.015080656 -0.05073756 0.012035919 0.067231394 -0.15276068 0.043857243
0.42633727 0.17569019 0.030281812 0.015786316 -0.812192 0.02499228 0.0040339665 0.015527711
0.00557176 0.029089445 0.07797475 0.11655099 0.24568036 0.08690807 0.10024097 -0.79315674
0.005945264 0.09357187 0.09255934 0.016157696 0.112183146 0.0071654096 0.09985309 -0.066808276
0.04524808 0.16406514 -0.24726973 0.0057985047 -0.010418341 0.011577478 0.0762061 -0.44764528
-0.000714783 0.011520315 -0.17886956 -0.01308583 0.2625973 -0.0011301676 0.016585443 0.004251872
0.030666405 -0.03254973 -0.00653227 -0.7925512 -1.0385919 -0.3136548 0.0078009157 -0.0127031095
-0.008103817 0.023351735 0.0017877114 -0.3048082 0.10523617 -0.46974272 0.021443617 0.1037188
-0.003285543 0.17113407 -0.33683476 0.26798776 0.21078213 0.14702912 0.2466004 0.011983885
0.13979723 -0.00566159 0.00090451067 -0.029852595 0.012657582 -0.013043456 0.25908688 0.20245573
-0.21490283 0.16215226 0.15322454 0.13881806 0.023288017 0.07120595 -0.075220644 -0.016296502
0.19685069 0.028577553 0.17169286 0.66572255 -0.05990278 -0.07060962 -0.2662418 0.00751732
-4.2569856e-05 0.012354138 0.22671072 0.019876303 -0.0027857344 0.020967245 -0.35275638 -0.018844442
-0.5135995 0.046012323 0.008006335 -0.17687927 0.32961562 0.015908288 -0.014203628 0.11478987
-0.18440728 0.33789888 -0.0017465885 -0.0032011815 -0.009997895 -0.032513134 -0.02270968 0.37921807
-0.42746136 -0.1202087 -0.007159372 -0.41752934 -0.050054535 0.2315224 0.38324758 0.22422804
0.30020303 -0.13616464 0.23723046 -0.022474986 0.21512179 -0.031789366 -0.025445238 -0.053852387
-0.017017085 -0.028652566 0.20625362 0.35980254 -0.15383725 0.21095988 0.19749415 0.21104851
-0.024900181 -0.083758056 0.11423868 -0.017363062 0.20555581 -0.012602583 0.20579945 -0.048342712
-0.29341963 0.18241534 -0.14383689 -0.021680467 -0.019757783 -0.021011949 0.21365498 -0.7490326
-0.011907571 -0.008872868 1.082748 -0.042194467 0.37475088 -0.034858413 -0.024287049 -0.7684974
-0.6299525 -0.05705248 -0.05650215 0.20822291 0.5170517 -0.1701377 -0.0014517629 0.005216481
0.0063379467 0.014839997 -0.0040894127 -0.14381331 0.4738455 -0.5279784 0.018180823 0.19268052
0.018975753 0.23367344 -0.15219669 0.1746539 0.21210366 0.21609004 0.23135857 0.036314525
0.81744784 0.009529958 0.030697603 -0.022387529 0.029893002 -0.0019621314 0.20301156 0.2879551
0.077721596 0.23397164 0.22524807 0.8017575 0.010255335 -0.12143124 -0.12026877 0.008494755
0.23509559 0.00870544 0.22119908 -0.22532538 -0.27175742 0.32432762 -0.18614998 0.033275384
0.008502478 0.010733461 0.20712845 0.18065825 -0.0007384944 0.012144083 -0.15991631 -0.017443711
-0.14074834 0.030664949 0.019039102 0.46019492 0.50974464 0.001284378 -0.021416303 0.78169334
-0.27414453 -0.018630845 -0.022423042 -0.011739922 0.0057861274 -0.023038656 -0.056163114 -0.06357973
-0.15869561 -0.19055915 -0.046697598 -0.016175745 -0.043808796 0.18509991 -0.05462107 0.14737862
00000000: cca4 953e 98f5 29be d641 8e3c aa22 b13a
00000010: ca7d 99bb d6bf 1c3d 41ed d1ba 2520 15be
00000020: a3fc bf3e 201f 7dbf db14 773c 30d2 4fbd
00000030: 4e32 453c 9db0 893d 4c6d 1cbe a7a3 333d
00000040: e148 da3e 21e8 333e 9011 f83c 4e52 813c
00000050: d1eb 4fbf 9cbc cc3c 5d2f 843b f167 7e3c
00000060: 4f93 b63b fd4c ee3c 3ab1 9f3d 49b2 ee3d
00000070: a293 7b3e dcfc b13d 234b cd3d 520c 4bbf
00000080: 7dd0 c23b 9ca2 bf3d c08f bd3d 255d 843c
00000090: 47c0 e53d d0cb ea3b c77f cc3d c7d2 88bd
000000a0: 0d56 393d b100 283e 4734 7dbe 6201 be3b
000000b0: b0b1 2abc 76af 3d3c f211 9c3d c331 e5be
000000c0: 4660 3bba b4bf 3c3c 9529 37be f365 56bc
000000d0: 2773 863e 2222 94ba 32de 873c 4a53 8b3b
000000e0: 1d38 fb3c de52 05bd a70c d6bb a3e4 4abf
000000f0: 94f0 84bf 5d97 a0be d39e ff3b b420 50bc
00000100: dfc5 04bc 234c bf3c a451 ea3a d20f 9cbe
00000110: 1086 d73d 1e82 f0be 86aa af3c 866a d43d
00000120: 4452 57bb c53d 2f3e 9b75 acbe b135 893e
00000130: 45d7 573e cd8e 163e d184 7c3e 0f58 443c
00000140: 0127 0f3e dc84 b9bb af1c 6d3a 6e8d f4bc
00000150: bf61 4f3c 38b4 55bc 09a7 843e 8e50 4f3e
00000160: 7d0f 5cbe 3e0b 263e e5e6 1c3e 5226 0e3e
00000170: 83c6 be3c 6dd4 913d 480d 9abd 3e80 85bc
00000180: 3a93 493e 791b ea3c 41d0 2f3e cb6c 2a3f
00000190: 9e5c 75bd c79b 90bd d850 88be da53 f63b
000001a0: 098d 32b8 0369 4a3c db26 683e a1d3 a23c
000001b0: de90 36bb 80c3 ab3c 7c9c b4be a95f 9abc
000001c0: 427b 03bf 6b77 3c3d 012d 033c d71f 35be
000001d0: 61c3 a83e 1952 823c 55b6 68bc f416 eb3d
000001e0: 43d5 3cbe 1501 ad3e c9ed e4ba eaca 51bb
000001f0: 36ce 23bc 7e2c 05bd a709 babc df28 c23e
00000200: 37dc dabe fb2f f6bd 2a99 eabb 68c6 d5be
00000210: fc05 4dbd 3514 6d3e 0739 c43e 099c 653e
00000220: 36b4 993e be6e 0bbe 8bec 723e 761d b8bc
00000230: e348 5c3e 9135 02bd 8872 d0bc 5294 5cbd
00000240: 6a67 8bbc c9b8 eabc 2634 533e 0a38 b83e
00000250: 8387 1dbe de05 583e e83b 4a3e 1a1d 583e
00000260: 77fb cbbc 5889 abbd f8f5 e93d fb3c 8ebc
00000270: 397d 523e 107b 4ebc 17bd 523e 0203 46bd
00000280: 193b 96be 16cb 3a3e fa49 13be 3c9b b1bc
00000290: 13db a1bc 4021 acbc 5fc8 5a3e 9ac0 3fbf
000002a0: f917 43bc 815f 11bc 7d97 8a3f 1bd4 2cbd
000002b0: 59df bf3e b2c7 0ebd a2f5 c6bc 3fbc 44bf
000002c0: 9144 21bf dcaf 69bd cc6e 67bd 6338 553e
000002d0: 805d 043f 9438 2ebe 1449 beba 04ef aa3b
000002e0: 8dae cf3b 7523 733c 7b00 86bb cc43 13be
000002f0: e19b f23e 9829 07bf f3ef 943c 0b4e 453e
00000300: 0a73 9b3c 1748 6f3e 73d9 1bbe 79d8 323e
00000310: b431 593e b546 5d3e 43e9 6c3e 8abe 143d
00000320: 4344 513f 8a23 1c3c 8a79 fb3c 0d66 b7bc
00000330: 2be2 f43c 1a97 00bb 43e2 4f3e da6e 933e
00000340: 802c 9f3d 4396 6f3e 6ea7 663e fb3f 4d3f
00000350: fe05 283c f1b0 f8bd 794f f6bd 962d 0b3c
00000360: e6bc 703e 43a1 0e3c 0382 623e b2bb 66be
00000370: ca23 8bbe 450e a63e 1a9e 3ebe c54b 083d
00000380: fa4d 0b3c 66db 2f3c 7b19 543e 7afe 383e
00000390: 8597 41ba faf7 463c 1ac1 23be 1de6 8ebc
000003a0: 5520 10be 0f35 fb3c e4f7 9b3c ab9e eb3e
000003b0: a07e 023f 9358 a83a 3e71 afbc 0e1d 483f
000003c0: ac5c 8cbe b79f 98bc 87b0 b7bc cd58 40bc
000003d0: 8e99 bd3b 90bb bcbc 4b0b 66bd 1736 82bd
000003e0: 1a81 22be f021 43be fb45 3fbd ff82 84bc
000003f0: da70 33bd d58a 3d3e 58ba 5fbd 6cea 163e

a f4 [60]
-0.8946896 0.36284226 0.0035824995 0.0032153092 -0.0073105954 0.07868659 -0.014036619 0.384518
-0.5862705 1.1335789 0.023108365 0.4612283 0.019665977 0.18032804 0.35993108 0.1724532
-0.56689715 -0.07590273 0.20808986 -0.041765887 1.0499873 -0.016507883 -0.040444676 0.010069853
-0.055599775 -0.008634716 0.1601474 -0.79128844 -0.21306966 0.15180278 0.12724304 1.0081778
0.020415384 -0.20190632 -0.2444073 0.0020275132 0.15382122 0.012649582 0.1347137 -0.6523843
-0.397786 0.16699652 0.63500494 -0.036642388 0.012981529 0.006637933 0.14606103 1.0191545
-0.010285083 0.0251216 0.8428866 -0.0039672917 0.42285344 0.032919303 -0.039703548 -0.850731
-0.9975904 0.014751067 -0.013779455 1.0025779
00000000: 610a 65bf 76c6 b93e 5ec8 6a3b f0b7 523b
00000010: b88d efbb 6f26 a13d d9f9 65bc 8bdf c43e
00000020: d315 16bf 1d19 913f c14d bd3c 1e26 ec3e
00000030: 8b1a a13c eaa7 383e e348 b83e 9297 303e
00000040: 2c20 11bf e472 9bbd 8215 553e b512 2bbd
00000050: fc65 863f 8a3b 87bc 51a9 25bd 06fc 243c
00000060: 97bc 63bd a078 0dbc aefd 233e e191 4abf
00000070: ef2e 5abe 3072 1b3e 004c 023e f80b 813f
00000080: 2a3e a73c 88c0 4ebe e845 7abe 07e0 043b
00000090: 4f83 1d3e 3140 4f3c 63f2 093e a802 27bf
000000a0: 9baa cbbe 2301 2b3e af8f 223f 5416 16bd
000000b0: 7bb0 543c 0583 d93b 0691 153e a873 823f
000000c0: c482 28bc d0cb cd3c 6bc7 573f 0e00 82bb
000000d0: 3f80 d83e 64d6 063d 30a0 22bd 82c9 59bf
000000e0: 1662 7fbf 76ae 713c 39c3 61bc 7954 803f

b f4 [60]
0.28929284 0.77592194 -0.024593264 -0.039853144 -0.031483952 -0.046371154 -0.0546514 0.74315625
0.58408743 0.41507325 -0.047830638 1.2786392 -0.039317716 -0.3090209 0.7631668 -0.28679493
0.53301257 0.6810359 -0.28574258 -0.032453254 0.35484582 -0.0479164 -0.023741057 -0.067258455
-0.033847775 -0.052324627 -0.25531557 0.7848948 0.8992372 -0.28323874 -0.24148239 0.3446274
-0.021179166 0.55853933 0.9348131 -0.039565776 -0.18524529 -0.021403112 -0.25089464 0.17161727
0.1897299 -0.21079963 0.9681809 -0.030566711 -0.015627077 -0.021700177 -0.24950309 0.18306269
-0.044032432 -0.036406692 0.96344537 -0.06031535 -0.39946118 -0.05494448 -0.03228894 -0.20512441
0.5028458 -0.06716132 -0.07293502 0.36532843
00000000: 311e 943e d2a2 463f d077 c9bc 0d3d 23bd
00000010: 51f5 00bd aeef 3dbd 25da 5fbd 7d3f 3e3f
00000020: c186 153f 7b84 d43e 0fea 43bd 73aa a33f
00000030: 9d0b 21bd fd37 9ebe e65e 433f c9d6 92be
00000040: 8373 083f 5e58 2e3f da4c 92be b4ed 04bd
00000050: 5aae b53e fd43 44bd 9b7c c2bc cdbe 89bd
00000060: f7a3 0abd 5952 56bd b9b8 82be deee 483f
00000070: 6934 663f ab04 91be 2947 77be 0173 b03e
00000080: ee7f adbc 6ffc 0e3f e94f 6f3f b90f 22bd
00000090: f1b0 3dbe 9455 afbc 4375 80be 70bc 2f3e
000000a0: 8e48 423e dcdb 57be b4da 773f 0a67 fabc
000000b0: 5b04 80bc 92c4 b1bc bd7d 7fbe c974 3b3e
000000c0: 5a5b 34bd 2f1f 15bd 5ba4 763f 3a0d 77bd
000000d0: 2d86 ccbe 770d 61bd 6841 04bd 220c 52be
000000e0: 81ba 003f e08b 89bd f55e 95bd 540c bb3e

K f4 [8, 60]
0.0038986674 0.12638265 0.002682801 -0.7017942 -0.022541882 -0.0011229832 0.023756852 -0.91646737
0.0008626452 0.0077387327 -0.0340103 -0.01727308 -0.043171633 -0.021699829 0.009442827 -0.24462022
0.12110298 0.29369062 -0.10875198 -0.00078349083 0.11792712 0.016996214 0.006386563 -0.010974824
-0.025774494 -0.01480029 0.37542874 -0.017187996 0.030011762 0.034476694 -0.023897957 0.0015764338
-0.18880838 0.11584169 -0.0151993465 -0.025441604 0.124733105 -0.0095219975 -0.0052192044 -0.01170533
-0.009252953 -0.33057806 -0.005763173 -0.01948562 -0.026153058 0.121759936 -0.084886946 0.12950368
0.11978722 0.1349702 -0.012681364 -0.018857634 -0.011450768 -0.10190431 0.109335266 -0.004632214
0.14093173 0.005700374 -0.020871596 -0.022558497 -0.008610052 0.13309824 -0.0023069002 1.4405661
-0.032517277 0.00014414724 0.017928233 0.15594128 0.004400235 0.032417666 0.11778277 0.0199973
-0.06268055 -0.048060484 -0.009446686 -0.0026890647 0.113345206 0.3500046 0.09972461 -0.021669427
0.10923675 0.007958161 -0.00055869564 -0.01132302 -0.037948206 0.008251971 -0.04993179 -0.010564108
0.018821431 0.37684816 -0.0356395 -0.017668242 -0.5713836 0.11354423 0.00035561263 -0.03200521
0.11664362 -0.008828961 -0.009266436 0.014941133 -0.025189297 0.34056997 -0.02065108 -0.02066003
-0.024847876 0.11636796 -0.011848926 0.12109889 0.11393587 0.1231022 0.020055773 -0.032776747
0.0018644755 -0.0132452585 0.11676357 -0.012032886 -0.27576813 -0.0047477935 -0.040622823 -0.033430085
-0.008248984 0.23139985 -0.024461884 0.27675152 -0.014028754 0.005359262 -0.020229265 0.42382213
0.00011680816 -0.16966192 0.33980316 -0.025350379 -0.032085136 -0.019810777 -0.0029027541 0.19649613
0.23812912 0.3968263 0.06878546 -0.010301254 0.2256581 0.0038256359 -0.01883413 -0.017515605
-0.014521908 -0.011036217 0.85673916 0.00033701773 -0.02927514 0.21144868 -0.029076895 -0.0065562404
-0.55207187 0.22954185 -0.015634486 -0.035921462 0.23071809 -0.010070928 -3.2417924e-05 -0.014645946
-0.039759826 -0.25259683 -0.012936008 -0.027030509 -0.023984307 0.22670177 -0.20795198 0.22162555
0.22733532 0.22035228 -0.028096683 -0.02281566 -0.017994527 -0.23101446 0.22099407 -0.011366692
0.3819116 -0.012373722 -0.002473222 -0.029472679 -0.016363189 0.15461025 -0.00033810345 -0.6757879
-0.015149173 -0.004010133 0.017538065 0.5048259 0.010426712 -0.25299263 0.22299396 -0.008604025
-0.05822738 -0.007097015 -0.008137111 0.2467772 0.16013631 0.3812455 0.16579367 -0.003340778
0.16218342 -0.015426795 0.0010069773 -0.00064178725 0.023863556 -0.018260742 -0.043326706 0.0052946825
-0.03267765 0.41941229 -0.030063706 -0.025905814 0.24709 0.17636353 -0.0074128024 -0.024297403
0.16628319 0.0036501288 0.0027988157 -0.0014486306 -0.017011926 -0.14860786 -0.0024380803 -0.02611384
0.026430452 0.16837558 -0.49300686 0.15086949 0.1585834 0.14371862 -0.002107345 0.020840526
0.0019634408 -0.53456503 0.16756727 -0.0022387449 -0.3228759 -0.011769499 -0.024810735 -0.020223124
-0.0055669104 0.09140714 -0.024462163 -0.25741976 -0.015900068 -0.014555988 -0.017613828 0.5250606
-0.013654171 0.31451723 0.30412352 -0.03126438 -0.023972897 -0.0087992055 -0.012775981 -0.48183474
00000000: c980 7f3b 746a 013e efd1 2f3b c9a8 33bf
00000010: c1a9 b8bc 1031 93ba bb9d c23c 9b9d 6abf
00000020: 2423 623a 3295 fd3b 624e 0bbd 4680 8dbc
00000030: bdd4 30bd d7c3 b1bc 16b6 1a3c b97d 7abe
00000040: d704 f83d 9e5e 963e 5cb9 debd 2e63 4dba
00000050: c683 f13d a53b 8b3c 6046 d13b c0cf 33bc
00000060: 0825 d3bc ea7c 72bc 3238 c03e d7cd 8cbc
00000070: 3adb f53c 6f37 0d3d a6c5 c3bc 57a0 ce3a
00000080: fc56 41be 683e ed3d ae06 79bc e96a d0bc
00000090: 1274 ff3d 2702 1cbc dc05 abbb b6c7 3fbc
000000a0: b399 17bc 8741 a9be 00d9 bcbb 4fa0 9fbc
000000b0: f03e d6bc 465d f93d 35d9 adbd 9d9c 043e
000000c0: 0153 f53d a135 0a3e 7fc5 4fbc 537b 9abc
000000d0: 019c 3bbc 35b3 d0bd 2beb df3d d4c9 97bb
000000e0: 6850 103e 34ca ba3b e9fa aabc 99cc b8bc
000000f0: 2d11 0dbc e84a 083e 5d2f 17bb 7864 b83f
00000100: d630 05bd 3b26 1739 3bde 923c 12af 1f3e
00000110: d92f 903b 63c8 043d 1838 f13d 61d1 a33c
00000120: a95e 80bd 12db 44bd 46c6 1abc 053b 30bb
00000130: 8821 e83d ce33 b33e 6b3c cc3d 1584 b1bc
00000140: 84b7 df3d f262 023c 6e75 12ba 3084 39bc
00000150: 946f 1bbd 4633 073c 4785 4cbd 1515 2dbc
00000160: 672f 9a3c 3ef2 c03e b9fa 11bd fdbc 90bc
00000170: 3246 12bf e189 e83d 8571 ba39 e517 03bd
00000180: dae2 ee3d 59a7 10bc 40d2 17bc a7cb 743c
00000190: c959 cebc 305f ae3e 742c a9bc 393f a9bc
000001a0: c68d cbbc 5352 ee3d ff21 42bc b202 f83d
000001b0: 3657 e93d 021d fc3d 014c a43c e940 06bd
000001c0: 6b61 f43a a402 59bc bd21 ef3d 9525 45bc
000001d0: 7b31 8dbe 6193 9bbb 1e64 26bd fced 08bd
000001e0: bf26 07bc 15f4 6c3e 4a64 c8bc 60b2 8d3e
000001f0: dcd8 65bc c09c af3b d8b7 a5bc 37ff d83e
00000200: e7f6 f438 dbbb 2dbe aefa ad3e 99ab cfbc
00000210: b46b 03bd 364a a2bc 223c 3ebb 4836 493e
00000220: 1fd8 733e d12c cb3e 64df 8c3d 97c6 28bc
00000230: eb12 673e 85b7 7a3b 094a 9abc e37c 8fbc
00000240: 4ced 6dbc 40d1 34bc 4253 5b3f c1b1 b039
00000250: 6bd2 efbc 0186 583e ab32 eebc bbd5 d6bb
00000260: 9554 0dbf 050d 6b3e e513 80bc 6222 13bd
00000270: 5d41 6c3e 8900 25bc 7bf8 07b8 8df5 6fbc
00000280: 33db 22bd 5f54 81be 8df1 53bc 166f ddbc
00000290: bd7a c4bc 8224 683e 5df1 54be cff1 623e
000002a0: 97ca 683e 07a4 613e 042b e6bc e8e7 babc
000002b0: 4269 93bc 0e8f 6cbe 454c 623e 5d3b 3abc
000002c0: eb89 c33e 27bb 4abc c815 22bb b070 f1bc
000002d0: 180c 86bc 2652 1e3e 7a43 b1b9 7000 2dbf
000002e0: 3d34 78bc 6f67 83bb fdab 8f3c 453c 013f
000002f0: cdd4 2a3c 4088 81be 8758 643e e5f7 0cbc
00000300: d57f 6ebd 148e e8bb 8451 05bc 2ab3 7c3e
00000310: c6fa 233e 9c32 c33e d1c5 293e f4f0 5abb
00000320: 6913 263e abc0 7cbc 8dfc 833a 9d3d 28ba
00000330: 817d c33c 8d97 95bc 5877 31bd 047f ad3b
00000340: 00d9 05bd 35bd d63e 2948 f6bc 6e38 d4bc
00000350: 2905 7d3e a498 343e 18e7 f2bb 590b c7bc
00000360: 2446 2a3e 0037 6f3b 566c 373b fadf bdba
00000370: 985c 8bbc a92c 18be 33c8 1fbb b1ec d5bc
00000380: ad84 d83c a66a 2c3e 656b fcbe 887d 1a3e
00000390: b063 223e f92a 133e 621b 0abb c0b9 aa3c
000003a0: 12ad 003b 41d9 08bf c196 2b3e e8b7 12bb
000003b0: fd4f a5be dbd4 40bc e23f cbbc f7aa a5bc
000003c0: a16a b6bb ab33 bb3d e064 c8bc 86cc 83be
000003d0: dc40 82bc 3d7c 6ebc e04a 90bc 5f6a 063f
000003e0: beb5 5fbc 6708 a13e 14b6 9b3e 140f 00bd
000003f0: cf62 c4bc 8b2a 10bc 5952 51bc 0bb3 f6be

a f4 [60]
-0.012035196 -0.16484718 0.005912978 -1.4769039 -0.007972744 0.0015625529 0.050755084 1.8422515
0.005630435 -2.4084184 0.6273029 -0.021215832 0.026468702 -0.0025059092 -0.009730771 -0.52243906
-0.15737024 0.370289 -1.0622618 -0.00014930758 -0.16297895 -0.00566999 -0.00830423 -0.0013736995
0.015147165 -0.008902997 1.421838 -0.013019921 0.027973367 1.2549107 0.005016622 -0.013119297
-0.7784558 -0.15969123 0.010648265 -0.010871613 -0.16487165 0.00540052 0.0100684315 -0.0045716492
0.01722812 -3.0016909 -0.004044204 0.01905789 0.010652959 -0.15605748 -0.6285546 -0.15920478
-0.16712962 -0.15383443 0.010749561 0.0005699821 0.00055816415 -0.72323495 -0.15576184 0.0006684965
0.4493215 -0.0025583103 -0.017007042 -0.02974734
00000000: 452f 45bc b3cd 28be a8c1 c13b 300b bdbf
00000010: 1da0 02bc 93ce cc3a 90e4 4f3d e6ce eb3f
00000020: 837f b83b 8723 1ac0 ec96 203f d3cc adbc
00000030: e4d4 d83c 2e3a 24bb d06d 1fbc 91be 05bf
00000040: aa25 21be 8596 bd3e 32f8 87bf 738f 1cb9
00000050: f4e3 26be 53cb b9bb 770e 08bc b50d b4ba
00000060: d12b 783c e0dd 11bc cafe b53f 8251 55bc
00000070: 6728 e53c eaa0 a03f 7a62 a43b 52f2 56bc
00000080: e148 47bf 1986 23be 0f76 2e3c da1e 32bc
00000090: 1dd4 28be d8f6 b03b 10f6 243c c6cd 95bb
000000a0: fc21 8d3c b41b 40c0 3e85 84bb 4b1f 9c3c
000000b0: c089 2e3c 88cd 1fbe f4e8 20bf 9406 23be
000000c0: 0724 2bbe c686 1dbe ed1e 303c da6a 153a
000000d0: c351 123a ed25 39bf 0880 1fbe 0a3e 2f3a
000000e0: 780d e63e 53a9 27bb 5a52 8bbc b2b0 f3bc

b f4 [60]
0.0 0.15697235 -0.010591442 -0.29291382 -0.019416554 0.0 -0.023614766 -0.41817966
-0.0060500014 1.076718 -0.4466638 -0.022747356 0.020304425 -0.024054967 0.0 0.586869
0.16037208 0.40747327 0.5014422 -0.0069332696 0.1569484 0.0 0.0 0.0
-0.024360223 0.0 0.109533444 -0.020595174 -0.03023537 -0.50339353 -0.02331739 0.0
-0.15836523 0.15643534 -0.008962071 -0.02844818 0.15428983 -0.0075753205 -0.006005502 -0.007822459
-0.021007005 1.1044488 -0.007614668 -0.022919258 -0.024334086 0.15530816 -0.15643382 0.1525259
0.15603797 0.15185694 -0.02103125 -0.024252543 -0.01300651 -0.15366003 0.15771694 -0.0070205797
0.030784193 0.0 -0.020674115 -0.02942472
00000000: 0000 0000 5cbd 203e ba87 2dbc cdf8 95be
00000010: 770f 9fbc 0000 0000 c173 c1bc a51b d6be
00000020: 173f c6bb e5d1 893f 1eb1 e4be aa58 babc
00000030: 7755 a63c ec0e c5bc 0000 0000 0c3d 163f
00000040: 9438 243e 56a0 d03e 845e 003f 7b30 e3bb
00000050: 15b7 203e 0000 0000 0000 0000 0000 0000
00000060: 178f c7bc 0000 0000 1253 e03d 36b7 a8bc
00000070: 2bb0 f7bc 66de 00bf 1c04 bfbc 0000 0000
00000080: 7f2a 22be 9630 203e a6d5 12bc 280c e9bc
00000090: 27fe 1d3e 653a f8bb cdc9 c4bb c529 00bc
000000a0: e216 acbc 945e 8d3f 7784 f9bb 2bc1 bbbc
000000b0: 4758 c7bc 1a09 1f3e 3030 20be c02f 1c3e
000000c0: 6bc8 1f3e 6380 1b3e ba49 acbc 45ad c6bc
000000d0: 4219 55bc 0e59 1dbe 8d80 213e e40c e6bb
000000e0: 222f fc3c 0000 0000 c35c a9bc 1c0c f1bc
