learner_tingwei/model/testcase_1_distsquare_eps_0.0004_l_0.004_auglag_lbfgsiters_100addloss_0_adddim_0__seed_1/model31000.pkl (torch, 24480 bytes, 22 tensors)

Qincpt f4 [1, 1, 8]
0	0x3f6fb6dd	0.936384
1	0x3f682ade	0.9069041
2	0x3f79e668	0.976172
3	0x3f614db1	0.8800917
4	0x3f70e198	0.9409423
5	0x3f65f5fe	0.8982848
6	0x3f57747d	0.8416212
7	0x3f5f6e0c	0.87277293

Qslope f4 [1, 1, 8]
0	0x3f649b2a	0.8929926
1	0x3f75c943	0.96010226
2	0x3f56cb61	0.8390408
3	0x3f68436d	0.90727884
4	0x3f57c221	0.8428059
5	0x3f53019d	0.82424337
6	0x3f79e64b	0.97617024
7	0x3f67dc43	0.9057047

Pincpt f4 [1, 1, 8]
0	0x3f9bded4	1.2177377
1	0x3f851332	1.0396483
2	0x3f8ff1a4	1.1245618
3	0x3f86c5c4	1.0529103
4	0x3f819752	1.0124304
5	0x3f87bc05	1.0604254
6	0x3f76090a	0.9610754
7	0x3f7f5446	0.99737966

K f4 [8, 60]
0	0x3de5a54f	0.11213171
1	0xbbf5d601	-0.007502318
2	0xbbd64be5	-0.006539809
3	0xbc83d958	-0.016094849
4	0xba834a87	-0.0010016718
5	0xbbc79e78	-0.006091889
6	0xbc2086a0	-0.009797722
7	0x3de59212	0.11209501
8	0xbbe95b05	-0.007121446
9	0x3e0735e0	0.13204145
10	0x3df5a0bb	0.119935475
11	0xbc510395	-0.012757202
12	0xbb11aacd	-0.002222705
13	0x3c08d491	0.008351461
14	0x3e05f55b	0.13081877
15	0x3b993c1c	0.004676355
16	0xbbe46244	-0.006969722
17	0xbc3e2ddd	-0.011607614
18	0x3be539de	0.0069954237
19	0x3b02785b	0.0019908163
20	0x3e02b09d	0.12762685
21	0x3e05f5bf	0.13082026
22	0xbbd9390f	-0.0066291164
23	0x3c0444f6	0.008073082
24	0x3c347fd7	0.0110168075
25	0xbae69a57	-0.0017593604
26	0xbcf70386	-0.030153047
27	0xbc6cfcd8	-0.0144645795
28	0x3e0408ce	0.12893984
29	0xbc6255f2	-0.013814436
30	0xbc02c176	-0.007980695
31	0xbaac856b	-0.001316232
32	0x3c99f4bc	0.018793456
33	0xbc493344	-0.012280289
34	0x3e04cb81	0.12968256
35	0x3df60841	0.12013293
36	0x3e046d71	0.12932374
37	0xbc1e37b4	-0.009656835
38	0x3ac87bd3	0.0015295692
39	0x3df7563b	0.12076994
40	0xbbe92838	-0.00711539
41	0x3b3fd8d3	0.0029273524
42	0xbacee40b	-0.0015784515
43	0xb996ed72	-0.0002878714
44	0x3e1afe4a	0.15136066
45	0xbc89e8e4	-0.016834684
46	0x3e11c259	0.14234294
47	0x3df745ae	0.12073837
48	0xbc17f1a0	-0.0092739165
49	0xbb96b7df	-0.004599556
50	0xbbaf0fc0	-0.0053424537
51	0xbb8f3595	-0.004370401
52	0x3bf9e395	0.007626007
53	0x3b90ac9f	0.0044151093
54	0x3e0f0259	0.1396574
55	0x3ca519d4	0.020153917
56	0x3e0484d0	0.12941289
57	0x3c19c99d	0.009386447
58	0xbc1b957f	-0.009496092
59	0x3df7a281	0.12091542
60	0x3e26c44b	0.16285817
61	0xbc0e7925	-0.008695875
62	0xbd0871ad	-0.033311535
63	0xbbf51012	-0.0074787224
64	0xb985b546	-0.00025502796
65	0xbc27a998	-0.010233305
66	0xbbc35bae	-0.005961857
67	0x3e0d97fd	0.1382751
68	0xbb0a05e0	-0.002106063
69	0x3e17f2fa	0.14838782
70	0x3e280ca4	0.16411072
71	0xbc261468	-0.010136701
72	0xbbe6ac2a	-0.0070395665
73	0xbc29f05d	-0.0103722485
74	0x3e0d8b0d	0.13822575
75	0xbc083160	-0.008312553
76	0xbb971154	-0.00461022
77	0xbbb7871e	-0.005600824
78	0x3b819f56	0.003955762
79	0xbc20efb0	-0.009822771
80	0x3e0942d5	0.134044
81	0x3e18832a	0.14893785
82	0xbbd64b4e	-0.0065397387
83	0x3befc2ea	0.0073169367
84	0xbc6b0282	-0.01434386
85	0xbba41b3e	-0.0050081303
86	0xbbc3f997	-0.005980681
87	0xbad1b4c9	-0.0015999313
88	0x3e1a0481	0.1504078
89	0xbc4f5bbc	-0.0126561485
90	0xbc2a9714	-0.010411996
91	0x3beff306	0.007322672
92	0xbc2bc28e	-0.010483397
93	0xbc853fad	-0.016265715
94	0x3e1a58c8	0.1507293
95	0x3e2b35fe	0.16719815
96	0x3e1d6411	0.15370204
97	0x3aea2dfe	0.001786649
98	0x3c05c7e9	0.008165338
99	0x3e0c629f	0.13709496
100	0x3c008da1	0.007846267
101	0xbc055730	-0.008138463
102	0xbc17f961	-0.009275765
103	0x3c362f19	0.011119627
104	0x3e243550	0.16035962
105	0xb9db6d45	-0.00041852347
106	0x3e14d787	0.14535342
107	0x3e1523e3	0.14564471
108	0xbcac33e4	-0.021020837
109	0xbc852020	-0.01625067
110	0xbcaa4ab0	-0.020787567
111	0xbc39b300	-0.011334181
112	0x3c0f29ab	0.008737962
113	0xbbb795f8	-0.0056025945
114	0x3e23e738	0.16006172
115	0x3c05d412	0.008168237
116	0x3e193ec5	0.14965351
117	0x3b47f486	0.0030510738
118	0xbb155f75	-0.0022792493
119	0x3e1288b6	0.14309964
120	0x3da39394	0.07987133
121	0xbb18eff7	-0.002333639
122	0xb90d43f9	-0.0001347213
123	0x3c986c57	0.018606348
124	0xbca23c22	-0.019804064
125	0x3c935704	0.017985828
126	0x3a85724d	0.0010181159
127	0x3d76ddd0	0.06027013
128	0x3be96d79	0.007123646
129	0x3d0690c7	0.032852914
130	0x3d5adb50	0.05343181
131	0x3b00d87a	0.001966028
132	0xbb469287	-0.003029974
133	0xbcd513ff	-0.026010511
134	0x3d795459	0.060871456
135	0xbc03c944	-0.008043591
136	0xbc83fb76	-0.016111117
137	0xbc995291	-0.018716129
138	0x3bb1f529	0.0054308367
139	0x3bd87dbd	0.006606786
140	0x3d8c8ef8	0.068632066
141	0x3d6ff102	0.058579452
142	0x3c8c5af5	0.017133215
143	0xbc92fca4	-0.017942734
144	0xbc5f5b90	-0.01363267
145	0xbc211738	-0.009832196
146	0x3bf77756	0.0075520677
147	0x3bd25407	0.0064187082
148	0x3d671eea	0.056425966
149	0xbc4138e4	-0.011793349
150	0x3bb4ac4e	0.0055137044
151	0xbc7d8570	-0.0154737085
152	0x3ba9c66b	0.005181124
153	0xbc290ff4	-0.010318745
154	0x3d693697	0.056936827
155	0x3d82a6d6	0.06379478
156	0x3d8dcbd6	0.06923644
157	0x3c0d1ef1	0.008613334
158	0xbbe7768e	-0.0070636934
159	0x3da11dc6	0.07867007
160	0xbaefd72d	-0.001829838
161	0xbb0b683b	-0.0021271843
162	0xbc099e60	-0.008399576
163	0xbb89a1a7	-0.0042001787
164	0x3d2f930d	0.042864848
165	0xbc84aa67	-0.016194535
166	0x3d74c948	0.05976227
167	0x3d823332	0.06357421
168	0x3b4ae24a	0.0030957633
169	0x3badc5e6	0.0053031323
170	0x3bc6269a	0.006047082
171	0xbc94bbb4	-0.01815591
172	0xbb8434d0	-0.004034616
173	0xbc1d2574	-0.009591449
174	0x3d45fd1b	0.048337083
175	0xba4ebc77	-0.000788636
176	0x3d74ebe1	0.059795264
177	0x3c3efd0e	0.011657013
178	0xbb14d42c	-0.0022709472
179	0x3d8efc5f	0.0698173
180	0x3e206ceb	0.15666549
181	0x3ab97e67	0.0014152051
182	0xbad68380	-0.0016366094
183	0xbb6ac3c6	-0.0035822256
184	0x3c8d16d0	0.017222792
185	0xbb46f389	-0.003035756
186	0x3b1c8c70	0.0023887418
187	0x3e38fcdc	0.18065208
188	0x3a874ccc	0.001032257
189	0x3e35e661	0.17763664
190	0x3e26435e	0.16236636
191	0xba3be9ba	-0.0007168312
192	0xbbba4a92	-0.005685159
193	0xb849d313	-4.8118713e-05
194	0x3e3ceaf1	0.18448998
195	0xbb0012d1	-0.0019542465
196	0x3ba8ba3b	0.0051491535
197	0xbc975869	-0.018474774
198	0xbceef086	-0.029167425
199	0xbbb9e714	-0.0056732986
200	0x3e1c4a04	0.1526261
201	0x3e336ea2	0.17522672
202	0xbc109707	-0.00882507
203	0x3bae438f	0.005318112
204	0xbc7d429b	-0.0154577745
205	0xbae325c4	-0.0017329981
206	0xb998e8c7	-0.00029165132
207	0x3a159518	0.00057061156
208	0x3e337898	0.17526472
209	0x3b407fc3	0.0029373027
210	0xbbaa96d8	-0.0052059703
211	0x3c5df7c0	0.013547838
212	0x3b1a22dc	0.0023519313
213	0x3bf91064	0.007600831
214	0x3e3d2448	0.18470871
215	0x3e372327	0.17884503
216	0x3e1fa84e	0.15591547
217	0x3b217df7	0.0024641731
218	0x3c464cad	0.012103242
219	0x3e243851	0.16037108
220	0xbb7a50e1	-0.003819518
221	0xbbbc3062	-0.0057430724
222	0x3c6ebc41	0.01457125
223	0x3c9113a1	0.017709555
224	0x3e39fe7b	0.18163483
225	0xbc2fff6d	-0.010742051
226	0x3e262fcd	0.16229172
227	0x3e1b2ff5	0.15155013
228	0x3c4c50aa	0.012470404
229	0x3b34762a	0.0027536252
230	0xbb09592e	-0.0020957696
231	0x3b7dc323	0.0038721047
232	0xba5144ac	-0.000798295
233	0x3b5ff3d2	0.0034172428
234	0x3e32f462	0.17476037
235	0xbc62be78	-0.013839357
236	0x3e3ba4f9	0.18324651
237	0xbcc1b8bb	-0.023647657
238	0xbc89ec03	-0.016836172
239	0x3e2d3709	0.16915525
240	0x3e0c2b73	0.1368845
241	0x3c19c202	0.009384634
242	0x3c70243c	0.014657076
243	0xbbb65874	-0.0055647437
244	0xbbf411c6	-0.007448408
245	0xbb047c5a	-0.002021572
246	0xbb1683e1	-0.002296679
247	0x3e0d9979	0.13828076
248	0x3b75f0d9	0.003752759
249	0x3e0f0f52	0.13970688
250	0x3e072ce2	0.13200715
251	0x388d2d9c	6.731899e-05
252	0xba8a79fe	-0.0010564921
253	0xbca56931	-0.02019176
254	0x3e101166	0.14069137
255	0x3bb88574	0.005631143

a f4 [60]
0	0xbe1ae001	-0.15124513
1	0xb9a5900e	-0.00031578582
2	0xbbb7b18f	-0.0056058834
3	0xbbd6cd53	-0.0065552383
4	0x3bedf1e7	0.007261503
5	0x3bde77fe	0.0067892065
6	0xbb8cf5a2	-0.0043017427
7	0xbe1e6643	-0.15468697
8	0xbc771e5b	-0.015082921
9	0xbe21db3a	-0.15806285
10	0xbe239867	-0.15976106
11	0x3b8c7474	0.004286343
12	0xbcb4180d	-0.021984125
13	0xbbba5fa9	-0.005687673
14	0xbe1c1a96	-0.15244517
15	0xbccfa84b	-0.025348803
16	0xbc81d445	-0.015848288
17	0x3b0e1414	0.0021679448
18	0xbabb1f6d	-0.0014276333
19	0x3c69de23	0.014274153
20	0xbe13a14a	-0.14416996
21	0xbe1b4a7a	-0.1516513
22	0x3aa87518	0.001285228
23	0xbbace69c	-0.005276514
24	0x3c31832d	0.010834497
25	0x3bee6014	0.007274637
26	0xba8098f7	-0.0009811212
27	0x3bafecdd	0.0053688125
28	0xbe1ceba6	-0.15324268
29	0xbb8eb93d	-0.004355578
30	0x3b4110d2	0.0029459489
31	0xbbb8885c	-0.0056314897
32	0x3baa1047	0.0051899287
33	0x3b52657c	0.0032103946
34	0xbe1af82b	-0.15133731
35	0xbe181fb3	-0.14855842
36	0xbe164c52	-0.14677551
37	0xbb8bbe7b	-0.0042646504
38	0xbb0aa6a2	-0.002115645
39	0xbe1f7156	-0.15570578
40	0xbbbed4f6	-0.0058237268
41	0x3c67b38e	0.01414193
42	0xbc8ed942	-0.017437581
43	0x3a93f8ad	0.0011289321
44	0xbe1b2346	-0.15150174
45	0xbbaae0a5	-0.005214768
46	0xbe1bc2a2	-0.15210965
47	0xbe16fd78	-0.14745128
48	0x3b632e53	0.0034665063
49	0x3b56bbbd	0.003276571
50	0xbbb4285a	-0.0054979743
51	0xbcc4feb5	-0.024047235
52	0x3c890d7f	0.016730068
53	0xbb95b127	-0.0045682373
54	0xbe1764ff	-0.1478462
55	0x3c0ff969	0.008787491
56	0xbe1d6830	-0.15371776
57	0x3c348914	0.01101901
58	0xbab5cd03	-0.0013870302
59	0xbe21978b	-0.15780465

b f4 [60]
0	0x3e122001	0.14270021
1	0x00000000	0.0
2	0x00000000	0.0
3	0x00000000	0.0
4	0x00000000	0.0
5	0x00000000	0.0
6	0x00000000	0.0
7	0x3e15cd5b	0.14629118
8	0x00000000	0.0
9	0x3e15c00e	0.14624044
10	0x3e124226	0.14283046
11	0xbc20d36b	-0.009816031
12	0x00000000	0.0
13	0xbc0de9ea	-0.0086617265
14	0x3e1540d6	0.14575514
15	0x00000000	0.0
16	0x00000000	0.0
17	0x00000000	0.0
18	0x00000000	0.0
19	0x00000000	0.0
20	0x3e078b6c	0.13236779
21	0x3e1339b3	0.1437748
22	0x00000000	0.0
23	0x00000000	0.0
24	0x00000000	0.0
25	0x00000000	0.0
26	0xbbeed700	-0.0072888136
27	0x00000000	0.0
28	0x3e1394c1	0.14412214
29	0xbbf0bea4	-0.007346945
30	0x00000000	0.0
31	0x00000000	0.0
32	0x00000000	0.0
33	0xbc4246ca	-0.011857698
34	0x3e13dc74	0.14439565
35	0x3e120fe7	0.14263879
36	0x3e0fdb97	0.1404861
37	0xbc2799e0	-0.010229558
38	0x00000000	0.0
39	0x3e0d8ef0	0.13824058
40	0xbbc4c45b	-0.0060048527
41	0x00000000	0.0
42	0x00000000	0.0
43	0x00000000	0.0
44	0x3e1194f0	0.14216971
45	0xbbd20d9c	-0.006410314
46	0x3e0ec16a	0.13940969
47	0x3e10c153	0.14136247
48	0x00000000	0.0
49	0xbc296b63	-0.010340544
50	0xbbc4c5bd	-0.0060050176
51	0x00000000	0.0
52	0x00000000	0.0
53	0x00000000	0.0
54	0x3e113194	0.14179069
55	0x00000000	0.0
56	0x3e124c56	0.14286932
57	0x00000000	0.0
58	0xbbfa6337	-0.007641222
59	0x3e12b7ab	0.14327876

K f4 [8, 60]
0	0xbc8f21cd	-0.017472172
1	0xbc06602b	-0.008201639
2	0x3b48551d	0.003056831
3	0xbc31b003	-0.010845187
4	0xbcbac433	-0.022798633
5	0xbc11bd9a	-0.008895302
6	0x3c96488b	0.018345138
7	0xbce9ec8c	-0.028555177
8	0xbd22eb11	-0.039774958
9	0xb95b7917	-0.00020930577
10	0x3a86c827	0.0010283039
11	0x3bc9ce15	0.0061586
12	0xbba3caa1	-0.0049985205
13	0x3e741168	0.23834765
14	0xbc0008fa	-0.00781464
15	0x3e74fc04	0.23924261
16	0xbba03e3c	-0.0048902314
17	0xbc6fa469	-0.014626601
18	0x3e664c38	0.22490013
19	0x3c82fac6	0.015988719
20	0xbc115ea9	-0.008872666
21	0x3cbf3615	0.023341218
22	0x3b8535c2	0.0040652463
23	0xbcc0c928	-0.023533419
24	0x3bb83db5	0.0056225904
25	0xbb64a7a9	-0.0034889972
26	0x3e73e762	0.23818734
27	0x3dff22fc	0.124578446
28	0xbd00b860	-0.031425834
29	0x3e788788	0.24270451
30	0x3e7a4e7f	0.24444006
31	0xbc080b3b	-0.008303459
32	0xbc54d69e	-0.012990622
33	0xbc2d2796	-0.01056852
34	0xbc3622cb	-0.011116694
35	0x3ba884f2	0.0051428014
36	0x3e75922f	0.23981546
37	0xbc687638	-0.014188342
38	0x3e7ab1a1	0.24481823
39	0xbc6aecf6	-0.014338722
40	0xbc76ef49	-0.015071698
41	0x3e80689e	0.25079817
42	0xbced1399	-0.028940009
43	0x3bbea4de	0.0058179935
44	0xbc699f0e	-0.014259113
45	0x3b5c7a20	0.0033642128
46	0x3e7130fe	0.23553845
47	0xbd4ccbb2	-0.049998946
48	0xbcddd21a	-0.027077723
49	0xbd371405	-0.044696826
50	0xbc5ef60c	-0.013608467
51	0x3c8e7293	0.017388618
52	0xbd8a711d	-0.06759856
53	0xbc0562e4	-0.008141253
54	0x3c895e9a	0.016768742
55	0xbc3c5cda	-0.011496747
56	0xbbaecf97	-0.005334805
57	0xbb18752a	-0.0023263195
58	0xbccb4ce7	-0.024816943
59	0xbd42a3e5	-0.047519583
60	0xbc441f6e	-0.011970384
61	0xbc7d9675	-0.015477766
62	0xbb8fe84e	-0.0043917065
63	0xbcaabc57	-0.02084176
64	0xbcdcca10	-0.02695182
65	0x3c08a759	0.00834068
66	0x3c923f5a	0.017852474
67	0xbce53634	-0.027979948
68	0xbd2601b2	-0.04052896
69	0xbbb889cf	-0.0056316624
70	0xbbff9b09	-0.007800464
71	0xbc80d43d	-0.015726203
72	0x3bff0897	0.0077830064
73	0x3e8f63bc	0.2800578
74	0xbc4bf53d	-0.012448606
75	0x3e957c72	0.29196507
76	0xbc27acb7	-0.0102340495
77	0x3c8bb78e	0.0170553
78	0x3e926560	0.28592968
79	0x3c4631f0	0.012096867
80	0x3ba04077	0.0048904973
81	0x3bb2a43d	0.0054517076
82	0x3a6cbd21	0.0009030868
83	0xbcaa55f1	-0.020792933
84	0x3c4f7db8	0.012664251
85	0xbb992b56	-0.0046743555
86	0x3e941138	0.28919387
87	0x3dccf22a	0.10007127
88	0xbd06bc2f	-0.03289431
89	0x3e8a8da6	0.27061194
90	0x3e8e94d1	0.27847913
91	0xba9628ab	-0.0011456212
92	0x3b8414b3	0.004030788
93	0x3c5b1069	0.013370612
94	0x3c850bcb	0.016240975
95	0xbd0b7685	-0.034048576
96	0x3e901849	0.28143528
97	0x3beb84a6	0.007187444
98	0x3e8c586b	0.27411208
99	0xbb5d506a	-0.0033769854
100	0xba9e9a05	-0.0012100345
101	0x3e874fbc	0.2642802
102	0xbc99a959	-0.018757509
103	0x3bf5af59	0.0074977097
104	0x38c9d298	9.623653e-05
105	0xbb2b107d	-0.0026102357
106	0x3e9359d3	0.28779468
107	0xbca7d6a7	-0.020488096
108	0xbcebf849	-0.028804915
109	0xbc9fceab	-0.019507727
110	0xbb4ecf60	-0.003155671
111	0x3c345b5c	0.01100811
112	0xbd80378f	-0.06260597
113	0xbb324d53	-0.0027206733
114	0x3c04cce4	0.00810549
115	0xbbd61f98	-0.006534528
116	0xbc80ff60	-0.015746772
117	0x3c35efd7	0.011104546
118	0xbbe3e429	-0.006954689
119	0xbcdc6bf8	-0.026906952
120	0xbb4a4a82	-0.0030867164
121	0x3b842b94	0.004033515
122	0xbc5afa60	-0.013365358
123	0xbb805e86	-0.003917518
124	0xbc976697	-0.018481536
125	0xbbf5f1af	-0.0075056176
126	0xbc22ce3d	-0.009936866
127	0xbbf19a39	-0.007373121
128	0xbc3fcbb7	-0.011706284
129	0xbad5dce7	-0.0016316444
130	0xbb037793	-0.0020060285
131	0x3c078bd6	0.008273086
132	0xbb1ecaad	-0.002422969
133	0x3e3cb48f	0.18428253
134	0x3c1d0552	0.009583788
135	0x3e42c805	0.19021614
136	0xb8d9d72e	-0.00010387447
137	0xbc266595	-0.010156055
138	0x3e4c7e88	0.19970143
139	0xbcb898e3	-0.02253384
140	0xbbfc7730	-0.007704638
141	0xbcae42c8	-0.021272078
142	0xbcd0b4b9	-0.0254768
143	0xbcfde5ba	-0.030993331
144	0xbc8bf65a	-0.017085243
145	0x3ba59b25	0.005053895
146	0x3e37e932	0.1796005
147	0x3ea2a085	0.31763092
148	0xbc44fc1b	-0.012022997
149	0x3e3f7b9b	0.18699495
150	0x3e440843	0.19143777
151	0xbcdd42a0	-0.027009308
152	0xbb97509a	-0.0046177628
153	0xbc39a735	-0.011331369
154	0x3baf93be	0.0053581884
155	0xbc0a9d42	-0.008460345
156	0x3e373f31	0.178952
157	0x3c100f49	0.008792707
158	0x3e51699d	0.20450445
159	0xbc0bcf25	-0.008533274
160	0xbc064dfe	-0.008197306
161	0x3e3f3305	0.18671806
162	0xbd15e4de	-0.036595218
163	0xbcb2f893	-0.021847045
164	0xbc9fe520	-0.019518435
165	0xbbd4fc49	-0.0064998013
166	0x3e49c1c2	0.19702819
167	0xbc9d11f7	-0.019173605
168	0xbd037ca2	-0.03210128
169	0xbcd7023d	-0.026246184
170	0xbc21433d	-0.009842691
171	0xbc5465a4	-0.012963686
172	0x3d83320f	0.06406032
173	0x3c36cd09	0.011157283
174	0xbcc775b6	-0.024348121
175	0xbbcae663	-0.006192015
176	0xb95f26d9	-0.00021281409
177	0x3b648a05	0.0034872305
178	0xbc74ed64	-0.014949176
179	0xbd013cff	-0.03155231
180	0x3c23e59d	0.010003475
181	0x3a8cf03f	0.0010752751
182	0x3c34f8e9	0.011045673
183	0x3a2512c2	0.00062970456
184	0xbc4b7754	-0.012418587
185	0x3b9f151b	0.004854811
186	0x3c40d6e0	0.01176998
187	0xbd1b059c	-0.037847146
188	0xbc806e72	-0.015677664
189	0xbba4b8de	-0.0050269207
190	0xbc7245dd	-0.0147871645
191	0xbbb8e56a	-0.0056425827
192	0x3c520565	0.012818669
193	0x3e8dd46b	0.27701125
194	0xbb9e8fd4	-0.004838923
195	0x3e8322b2	0.25612408
196	0x3b824905	0.0039759898
197	0xbc2e6459	-0.010644042
198	0x3e89d39e	0.26919264
199	0x3d158fa4	0.03651394
200	0xbc424afe	-0.0118587
201	0x3ca3b236	0.019982439
202	0x3cfc1bbf	0.03077495
203	0xbc7d01e0	-0.015442342
204	0x3cf536cb	0.029933354
205	0x3bafe6a6	0.0053680716
206	0x3e860e8e	0.2618298
207	0x3e99b2bc	0.30019176
208	0xbc5343a4	-0.012894545
209	0x3e8c7ef1	0.274406
210	0x3e8b3262	0.27186877
211	0xbbc52337	-0.006016161
212	0xbc18cbfd	-0.009325978
213	0x3c209533	0.009801197
214	0x3b0a7870	0.0021128915
215	0xbc55e099	-0.013054037
216	0x3e883f3e	0.2661075
217	0xbc4fd993	-0.012686151
218	0x3e8a628b	0.27028307
219	0x3ba7ae19	0.0051171896
220	0xbc43772e	-0.01193027
221	0x3e8d634d	0.27614823
222	0xbcc9dc5b	-0.024641206
223	0x3d083734	0.03325577
224	0x3bdeba57	0.006797116
225	0xbbad0339	-0.005279925
226	0x3e8c639a	0.2741974
227	0xbd069ca8	-0.032864243
228	0xbcde0c06	-0.027105343
229	0xbd26283c	-0.040565714
230	0x3b6e0483	0.0036318607
231	0x3c5812c4	0.013188068
232	0xbc7e8611	-0.015534894
233	0xbc95b891	-0.018276485
234	0x3c9d89da	0.019230772
235	0x39acc02b	0.00032949573
236	0xbc69dbb7	-0.0142735755
237	0xbbd0eda5	-0.0063759857
238	0xbc584e4c	-0.013202261
239	0xbcec52e7	-0.028848125
240	0xbc0e5f3b	-0.008689697
241	0xbc0571d4	-0.0081448145
242	0xbc1630d2	-0.009166913
243	0xbc408a41	-0.011751712
244	0xbb4114eb	-0.002946193
245	0xba3ad657	-0.0007127276
246	0xbd29d1c3	-0.04145981
247	0xbc64b644	-0.013959471
248	0xbb338355	-0.0027391512
249	0x3b5d56c1	0.0033773633
250	0xbc3e2b78	-0.011607043
251	0xbb7b992c	-0.0038390858
252	0x3b6355c0	0.0034688562
253	0x3e33d510	0.17561746
254	0xbc044091	-0.008072034
255	0x3e3c593c	0.18393415

a f4 [60]
0	0xbb4b2dad	-0.0031002567
1	0x3c1faadd	0.009745327
2	0x3af675cc	0.0018803417
3	0x3b5b3d13	0.003345315
4	0x3c93c499	0.018038081
5	0xbca77afd	-0.020444388
6	0xbd19d398	-0.037555307
7	0x3d3805b2	0.044927306
8	0x3c9631fc	0.018334381
9	0xbc19d072	-0.009388076
10	0x3b9a9704	0.0047177095
11	0xbc0bef93	-0.008541006
12	0x3a40d300	0.000735566
13	0x3e56b780	0.20968437
14	0x3bb73737	0.005591299
15	0x3e5a481c	0.2131657
16	0xba6f0fab	-0.0009119461
17	0xb8ed9b9a	-0.00011330024
18	0x3e66b67f	0.22530554
19	0xbd2b4e36	-0.041822635
20	0x3c6624ae	0.014046831
21	0xbd3c6d9e	-0.046002977
22	0xbd25ee8a	-0.04051069
23	0xbcb6403c	-0.022247426
24	0xbd63b966	-0.05559673
25	0xbc482289	-0.012215265
26	0x3e541d49	0.20714296
27	0xbf2a3bec	-0.66497684
28	0x3ccfbf7d	0.025359863
29	0x3e596f65	0.212339
30	0x3e5767eb	0.21035735
31	0x3c87b978	0.01656793
32	0xba2907f2	-0.00064480223
33	0xbc7cbe10	-0.015426174
34	0xbc88b2cf	-0.016686825
35	0xbbe94528	-0.00711884
36	0x3e59155f	0.21199559
37	0xbc0ee1b5	-0.008720805
38	0x3e59286a	0.21206823
39	0xbbc1dd72	-0.005916291
40	0xbb154599	-0.002277708
41	0x3e575cad	0.21031447
42	0x3d08d77f	0.033408638
43	0xbd1600b9	-0.036621783
44	0xb7199e86	-9.15642e-06
45	0x3bb933f0	0.0056519434
46	0x3e5b0b69	0.21391071
47	0x3cc60c0c	0.024175666
48	0x3d17ffb8	0.037109107
49	0x3abf6c27	0.0014604375
50	0x3ba3c55c	0.0049978923
51	0xbd22656f	-0.039647516
52	0xbe0e5041	-0.13897802
53	0xbb545234	-0.003239763
54	0xbd22d557	-0.039754238
55	0xbbc78a06	-0.0060894517
56	0xbc8256c1	-0.015910508
57	0xbc7b7c66	-0.015349483
58	0xbc79c217	-0.0152440285
59	0x3c7f7ea1	0.0155941555

b f4 [60]
0	0xbbb1e48d	-0.0054288567
1	0x00000000	0.0
2	0x00000000	0.0
3	0xbc5c3f34	-0.013442803
4	0xbc7aa2b7	-0.015297583
5	0x00000000	0.0
6	0xbd038cc2	-0.03211666
7	0xbcb743ff	-0.02237129
8	0xbcb4b637	-0.022059543
9	0x00000000	0.0
10	0x3a6ec061	0.0009107646
11	0x00000000	0.0
12	0x00000000	0.0
13	0xbe722c79	-0.23649777
14	0x00000000	0.0
15	0xbe6d5930	-0.23178554
16	0xbc070709	-0.008241423
17	0xbbeac49e	-0.007164552
18	0xbe6c55f1	-0.23079659
19	0xbd04fa34	-0.032465175
20	0x00000000	0.0
21	0xbd003320	-0.031298757
22	0xbcc2b2f9	-0.023766981
23	0xbcbe29ab	-0.023213228
24	0xbd0abc79	-0.033871148
25	0x00000000	0.0
26	0xbe7adf68	-0.24499285
27	0x3f234051	0.63770014
28	0xbcb6cbfd	-0.022314066
29	0xbe6897ec	-0.22714204
30	0xbe6fee6c	-0.23430794
31	0x00000000	0.0
32	0x00000000	0.0
33	0xbc56ec7a	-0.013117904
34	0x00000000	0.0
35	0xbc9eab8c	-0.01936891
36	0xbe6871a9	-0.22699608
37	0x00000000	0.0
38	0xbe65f52a	-0.22456804
39	0xbc12dc24	-0.008963618
40	0xbb2b92e8	-0.0026180092
41	0xbe6e4df9	-0.23271932
42	0xbc2be127	-0.010490692
43	0xbcfb9bc7	-0.030713929
44	0x00000000	0.0
45	0x00000000	0.0
46	0xbe6f4fc0	-0.23370266
47	0xbcb69af6	-0.022290688
48	0xbcb6c461	-0.022310438
49	0xbcff08a2	-0.031132046
50	0x00000000	0.0
51	0xbd064824	-0.032783642
52	0x3e078718	0.13235128
53	0xbbbfb211	-0.0058500846
54	0xbd045076	-0.032303296
55	0xbbbcd387	-0.0057625207
56	0xbccbf703	-0.024898058
57	0x00000000	0.0
58	0xbc9d23c0	-0.019182086
59	0xbccdb72b	-0.025111755

K f4 [8, 60]
0	0x3b7f80c9	0.0038986674
1	0x3dfbf26a	0.12302096
2	0x3adb4b0b	0.0016730739
3	0xbcdbdfe4	-0.026840158
4	0xbb6fe5dc	-0.0036605513
5	0xba933110	-0.0011229832
6	0x3ab795dd	0.0014006455
7	0xbc8d63d3	-0.017259514
8	0xbb8e9784	-0.004351558
9	0xbbed5885	-0.0072432184
10	0xbc8267c8	-0.015918627
11	0xbce36380	-0.027757406
12	0x3b9679af	0.0045921425
13	0x3a667dfb	0.0008792576
14	0x3c1ab616	0.009442827
15	0xbbf8fd13	-0.007598528
16	0x3df091f2	0.11746587
17	0x3b006f83	0.0019597716
18	0xbc259aca	-0.010107705
19	0xba4ddb7a	-0.0007852834
20	0x3de80896	0.11329763
21	0x3c8b3ba5	0.016996214
22	0x3bd14660	0.006386563
23	0xbc33cfc0	-0.010974824
24	0xbacba7d3	-0.0015537686
25	0xbc727cea	-0.01480029
26	0x3c01b928	0.00791768
27	0xbcb2ab9d	-0.021810347
28	0x38d7fdd4	0.00010299278
29	0xbc63c167	-0.013901091
30	0xba1a7295	-0.0005891708
31	0x3acea057	0.0015764338
32	0x3bc56254	0.0060236845
33	0x3dea5a1c	0.11442968
34	0xbc790c84	-0.015200738
35	0x3a31b0a6	0.0006778337
36	0x3dfa0b78	0.12209219
37	0xbc1c06ad	-0.009523076
38	0xbbab05db	-0.005219204
39	0xbc891b9c	-0.016736798
40	0xbca0adc8	-0.019614115
41	0x3c1f6487	0.009728557
42	0xbbbf1eae	-0.0058325147
43	0x3c02993d	0.007971105
44	0xbb2a1e33	-0.0025957942
45	0x3defdeed	0.117124416
46	0x3b90dc1f	0.0044207717
47	0x3df98db8	0.12185234
48	0x3dec8672	0.11549081
49	0x3e0217dd	0.12704416
50	0xbcbcb7aa	-0.023036797
51	0x3ac73b04	0.0015200083
52	0xbc3b7ee8	-0.011443831
53	0xbc70ec74	-0.014704812
54	0x3ddc3eb9	0.10754151
55	0xbba486db	-0.005020959
56	0x3b1e503e	0.0024156715
57	0x3bbaca34	0.005700374
58	0xb8e5a8e6	-0.00010951031
59	0x3bdc6d0f	0.006726868
60	0xbc0d112d	-0.008610052
61	0x3e169a9e	0.1470742
62	0xbbf27901	-0.0073996787
63	0x3bb39c4f	0.00548128
64	0xbc5c654e	-0.013451887
65	0x3917263b	0.00014414724
66	0xbb978382	-0.0046238312
67	0xbbdc7118	-0.006727349
68	0x3a1e92ee	0.0006049116
69	0xbccda727	-0.025104119
70	0x3bcb4987	0.0062038335
71	0x3bbf9a14	0.005847225
72	0xbc029457	-0.007969937
73	0xbcd29404	-0.025705345
74	0xbc1ac646	-0.009446686
75	0xbbd572cb	-0.0065139285
76	0x3dfdaffe	0.123870835
77	0xbc4464fd	-0.011986968
78	0xbbd9c9a9	-0.006646354
79	0xbcb187de	-0.021671232
80	0x3df88d73	0.12136354
81	0x3c0262f2	0.007958161
82	0xba12756e	-0.00055869564
83	0xbc398430	-0.01132302
84	0xbc61b327	-0.013775623
85	0x3c073346	0.008251971
86	0xbc4047f0	-0.011735901
87	0xbc6fd2db	-0.014637674
88	0xbc2eb452	-0.010663109
89	0xba9db0a9	-0.0012030798
90	0xbc4a04dc	-0.01233026
91	0xbc90bcfd	-0.017668242
92	0xbc486532	-0.012231158
93	0x3e0323db	0.12806647
94	0x39b9b09e	0.0003541754
95	0xbba5a109	-0.0050545973
96	0x3e0566c8	0.13027489
97	0xbc10ab8d	-0.008829963
98	0xbc17d242	-0.009266438
99	0x3b87684a	0.0041323053
100	0xbd11e133	-0.035615157
101	0x3ba6c60a	0.005089526
102	0xbca99d0b	-0.020704767
103	0x3b7948ca	0.003803777
104	0xbacad027	-0.0015473411
105	0x3e0527cf	0.13003467
106	0xbc99d646	-0.018778931
107	0x3e096877	0.13418756
108	0x3e02118c	0.12702006
109	0x3e0b14c6	0.13582143
110	0x3c242161	0.010017724
111	0xbc8ce499	-0.017198848
112	0x3af5555e	0.0018717458
113	0x3a9426f6	0.0011303115
114	0x3e08266d	0.13295908
115	0xbc425d4b	-0.011863063
116	0xbbd0bc38	-0.0063700937
117	0xbb9b9361	-0.0047477935
118	0xbca2ae2f	-0.019858448
119	0xbb75973b	-0.0037474174
120	0xbc0726bf	-0.008248984
121	0x3da118b0	0.07866037
122	0xbc6bdaa5	-0.014395391
123	0xb99c12d7	-0.00029768675
124	0x3bbddd4f	0.0057942043
125	0x3baf9cc0	0.005359262
126	0x3b485e92	0.0030573946
127	0x3c4d7131	0.012539194
128	0x3c29fc36	0.010375073
129	0x3a6a7f8f	0.00089453993
130	0x3be06ffe	0.006849288
131	0xbb23d5e6	-0.002499932
132	0x3ba04e4d	0.0048921467
133	0x3b8b374e	0.004248536
134	0xbb3e3c22	-0.0029027541
135	0x3c034016	0.008010885
136	0x3daa5018	0.08316058
137	0x3bcae3ce	0.006191707
138	0xbba60609	-0.0050666374
139	0xbc28ce3f	-0.010303079
140	0x3d89eec1	0.06734992
141	0x3b7ab785	0.0038256359
142	0xbc9a4a09	-0.01883413
143	0xbc8f7ce3	-0.017515605
144	0x3c214692	0.009843485
145	0xbc34d140	-0.011036217
146	0x3c36731c	0.011135843
147	0x3c440cd5	0.01196595
148	0x3a876004	0.0010328298
149	0xbc3cf06f	-0.011531933
150	0xbbbcbc2d	-0.005759737
151	0xbbd6d5bb	-0.0065562404
152	0xb886aac2	-6.421424e-05
153	0x3d9e632d	0.0773376
154	0xbc80188b	-0.015636703
155	0xbbfbf552	-0.0076891566
156	0x3db85775	0.09001056
157	0xbc250715	-0.010072489
158	0xb807f7a7	-3.2417152e-05
159	0xbbfcbd29	-0.0077129793
160	0xbd4c3fe0	-0.049865603
161	0xbc8d8fd2	-0.017280493
162	0xbc4494d4	-0.011998374
163	0xbbf5d5b8	-0.007502284
164	0x39ae5af6	0.00033255637
165	0x3d93fc4c	0.07225856
166	0x3c3f7d90	0.011687651
167	0x3d8ec49f	0.06971096
168	0x3d93652d	0.07197032
169	0x3d9d1f69	0.07672007
170	0xbb6a100f	-0.0035715138
171	0x3ab6cf0f	0.0013947206
172	0xbc935aa4	-0.017987557
173	0xbad9289b	-0.0016567888
174	0x3d78e9a8	0.060769707
175	0xbc2552d3	-0.010090548
176	0x3c3c3b9c	0.011488821
177	0xbc4abb27	-0.012373722
178	0x3c95590a	0.018230934
179	0x389c459e	7.451627e-05
180	0xbc860c18	-0.016363189
181	0x3e09c81e	0.13455245
182	0xbc585df5	-0.013205995
183	0xbc8b3a44	-0.016995557
184	0x3b059fd9	0.0020389466
185	0xbb83676f	-0.004010133
186	0xbba6b934	-0.005087996
187	0x3bda6652	0.0066650296
188	0x3c2f73d6	0.01070877
189	0x3b075c00	0.0020654202
190	0xbc94c9bc	-0.0181626
191	0xbcaac880	-0.020847559
192	0xbc5c2e40	-0.013438761
193	0x3a816f81	0.000987515
194	0xbc055184	-0.008137111
195	0xbc80da82	-0.015729193
196	0x3e0b4f8d	0.13604565
197	0x3ae7d0a9	0.0017686087
198	0xbc145d04	-0.00905538
199	0xbb5b0e04	-0.0033425102
200	0x3e11db9e	0.14243934
201	0xbc7cc0ab	-0.015426795
202	0x3a83fc8d	0.0010069773
203	0xba283d9d	-0.00064178725
204	0xb8d560d9	-0.00010174671
205	0xbc95978d	-0.018260742
206	0xbc2224eb	-0.009896497
207	0x3aa94f12	0.0012917242
208	0xbbaec4c2	-0.005333514
209	0x3ba37f2d	0.004989526
210	0xbbdd6f72	-0.00675767
211	0xbcd4386e	-0.025905814
212	0x3c131cff	0.008979081
213	0x3e2158bf	0.1575651
214	0xbbf30055	-0.007415811
215	0x3adaa341	0.0016680734
216	0x3e15db25	0.14634378
217	0x3b6f1a5e	0.0036484222
218	0x3b376c54	0.0027988153
219	0xbc90df5d	-0.017684633
220	0xbcddf073	-0.027092194
221	0xbc8d1955	-0.017223993
222	0xbb0faea5	-0.0021924165
223	0xbac41bc4	-0.0014961888
224	0x3b1aa8a5	0.0023599055
225	0x3e1a55ba	0.15071765
226	0x397eee65	0.00024312137
227	0x3e085b8b	0.13316171
228	0x3e0d93cf	0.13825916
229	0x3dff954d	0.12479649
230	0x391353eb	0.00014050274
231	0xbb320d24	-0.0027168477
232	0x3b00f616	0.0019677929
233	0x3c16a703	0.009195092
234	0x3e194d6d	0.14970942
235	0xbb00097d	-0.0019536905
236	0xbac33ae2	-0.0014894868
237	0xbc40d4db	-0.011769499
238	0xbb852ffd	-0.0040645585
239	0x3c167d75	0.009185185
240	0xbbb66aa1	-0.0055669104
241	0x3e46b113	0.19403486
242	0xbc324caa	-0.010882536
243	0xbabedbb2	-0.0014561324
244	0x3b840850	0.0040293112
245	0xbc6e7c3d	-0.014555988
246	0x3bb6eea2	0.0055826465
247	0xbb8c0523	-0.0042730733
248	0xbb5a5174	-0.003331271
249	0xbc058099	-0.008148336
250	0x3c96efb6	0.01842485
251	0xbc048e3d	-0.008090553
252	0xba000e02	-0.00048849
253	0x3c7a8d39	0.015292459
254	0xbc515259	-0.012775981
255	0xbc56f47c	-0.013119813

a f4 [60]
0	0xbc452f45	-0.012035196
1	0xbe057461	-0.13032676
2	0xbb8f1bfe	-0.0043673506
3	0x399d4c7a	0.00030002353
4	0x3c50e08a	0.012748847
5	0x3accce93	0.0015625529
6	0x3ccb2b4a	0.024800915
7	0xb8deb832	-0.00010620094
8	0x3bc2f707	0.005949858
9	0xb9fe8039	-0.0004854219
10	0x3a1c9ccc	0.0005974292
11	0xbbe300ab	-0.00692757
12	0xbc91443f	-0.017732738
13	0x3c4dc12f	0.012558266
14	0xbc1f6dd0	-0.009730771
15	0xbaa75ec9	-0.0012769337
16	0xbdf089ec	-0.117450565
17	0x3bed9dd4	0.0072514806
18	0xbd006610	-0.031347334
19	0xb91eb43d	-0.00015135198
20	0xbe011724	-0.12606484
21	0xbbb9cb53	-0.00566999
22	0xbc080e77	-0.00830423
23	0xbab40db5	-0.0013736995
24	0xbbd6ec0e	-0.0065589016
25	0xbc11dde0	-0.008902997
26	0x3c286778	0.010278575
27	0x37070415	8.0475775e-06
28	0xbad230f0	-0.0016036313
29	0x3ab85454	0.0014063218
30	0xbc93c4f4	-0.01803825
31	0xbc56f252	-0.013119297
32	0xbbf188f0	-0.0073710606
33	0xbe024fa0	-0.12725687
34	0x3c2e67f8	0.010644905
35	0xbc38a2f0	-0.011269316
36	0xbe02a491	-0.1275809
37	0x3bb0e34d	0.00539819
38	0x3c24f610	0.0100684315
39	0xbb093822	-0.0020937999
40	0x3ce9a891	0.028522762
41	0xbb24c072	-0.002513912
42	0xbb8486a0	-0.004044369
43	0xbc1149db	-0.008867706
44	0x3cb62081	0.022232296
45	0xbdfd790f	-0.12376606
46	0x3c878cd5	0.016546646
47	0xbe0124cc	-0.12611693
48	0xbe062f83	-0.13104062
49	0xbdf0e909	-0.11763198
50	0xb956eed4	-0.00020497601
51	0xbc3a8913	-0.01138522
52	0x3a13a5da	0.0005632319
53	0xbc092046	-0.008369511
54	0xbdf9cf5e	-0.12197755
55	0x39fa647f	0.0004775859
56	0xb9f70c6c	-0.00047120766
57	0xbb27a953	-0.0025583103
58	0x3b7ee8ce	0.0038896087
59	0x3af1f2e2	0.0018459226

b f4 [60]
0	0x00000000	0.0
1	0x3dba0972	0.09083833
2	0xbbf08679	-0.007340249
3	0xbc0adbf3	-0.008475292
4	0x00000000	0.0
5	0x00000000	0.0
6	0x00000000	0.0
7	0xbbc97f58	-0.0061492138
8	0x00000000	0.0
9	0x00000000	0.0
10	0xbbfd9892	-0.007739135
11	0x00000000	0.0
12	0x00000000	0.0
13	0x00000000	0.0
14	0x00000000	0.0
15	0x00000000	0.0
16	0x3db4a8e4	0.08821276
17	0x00000000	0.0
18	0x00000000	0.0
19	0xbbe355fd	-0.006937741
20	0x3db89bd7	0.09014099
21	0x00000000	0.0
22	0x00000000	0.0
23	0x00000000	0.0
24	0x00000000	0.0
25	0x00000000	0.0
26	0xbc012c23	-0.007884058
27	0x00000000	0.0
28	0x00000000	0.0
29	0x00000000	0.0
30	0x00000000	0.0
31	0x00000000	0.0
32	0x00000000	0.0
33	0x3dbeb626	0.09312086
34	0xbc12e222	-0.008965047
35	0x00000000	0.0
36	0x3dad9372	0.084753886
37	0xbbf85c9d	-0.0075793997
38	0xbbc4c9cc	-0.0060055014
39	0xbc04c2ce	-0.008103086
40	0xbcfe66e5	-0.031054923
41	0x00000000	0.0
42	0xbbc4c94b	-0.0060054413
43	0x00000000	0.0
44	0x00000000	0.0
45	0x3dc0c71b	0.09412976
46	0x00000000	0.0
47	0x3dbaf10d	0.09128008
48	0x3db6aa72	0.089192286
49	0x3dae61f5	0.085147776
50	0x00000000	0.0
51	0x00000000	0.0
52	0xbc54f31e	-0.012997417
53	0x00000000	0.0
54	0x3dbd585d	0.092453696
55	0xbbc4c9a3	-0.0060054823
56	0x00000000	0.0
57	0x00000000	0.0
58	0x00000000	0.0
59	0x00000000	0.0

K f4 [8, 60]
0	0x3ba0d6a4	0.0049083997
1	0x3ea8d0f3	0.32971916
2	0x3db35b97	0.08757704
3	0x3ca3d4b1	0.01999888
4	0xbdf5ea30	-0.12007558
5	0xbcdb4a2a	-0.026768763
6	0x3db6a2d8	0.08917779
7	0x3ddc91b5	0.10769979
8	0xbd0071ac	-0.031358406
9	0x3b3d4d00	0.0028885007
10	0xbc7f6480	-0.015587926
11	0xbae7cbea	-0.0017684672
12	0x3dc5f747	0.09666305
13	0xba745f62	-0.00093220745
14	0x3c4b8338	0.012421422
15	0x3db7d661	0.089764364
16	0x3de1e60b	0.11030205
17	0xbc641d02	-0.013922932
18	0xbc00bedf	-0.007858007
19	0xbd4c99ee	-0.049951486
20	0xbd358bf0	-0.044322908
21	0x3c52369f	0.0128304055
22	0x3cb7cc7f	0.022436379
23	0x3dd03ca1	0.10167814
24	0xbf7090ac	-0.9397075
25	0x3cd7ec50	0.0263578
26	0x3ca99a91	0.020703586
27	0x3cf7e5c3	0.030260926
28	0x3be9e951	0.007138409
29	0xbc015c35	-0.007895519
30	0x3dd44c1e	0.10366081
31	0xbe2ac34e	-0.16676065
32	0xbc2dcee9	-0.010608413
33	0x3cb86444	0.022508748
34	0xbc1c9d9a	-0.0095590595
35	0xbd4ba313	-0.049716067
36	0x3daafa35	0.083485045
37	0xbd203164	-0.039109603
38	0x3dd89315	0.10574929
39	0xbee2fa1e	-0.4433145
40	0xbf3b1aed	-0.7308796
41	0x3daaf6ee	0.08347879
42	0x3c59a291	0.013283388
43	0x3dbff24e	0.09372388
44	0xbcd15974	-0.02555535
45	0x3d9e9882	0.07743932
46	0x3de9f72d	0.11424098
47	0x3dc04681	0.093884476
48	0xbe59dc50	-0.21275449
49	0x3ed91c6f	0.42404506
50	0xbd739b3f	-0.059474226
51	0xbd443862	-0.047905333
52	0xbc19d90d	-0.009390128
53	0x3d10c841	0.035347227
54	0x3cb14e11	0.02164367
55	0x3dd91c14	0.106010586
56	0x3c5a891a	0.013338352
57	0xbce223bd	-0.027604932
58	0x3cf061d7	0.029343529
59	0x3c7a7373	0.015286314
60	0xbc237b2b	-0.009978096
61	0x3f1566c3	0.58359927
62	0x3e94b6be	0.2904567
63	0x3ce3e5b3	0.02781949
64	0xbdfa5fff	-0.12225341
65	0x3b662d3c	0.0035122177
66	0x3e989882	0.29803854
67	0x3e185a4d	0.14878197
68	0xbc059def	-0.00815533
69	0x3bac5cd7	0.005260091
70	0x3b31cbcf	0.0027129536
71	0xbb4f63bf	-0.0031645147
72	0x3e8e4331	0.27785638
73	0x39732ef5	0.00023191779
74	0x3cefc771	0.029269906
75	0x3e84925b	0.2589291
76	0x3ea0fa60	0.3144102
77	0xbca9ed51	-0.020743044
78	0xbb6967be	-0.0035614814
79	0xbd47c25c	-0.04876934
80	0xbb87929b	-0.00413735
81	0xbb916500	-0.004437089
82	0x3c349603	0.011022094
83	0x3e9582d0	0.29201365
84	0xbf65d92c	-0.89784503
85	0x3c9547f8	0.018222794
86	0x3c3e5a0b	0.011618148
87	0x3c7388dd	0.014864174
88	0x3c365eb9	0.011130982
89	0xbc90e239	-0.017685996
90	0x3e939d3f	0.28830907
91	0xbe1a8116	-0.15088305
92	0xbc528a1e	-0.0128503125
93	0x3cc38acb	0.023869893
94	0x3c2003ec	0.00976656
95	0xbcfc7296	-0.030816358
96	0x3e89685b	0.2683743
97	0xbcf7d001	-0.030250551
98	0x3e8bc40f	0.27298018
99	0xbf4a5f35	-0.79051524
100	0xbf539369	-0.82646805
101	0x3e8b0ed2	0.27159745
102	0x3cc94bc3	0.024572259
103	0x3e84e98c	0.25959432
104	0xbc63f868	-0.013914205
105	0x3e8a4101	0.2700272
106	0x3e92026f	0.28517482
107	0x3e88a770	0.26690245
108	0xbe67d387	-0.22639285
109	0x3e57ac9a	0.21061936
110	0xbd68cb2a	-0.056834377
111	0xbd2b3a13	-0.04180343
112	0x3beab576	0.007162745
113	0x3c58261d	0.013192681
114	0x3cdbf6ff	0.026851175
115	0x3e94c9ad	0.29060116
116	0x3cb8145d	0.022470647
117	0xbbd4a326	-0.0064891754
118	0x3c6a8378	0.014313571
119	0xbc5a23a2	-0.01331416
120	0xbc761e92	-0.015021937
121	0x3e807fa5	0.25097385
122	0x3b220db8	0.0024727415
123	0xbd34da72	-0.04415364
124	0xbd966f52	-0.073454514
125	0xbd3dacbd	-0.046307314
126	0x3d39f349	0.04539803
127	0x3d81d3b4	0.06339207
128	0xbda2ebff	-0.07955169
129	0xbce8bcfa	-0.028410424
130	0xbd1a749d	-0.037708867
131	0xbc62de71	-0.0138469795
132	0x3c64a59b	0.013955499
133	0xbc45163b	-0.012029226
134	0xbcd8d64d	-0.026469374
135	0x3cc7cf43	0.024390822
136	0x3d0be6e4	0.03415574
137	0xbdbc29c3	-0.09187653
138	0xbcffe7fe	-0.031238552
139	0xbd10a2b5	-0.03531142
140	0xbd7b67d5	-0.06137832
141	0xbc826ed7	-0.015921993
142	0xbcadb74b	-0.021205565
143	0x3d0652ce	0.032793812
144	0x3f258591	0.6465693
145	0xbccaf490	-0.02477482
146	0xbc95c83e	-0.01828396
147	0xbd0036f9	-0.031302426
148	0xbd3d5667	-0.046224978
149	0xbdbc1be4	-0.09185007
150	0xbb84484c	-0.004036939
151	0xbe148e1b	-0.14507334
152	0xbc3d0d29	-0.011538782
153	0xbcede4d9	-0.029039787
154	0x3b8d4630	0.0043113455
155	0xbdb038c5	-0.08604578
156	0x3c8d0015	0.017211953
157	0xbd054213	-0.032533716
158	0x3cdc7d97	0.026915355
159	0x3c5c5906	0.013448959
160	0x3f216662	0.6304685
161	0x3c8d6c89	0.017263668
162	0xbcde8733	-0.027164077
163	0x3ce03861	0.027370634
164	0xbd91230b	-0.07086762
165	0x3ccacc18	0.024755523
166	0x3cea721b	0.028618863
167	0x3c6dda35	0.014517357
168	0xbe816705	-0.2527391
169	0x3f036ba4	0.5133612
170	0xbd85c13e	-0.06530999
171	0xbdbba4c4	-0.09162286
172	0xbce9c342	-0.028535489
173	0xbc7dc0ff	-0.015487908
174	0xbce22fe1	-0.027610721
175	0x3cafec9e	0.021475133
176	0xbc9542dc	-0.018220358
177	0x39a2324b	0.0003093652
178	0xbc958bac	-0.018255077
179	0xbe33a057	-0.17541634
180	0xba38d5d9	-0.0007050909
181	0x3eee8ec9	0.4659331
182	0x3e620801	0.22073366
183	0x3cc5a9bf	0.024128793
184	0xbe001d57	-0.12511192
185	0xbd07a5b3	-0.033117007
186	0x3e63248e	0.22181913
187	0x3e0a96ba	0.1353406
188	0xbca2b6e3	-0.019862598
189	0x3c82dcb7	0.015974386
190	0xbb258e1a	-0.00252617
191	0xbbb82694	-0.0056198332
192	0x3e631807	0.22177134
193	0x3bcf53f5	0.006327147
194	0x3cb2c588	0.021822706
195	0x3e5455ac	0.20735806
196	0x3e5c3be9	0.21507229
197	0xbd105a3b	-0.0352423
198	0xbc075254	-0.008259375
199	0xbd4d8913	-0.050179552
200	0xbcde3645	-0.027125487
201	0x3cc8ac1e	0.024496134
202	0x3c8569f1	0.016285868
203	0x3e5ef69f	0.21773766
204	0xbf762a82	-0.9615861
205	0x3c5d108f	0.013492717
206	0x3cad6df9	0.021170603
207	0x3c5f961e	0.013646631
208	0x3c324c9a	0.010882521
209	0xbcd9bee0	-0.026580274
210	0x3e7d897b	0.24759476
211	0xbe15ffde	-0.14648387
212	0x3c784b91	0.015154735
213	0x3bb690aa	0.0055714445
214	0xbbe8e7ef	-0.0071077268
215	0xbce3b759	-0.027797388
216	0x3e7009bb	0.23441212
217	0xbd67dc51	-0.056606594
218	0x3e4f8d8a	0.20268837
219	0xbed0c9c9	-0.4077895
220	0xbf53524f	-0.8254747
221	0x3e59eb2e	0.2128112
222	0x3c9f6d3e	0.01946127
223	0x3e57e3bc	0.21082968
224	0xbcc472b9	-0.023980485
225	0x3e4f0057	0.20214973
226	0x3e4f77d3	0.20260553
227	0x3e555d24	0.20836312
228	0xbea84196	-0.32862538
229	0x3ea150be	0.31506914
230	0xbd236828	-0.039894253
231	0xbd4dcac4	-0.0502422
232	0x3b6a25de	0.0035728137
233	0x3b8c6fa4	0.0042857695
234	0x3c8353a6	0.016031098
235	0x3e54e4f6	0.20790467
236	0x3cedc8b8	0.029026374
237	0xbcba1b48	-0.022718087
238	0x3cc0de1f	0.023543416
239	0xbd872202	-0.06598283
240	0x3b48c712	0.0030636233
241	0x3f1621f7	0.58645576
242	0x3eaf8974	0.34284556
243	0xbd3d1ab5	-0.046168048
244	0xbddd0df9	-0.10793681
245	0xbbb59c75	-0.005542333
246	0x3eaafce7	0.33396074
247	0x3e6a7a6a	0.2289826
248	0xbd96ffbf	-0.073729984
249	0xbd031a22	-0.032007344
250	0xbcda9125	-0.026680538
251	0xbc534627	-0.012895144
252	0x3eb2ddf6	0.34934968
253	0x3bda0f1e	0.006654634
254	0xbccf48b3	-0.02530322
255	0x3eaec0f1	0.34131578

a f4 [60]
0	0x3c7f6fbb	0.015590603
1	0x3eb1f7b6	0.347593
2	0x3e369bef	0.17832921
3	0x3d10abf4	0.035320237
4	0xbe4a8338	-0.19776618
5	0xbe044aba	-0.12919131
6	0x3e2da5f6	0.1695784
7	0x3e2b3181	0.16718103
8	0xbdfb29a4	-0.12263802
9	0xbcfc0bbe	-0.030767318
10	0xbcf66b56	-0.030080479
11	0x3b197dc0	0.00234209
12	0x3e3700c1	0.17871381
13	0x3ab4d7db	0.001379724
14	0x3d4e4030	0.050354183
15	0x3e2a352e	0.16621849
16	0x3e37d42f	0.17952035
17	0xbdfaefe6	-0.12252788
18	0xbde02a76	-0.10945599
19	0xbd141c3d	-0.036159743
20	0xbe01237b	-0.12611191
21	0x3cb6728a	0.022271413
22	0xbd2610db	-0.04054342
23	0x3e3d067f	0.1845951
24	0x3f475323	0.7786123
25	0x3d3187e6	0.043342493
26	0xbd203ea8	-0.039122254
27	0xbd4d5624	-0.05013098
28	0x3cc809e5	0.02441878
29	0xbdfa4c91	-0.12221635
30	0x3e5de466	0.21669158
31	0xbe5d19a5	-0.21591814
32	0xbdbee734	-0.09321442
33	0xbd155475	-0.036457498
34	0xbb489987	-0.0030609088
35	0xbe054e40	-0.13018131
36	0x3e30ee6e	0.17278454
37	0xbd2aff72	-0.041747518
38	0x3e295c36	0.16539082
39	0xbf125fa7	-0.57177204
40	0x3f23d780	0.640007
41	0x3e24cd27	0.16093884
42	0xbd0493a8	-0.03236738
43	0x3e2497a7	0.16073476
44	0xbe0be7df	-0.1366267
45	0x3e338782	0.17532161
46	0x3e29f0d1	0.1659577
47	0x3e24d35f	0.16096257
48	0xbdb5a710	-0.08869755
49	0xbeb30df0	-0.3497157
50	0xbe28a529	-0.16469254
51	0xbe15d72a	-0.1463286
52	0xbd71cfd2	-0.059036084
53	0xbce5fdca	-0.028075118
54	0x3cdb5e52	0.026778374
55	0x3e1ca396	0.15296778
56	0x3d2dea0d	0.042459536
57	0xbd2603c6	-0.040530942
58	0x3cae759d	0.021296317
59	0x3e2dc274	0.16968709

b f4 [60]
0	0x00000000	0.0
1	0xbf3abef7	-0.7294764
2	0xbe684fd2	-0.22686699
3	0xbcb05336	-0.021524053
4	0xbe2ca85b	-0.16861098
5	0xbde49085	-0.111603774
6	0xbe1b6abc	-0.15177435
7	0x3daf4f2f	0.08560025
8	0xbdee0ee9	-0.11623938
9	0xbd1eacfc	-0.03873919
10	0xbcb57e4d	-0.022154951
11	0xbbf2ab8f	-0.0074057053
12	0xbe181633	-0.14852218
13	0x00000000	0.0
14	0xbcb72d32	-0.022360418
15	0xbe246f10	-0.16057992
16	0xbe3305b4	-0.17482644
17	0xbde50d9e	-0.11184238
18	0xbdc5eb41	-0.09664012
19	0xbd63a7cc	-0.055579945
20	0xbdf0e003	-0.11761477
21	0xbc724b8a	-0.014788518
22	0xbd1c96a2	-0.038229592
23	0xbe093dc9	-0.13402475
24	0x3f971eed	1.1806313
25	0xbcb67d8a	-0.022276659
26	0xbd0476dd	-0.03233992
27	0xbd1a6795	-0.03769644
28	0xbc991aa6	-0.018689465
29	0xbde7aa5b	-0.113117896
30	0xbe8f6759	-0.28008536
31	0xbe3e3ea5	-0.18578584
32	0xbda97c55	-0.082756676
33	0xbd09df8c	-0.033660457
34	0xbcb3cd02	-0.021948341
35	0xbdebb52f	-0.115091674
36	0xbe2258a6	-0.15854129
37	0xbd1b24a3	-0.037876736
38	0xbe3e2c8c	-0.18571681
39	0x3f064114	0.5244305
40	0x3f8760c4	1.0576406
41	0xbe335f7b	-0.17516892
42	0xbcb5a6e0	-0.022174299
43	0xbe2d8473	-0.16945057
44	0xbdedf573	-0.11619081
45	0xbe4de86c	-0.20108193
46	0xbe24543b	-0.16047756
47	0xbe4dc774	-0.20095617
48	0x3d6465d3	0.05576117
49	0xbcfeee31	-0.031119438
50	0xbe11479c	-0.14187473
51	0xbe0aa6db	-0.13540213
52	0xbd29d3a4	-0.0414616
53	0xbcb55fd5	-0.022140423
54	0xbc9fe1fd	-0.01951694
55	0xbe51590d	-0.20444126
56	0xbcb6fb80	-0.022336721
57	0xbdb2fdca	-0.08739813
58	0xbcb67045	-0.022270331
59	0xbd298417	-0.041385736

K f4 [8, 60]
0	0x3ac5a72d	0.001507973
1	0x3ca1627e	0.019700285
2	0x39b3d3dc	0.00034299388
3	0xbe951f2d	-0.29125348
4	0x3c53f254	0.0129361935
5	0xbd4c4baf	-0.049876865
6	0x3ca913bd	0.020639295
7	0xbd4be8e2	-0.04978264
8	0x3c6d4f09	0.0144841755
9	0xbb803eb7	-0.003913726
10	0xbd1a7a1d	-0.037714113
11	0xbe1bfb60	-0.1523261
12	0xbd7e1434	-0.062030986
13	0xbd34c7b7	-0.044135775
14	0x3c97eaa2	0.018544499
15	0x3b17688e	0.002310309
16	0x3bd8eb9c	0.0066198837
17	0xbd32fcc1	-0.043698076
18	0x3b8aad02	0.00423205
19	0xbd3349d8	-0.043771595
20	0xbcca15e6	-0.024668645
21	0x3f54827a	0.8301159
22	0xbcae886c	-0.021305285
23	0x3e9bbb56	0.30416363
24	0xbcbb300c	-0.022850059
25	0x3c6e9cb5	0.014563729
26	0x3eb32cec	0.3499521
27	0xba8fb12b	-0.0010962834
28	0xbd69733f	-0.056994673
29	0xbd47c9c5	-0.048776407
30	0x3c8dbf76	0.01730321
31	0xbdf0b54f	-0.11753332
32	0xbcb18dbc	-0.02167403
33	0xbd2c18e9	-0.042015944
34	0xbe1933b3	-0.14961128
35	0xbc446aae	-0.011988325
36	0xbf30d2c2	-0.6907159
37	0xbc13bde5	-0.009017442
38	0xbc31e862	-0.010858627
39	0xbd386117	-0.045014467
40	0x3f71fc82	0.9452592
41	0xbecf0b48	-0.40438294
42	0x3ee4056f	0.44535396
43	0xbd4d46a7	-0.050116207
44	0x3e96e1b0	0.2946906
45	0x3d93c108	0.07214552
46	0xbb56c525	-0.0032771316
47	0xbc989a60	-0.0186283
48	0xbdfb84f9	-0.12281222
49	0xbbc77826	-0.006087321
50	0xbd2ea061	-0.042633418
51	0x3dbbc453	0.09168305
52	0x3c058434	0.008149195
53	0x3ba620f7	0.0050698477
54	0xbec7ba89	-0.39009503
55	0xba6c1554	-0.00090058637
56	0x39c30c13	0.00037202294
57	0xbd49ac0a	-0.049236335
58	0x3c90345d	0.017603094
59	0xbc49f976	-0.0123275425
60	0x3baedf2e	0.0053366637
61	0xbc7827f3	-0.015146243
62	0x3c0c3538	0.00855761
63	0xbea2fe05	-0.31834427
64	0xbbb67162	-0.0055677155
65	0xbc82f17e	-0.015984293
66	0xbc33a95f	-0.010965674
67	0xbbb3a858	-0.0054827146
68	0x3a95a4c5	0.0011416903
69	0xbc5f0606	-0.013612276
70	0xbc235b4e	-0.009970499
71	0x3ddd300b	0.10800179
72	0x3b990a7a	0.0046704384
73	0xbc62daaa	-0.013846079
74	0xbbe2e446	-0.006924185
75	0x3a739857	0.0009292415
76	0xbc89af8e	-0.016807344
77	0xbbd1b705	-0.0063999915
78	0xbb6e343b	-0.003634705
79	0xbb8867e8	-0.004162777
80	0xbcb3b743	-0.021937972
81	0xbdfd24b3	-0.123605154
82	0x3c7e529e	0.015522627
83	0x3eb63152	0.35584503
84	0xbccd86a7	-0.025088621
85	0xbc41611b	-0.011802937
86	0x3e8d7c01	0.2763367
87	0x3e38c8a8	0.18045294
88	0xbc108b23	-0.008822235
89	0xbb7e0fba	-0.0038766698
90	0xbccede08	-0.025252357
91	0xbda2c3c2	-0.07947494
92	0xbb812e3f	-0.0039422805
93	0xbc9532b8	-0.018212661
94	0x3c0e4c76	0.008685222
95	0xbc2dc0d6	-0.010605058
96	0xbf1e952a	-0.61946356
97	0x3b499619	0.0030759631
98	0x3b2112d3	0.002457787
99	0xbb65f57c	-0.0035088947
100	0x3eb1691c	0.34650505
101	0xbe6ee852	-0.2333081
102	0x3ec5de85	0.3864633
103	0xbbd2d0a8	-0.006433565
104	0x3ec8ecbc	0.39243114
105	0x3eabc21d	0.33546534
106	0x3a8f93e3	0.0010954108
107	0xbc1d5478	-0.009602658
108	0x3ee3c4d2	0.444861
109	0x3c89125c	0.016732387
110	0xbcbd1b4a	-0.023084302
111	0x3d33a96e	0.043862753
112	0x3c0c17bf	0.008550583
113	0x3bb122f8	0.00540578
114	0xbe84a7bf	-0.2590923
115	0x3c318a64	0.010836218
116	0xba79f426	-0.0009534977
117	0xbc83eed9	-0.016105102
118	0xbbaa09d9	-0.005189162
119	0xbb2c1c1d	-0.0026261874
120	0xbc5e8690	-0.013581887
121	0xbd7573a8	-0.05992475
122	0xbaea8b4b	-0.0017894296
123	0x3eb7b484	0.3587991
124	0xbd1d38c9	-0.038384233
125	0x3e5d6fd6	0.21624693
126	0xbc11dfb4	-0.008903433
127	0x3e56b7e3	0.20968585
128	0x3b5d53ac	0.0033771796
129	0xbd3049fb	-0.043039303
130	0x3e57a04e	0.21057245
131	0xbc874232	-0.016511057
132	0x3e497e6b	0.19677131
133	0x3e534ff4	0.20635968
134	0xbc0e61cf	-0.008690312
135	0xbc2536cf	-0.010083868
136	0xbd176856	-0.036964737
137	0x3e421f0c	0.18957156
138	0xbcbf2d95	-0.023337165
139	0x3e555757	0.20834099
140	0xbd2387f6	-0.039924584
141	0xbe4e3dd1	-0.20140769
142	0xbe22f69c	-0.15914387
143	0xbf871c4f	-1.0555514
144	0xbd695f8d	-0.05697589
145	0xbc0986c0	-0.008393943
146	0x3de62b78	0.1123876
147	0x3eb2a042	0.34887892
148	0x3e58129d	0.2110085
149	0x3e5c8cad	0.21538039
150	0xbc859c64	-0.016309924
151	0xbf10a557	-0.5650229
152	0xbd3530c2	-0.044235952
153	0x3e52f91b	0.20602839
154	0x3db185b4	0.0866808
155	0xbd1b6a9b	-0.037943464
156	0x3f313298	0.69217825
157	0x3afc1d83	0.0019234869
158	0x3b7d76fc	0.0038675657
159	0x3e5656bb	0.20931523
160	0xbf08608b	-0.5327231
161	0x3ed841cf	0.42237708
162	0x3dd82bb2	0.10555209
163	0x3e5408ff	0.20706557
164	0x3cea6c1f	0.02861601
165	0xbe82e3a4	-0.255643
166	0x3c35590e	0.011068596
167	0xbd01fa05	-0.031732578
168	0xbe0195e7	-0.1265484
169	0xbcfeda70	-0.031110018
170	0xbd66be67	-0.056333926
171	0x3e640365	0.2226692
172	0xbc290c2e	-0.010317845
173	0xbda9cac1	-0.08290625
174	0x3ee204c4	0.4414426
175	0xbd36c341	-0.044619802
176	0xbbc88422	-0.006119267
177	0x3e5e4b55	0.21708424
178	0xbc2e37ee	-0.010633452
179	0xbcdfb211	-0.027306588
180	0x3ba04a16	0.004891644
181	0x3c85ce41	0.016333701
182	0x3af5a48b	0.0018741054
183	0xbe52d10d	-0.20587559
184	0x3b80fce5	0.0039363974
185	0x3d3de96f	0.046365198
186	0xbc84d3c9	-0.016214268
187	0x3d260cc0	0.040539503
188	0x3c909b5e	0.01765221
189	0xbb557775	-0.0032572423
190	0x3cf15d62	0.029463474
191	0x3daa36e4	0.08311251
192	0x3d39a274	0.045320943
193	0x3d2f8149	0.042847905
194	0x3acfbfcf	0.001585001
195	0xbbced282	-0.0063117156
196	0xbca37179	-0.019951569
197	0x3d260283	0.04052974
198	0xbb8d544f	-0.004313029
199	0x3cf11e96	0.02943353
200	0xbcc0051b	-0.023439934
201	0xbf998397	-1.1993283
202	0xbaeebc66	-0.0018214106
203	0x3ef2878d	0.47369042
204	0xbd2c659f	-0.0420891
205	0xbc5761d1	-0.01314588
206	0x3e897053	0.2684351
207	0xbc472528	-0.012154855
208	0x3d6e98e2	0.05825127
209	0x3d3518f8	0.044213265
210	0x3adaa8f3	0.0016682431
211	0xbdacac44	-0.084312946
212	0xbc2cd5a0	-0.010548979
213	0x3d2c96bc	0.04213594
214	0x3d89ad0e	0.06722461
215	0xba1094da	-0.00055153447
216	0x3ef5e8de	0.48029226
217	0xbc40fe36	-0.011779359
218	0x3be0cd37	0.006860401
219	0x3cd447a0	0.02591306
220	0x3e50b32a	0.20380846
221	0xbe0cfcbf	-0.1376829
222	0x3e9a891e	0.30182737
223	0x3d29c958	0.041451782
224	0x3e912b38	0.28353286
225	0x3d9c2810	0.07624829
226	0xbb3721d6	-0.0027943752
227	0xbc9ea5c2	-0.019366149
228	0x3de419f9	0.111377664
229	0x3cb3644a	0.021898407
230	0xbd0e0663	-0.03467406
231	0xbe082c6a	-0.13298193
232	0xbc79f4b0	-0.015256092
233	0xbb45945d	-0.0030148246
234	0xbe699219	-0.22809638
235	0x3b37e83b	0.0028062004
236	0x3b7d3189	0.0038634262
237	0x3d510d56	0.05103811
238	0x3b40dbd4	0.0029427903
239	0xbd118ed2	-0.035536595
240	0xbbf839e2	-0.0075752595
241	0xbd417235	-0.047228057
242	0xbbc58d79	-0.0060288277
243	0x3f0d18e0	0.5511608
244	0xbced6320	-0.02897793
245	0x3eba0968	0.363353
246	0xbbaff2a9	-0.0053695035
247	0x3eb75c0f	0.35812423
248	0xbcb46af3	-0.022023654
249	0x3b45d542	0.0030186926
250	0x3ebc65d0	0.36796427
251	0xbe9f6d47	-0.3113806
252	0x3ebaea28	0.36506772
253	0x3eb7d711	0.3590627
254	0x3aeab350	0.0017906222
255	0xbbb54a4b	-0.005532538

a f4 [60]
0	0xbc497ba7	-0.012297547
1	0xbcdfab70	-0.027303427
2	0xbc020839	-0.007936531
3	0x3f5233a1	0.8211003
4	0x3cc003e3	0.023439353
5	0xbe6c58a9	-0.23080696
6	0x3c75e340	0.015007794
7	0xbe696c47	-0.22795211
8	0xbc0f7f9f	-0.008758455
9	0xb9a66222	-0.00031735102
10	0xbe6c544f	-0.23079036
11	0xbee279ce	-0.44233555
12	0xbe738058	-0.23779428
13	0xbe7d0295	-0.24708016
14	0x3bf5fa92	0.007506677
15	0xbc063d17	-0.008193276
16	0x3c96064b	0.018313548
17	0xbe6f841b	-0.23390238
18	0x3bc29ddc	0.0059392285
19	0xbe6ddb69	-0.2322823
20	0xbd430ecf	-0.047621544
21	0xbfc0f13e	-1.5073621
22	0xbdd60197	-0.10449522
23	0x3f63d66b	0.8899905
24	0xbcc5e354	-0.02415625
25	0x3c5ad1cd	0.0133556845
26	0x3ed4da94	0.41573012
27	0xbf22ac2e	-0.63543975
28	0xbe65fa2a	-0.22458711
29	0xbe742a1b	-0.23844187
30	0x3c634c51	0.013873176
31	0xbec2608f	-0.37964293
32	0xb8c79faa	-9.518799e-05
33	0xbe6bc62d	-0.23024817
34	0xbe6f3758	-0.23360956
35	0x3c710379	0.014710301
36	0xbf7aec0d	-0.98016435
37	0x3b9c5922	0.0047713676
38	0xbb152a36	-0.0022760755
39	0xbe62d445	-0.22151287
40	0xbfc1062b	-1.5080007
41	0x3f5bd04c	0.8586471
42	0x3f173c77	0.5907664
43	0xbe61cc9f	-0.22050713
44	0x3efb0930	0.49030447
45	0xbf2798c4	-0.65467477
46	0x3a87197c	0.0010307278
47	0xbc1dd163	-0.009632441
48	0xbf6df2aa	-0.929484
49	0xbd031d9b	-0.032010656
50	0x3cd0ac7b	0.02547287
51	0xbf250ad8	-0.6446967
52	0x3cbc6054	0.022995152
53	0x3c856e56	0.016287964
54	0x3f3f4683	0.7471697
55	0x3d197944	0.037469164
56	0x3c0d5017	0.008625052
57	0xbe775b5e	-0.24155948
58	0xbbc9f54a	-0.006163274
59	0x3c8094b9	0.015695916

b f4 [60]
0	0x00000000	0.0
1	0x3d2b2b41	0.041789297
2	0x00000000	0.0
3	0x3efb9a94	0.4914137
4	0xbd064df5	-0.03278919
5	0x3d309188	0.04310754
6	0xbbc4c9c9	-0.0060055
7	0x3d3739f7	0.044733014
8	0x00000000	0.0
9	0xbc35c695	-0.011094709
10	0x3d07e24a	0.03317479
11	0xbf15affb	-0.5847165
12	0x3d714db8	0.05891201
13	0x3d3bbe5b	0.045835834
14	0x00000000	0.0
15	0xbbb6e0f7	-0.005581017
16	0xbd486269	-0.048921976
17	0x3d36d511	0.04463679
18	0x00000000	0.0
19	0x3d0601a9	0.032716427
20	0xbd3c9841	-0.04604364
21	0xbea80d82	-0.32822806
22	0x3e3c1eb8	0.18371093
23	0xbf0b74ad	-0.5447491
24	0xbd0210f8	-0.031754464
25	0xbc1e7718	-0.009671949
26	0x3e709ae0	0.2349658
27	0xbf57b2f8	-0.8425746
28	0x3d574054	0.052551582
29	0x3d38e0f7	0.04513642
30	0xbbc4c99f	-0.0060054804
31	0x3f4dbe5c	0.8036859
32	0xbca9675b	-0.020679167
33	0x3d3e45f7	0.046453442
34	0x3f306d27	0.68916553
35	0xbd4a2ba6	-0.049358033
36	0x3e32cb6f	0.17460416
37	0xbbc4c9c5	-0.006005498
38	0xbbc4c9a0	-0.006005481
39	0x3d056682	0.032568462
40	0xbddcab62	-0.10774876
41	0x3cf76732	0.030200575
42	0x3e8dbfae	0.27685302
43	0x3d4a6356	0.04941114
44	0x3ef44384	0.4770776
45	0xbf33c5b0	-0.7022352
46	0xbbc4c9b7	-0.0060054916
47	0xbce4450c	-0.027864955
48	0x3ed04193	0.4067503
49	0xbcc3b019	-0.02388768
50	0xbd0702de	-0.03296172
51	0xbd56f9f5	-0.05248447
52	0x00000000	0.0
53	0x3cc1b0c4	0.023643859
54	0xbc608e88	-0.013705857
55	0xbd2f71e8	-0.04283324
56	0x00000000	0.0
57	0x3d5959ed	0.053064276
58	0xbcd2bcb1	-0.02572474
59	0x3af454fc	0.001864105
