learner_tingwei/model/testcase_1_distsquare_eps_0.0004_l_0.004_auglag_lbfgsiters_100addloss_0_adddim_0__seed_1/model90000.pkl (torch, 24480 bytes, 22 tensors)

Qincpt f4 [1, 1, 8]
000000 39 87 6a 3f b2 eb 6a 3f 86 e2 89 3f a6 ce 54 3f
       0.91612583 0.9176589 1.0772254 0.8312782
000010 a6 0f 7c 3f 95 f9 4f 3f ad 70 32 3f 4e 6a 4a 3f
       0.9846138 0.81240207 0.6970318 0.7906846

Qslope f4 [1, 1, 8]
000000 27 31 29 3f b0 74 94 3f 0f c6 14 3e 60 cc 72 3f
       0.66090626 1.159811 0.14528678 0.948431
000010 a3 1f d9 3e 69 74 54 3f 2f 9d d4 3f 6a f7 4a 3f
       0.4240695 0.8299013 1.6610469 0.79283774

Pincpt f4 [1, 1, 8]
000000 d5 30 8b 3f 2c 2c 37 3f e4 a0 aa 3f a4 c9 2d 3f
       1.0874277 0.71551776 1.333035 0.67885804
000010 f4 d7 62 3f f4 a8 97 3f c7 af a2 3e bb 68 69 3f
       0.8861077 1.1848435 0.31774732 0.9117543

K f4 [8, 60]
000000 8f 93 ce 3d 01 d6 f5 bb e5 4b d6 bb 71 b1 9e bc
       0.10086738 -0.007502318 -0.006539809 -0.01937172
000010 87 4a 83 ba 78 9e c7 bb a0 86 20 bc be 8d d7 3d
       -0.0010016718 -0.006091889 -0.009797722 0.10525082
000020 05 5b e9 bb 40 ce f9 3d 6d aa dc 3d 95 03 51 bc
       -0.007121446 0.12197542 0.10774694 -0.012757202
000030 cd aa 11 bb 91 d4 08 3c 51 4f f4 3d 1c 3c 99 3b
       -0.002222705 0.008351461 0.11929191 0.004676355
000040 44 62 e4 bb dd 2d 3e bc de 39 e5 3b 18 71 82 3b
       -0.006969722 -0.011607614 0.0069954237 0.003980767
000050 c4 dd e6 3d 53 24 f0 3d 97 ee 1c bd f6 44 04 3c
       0.11272767 0.11725678 -0.038313475 0.008073082
000060 d7 7f 34 3c 57 9a e6 ba 86 03 f7 bc d8 fc 6c bc
       0.0110168075 -0.0017593604 -0.030153047 -0.0144645795
000070 ab 86 f0 3d f2 55 62 bc 76 c1 02 bc 6b 85 ac ba
       0.11744436 -0.013814436 -0.007980695 -0.001316232
000080 bc f4 99 3c 44 33 49 bc ed 2a f0 3d f0 99 dc 3d
       0.018793456 -0.012280289 0.117269374 0.10771549
000090 d1 b3 e6 3d b4 37 1e bc d3 7b c8 3a 10 d3 dc 3d
       0.11264766 -0.009656835 0.0015295692 0.107824445
0000a0 38 28 e9 bb d3 d8 3f 3b 0b e4 ce ba 72 ed 96 b9
       -0.00711539 0.0029273524 -0.0015784515 -0.0002878714
0000b0 9e 7c 0c 3e e4 e8 89 bc eb 8f 03 3e c1 f2 dc 3d
       0.13719413 -0.016834684 0.12847869 0.10788489
0000c0 a0 f1 17 bc df b7 96 bb c0 0f af bb 95 35 8f bb
       -0.0092739165 -0.004599556 -0.0053424537 -0.004370401
0000d0 95 e3 f9 3b 9f ac 90 3b 26 67 ff 3d d4 19 a5 3c
       0.007626007 0.0044151093 0.12470846 0.020153917
0000e0 6c 2c ed 3d 9d c9 19 3c 7f 95 1b bc 30 0c e1 3d
       0.115807384 0.009386447 -0.009496092 0.10988653
0000f0 66 af 0b 3e 25 79 0e bc ad 71 08 bd ac 98 e1 bb
       0.13641128 -0.008695875 -0.033311535 -0.006884655
000100 46 b5 85 b9 98 a9 27 bc ae 5b c3 bb 0d f2 ee 3d
       -0.00025502796 -0.010233305 -0.005961857 0.11667261
000110 e0 05 0a bb f7 0c fb 3d b4 c8 0b 3e 68 14 26 bc
       -0.002106063 0.12258332 0.13650781 -0.010136701
000120 2a ac e6 bb 5d f0 29 bc b7 51 e2 3d 60 31 08 bc
       -0.0070395665 -0.0103722485 0.11050742 -0.008312553
000130 54 11 97 bb 1e 87 b7 bb 56 9f 81 3b b1 01 2d bc
       -0.00461022 -0.005600824 0.003955762 -0.010559485
000140 f4 42 d4 3d d8 b0 f2 3d 05 61 1c bd ea c2 ef 3b
       0.10364333 0.118501365 -0.038178463 0.0073169367
000150 82 02 6b bc 3e 1b a4 bb 97 f9 c3 bb c9 b4 d1 ba
       -0.01434386 -0.0050081303 -0.005980681 -0.0015999313
000160 3a a0 fb 3d bc 5b 4f bc 14 97 2a bc 06 f3 ef 3b
       0.1228642 -0.0126561485 -0.010411996 0.007322672
000170 8e c2 2b bc ad 3f 85 bc 0a 54 fa 3d e2 97 0d 3e
       -0.010483397 -0.016265715 0.122230604 0.1382747
000180 97 5a f8 3d fe 2d ea 3a e9 c7 05 3c d3 96 e1 3d
       0.12126654 0.001786649 0.008165338 0.110150956
000190 a1 8d 00 3c 30 57 05 bc 61 f9 17 bc 19 2f 36 3c
       0.007846267 -0.008138463 -0.009275765 0.011119627
0001a0 c4 b0 04 3e 45 6d db b9 0d a2 ed 3d 2b ac f2 3d
       0.12958056 -0.00041852347 0.11603174 0.11849245
0001b0 e4 33 ac bc 20 20 85 bc b0 4a aa bc 00 b3 39 bc
       -0.021020837 -0.01625067 -0.020787567 -0.011334181
0001c0 ab 29 0f 3c f8 95 b7 bb c2 a6 03 3e 12 d4 05 3c
       0.008737962 -0.0056025945 0.12856582 0.008168237
0001d0 d8 0c f4 3d 86 f4 47 3b 75 5f 15 bb 79 be ee 3d
       0.11916512 0.0030510738 -0.0022792493 0.116574235
0001e0 99 dc 05 3b f7 ef 18 bb f9 43 0d b9 b7 46 69 bc
       0.0020425676 -0.002333639 -0.0001347213 -0.014238051
0001f0 22 3c a2 bc 04 57 93 3c 4d 72 85 3a fa db 35 bc
       -0.019804064 0.017985828 0.0010181159 -0.01109981
000200 79 6d e9 3b a2 78 14 bd 4e c8 ad bc 7a d8 00 3b
       0.007123646 -0.036247857 -0.021213677 0.001966028
000210 87 92 46 bb ff 13 d5 bc c7 9e 32 bc 44 c9 03 bc
       -0.003029974 -0.026010511 -0.010902113 -0.008043591
000220 76 fb 83 bc 91 52 99 bc 29 f5 b1 3b d3 91 ce b9
       -0.016111117 -0.018716129 0.0054308367 -0.0003940003
000230 81 44 26 bc 0e 1e 87 bc 57 bc 6e bc a4 fc 92 bc
       -0.010148169 -0.016493823 -0.014571271 -0.017942734
000240 90 5b 5f bc 38 17 21 bc 56 77 f7 3b 07 54 d2 3b
       -0.01363267 -0.009832196 0.0075520677 0.0064187082
000250 65 cb 87 bc e4 38 41 bc 4e ac b4 3b 70 85 7d bc
       -0.016576478 -0.011793349 0.0055137044 -0.0154737085
000260 6b c6 a9 3b f4 0f 29 bc 9f 1e 88 bc cf 46 40 bc
       0.005181124 -0.010318745 -0.016616164 -0.011735632
000270 46 bd 1d bc f1 1e 0d 3c 8e 76 e7 bb f0 af 22 bb
       -0.009627646 0.008613334 -0.0070636934 -0.0024824105
000280 2d d7 ef ba 3b 68 0b bb 60 9e 09 bc a7 a1 89 bb
       -0.001829838 -0.0021271843 -0.008399576 -0.0042001787
000290 b4 e6 f8 bc 67 aa 84 bc 46 a0 8d bc 79 d7 56 bc
       -0.030383445 -0.016194535 -0.017288338 -0.013112896
0002a0 4a e2 4a 3b e6 c5 ad 3b 9a 26 c6 3b b4 bb 94 bc
       0.0030957633 0.0053031323 0.006047082 -0.01815591
0002b0 d0 34 84 bb 74 25 1d bc 2e 4e d8 bc 77 bc 4e ba
       -0.004034616 -0.009591449 -0.026404466 -0.000788636
0002c0 3a 7b 81 bc 0e fd 3e 3c 2c d4 14 bb f1 bb b8 bb
       -0.01580583 0.011657013 -0.0022709472 -0.0056376387
0002d0 c4 5b 44 3e 67 7e b9 3a 80 83 d6 ba 59 18 66 bb
       0.19175631 0.0014152051 -0.0016366094 -0.0035109727
0002e0 d0 16 8d 3c 89 f3 46 bb 70 8c 1c 3b e0 a5 63 3e
       0.017222792 -0.003035756 0.0023887418 0.22231245
0002f0 cc 4c 87 3a 3f c7 5a 3e 2d 4a 48 3e ba e9 3b ba
       0.001032257 0.21365069 0.19559546 -0.0007168312
000300 92 4a ba bb 13 d3 49 b8 16 9f 5f 3e d1 12 00 bb
       -0.005685159 -4.8118713e-05 0.2183803 -0.0019542465
000310 3b ba a8 3b 69 58 97 bc 86 f0 ee bc 67 66 6b bb
       0.0051491535 -0.018474774 -0.029167425 -0.003591919
000320 1e f6 3b 3e eb 49 52 3e 38 c2 25 bd 8f 43 ae 3b
       0.18355605 0.2053601 -0.040468425 0.005318112
000330 9b 42 7d bc c4 25 e3 ba c7 e8 98 b9 18 95 15 3a
       -0.0154577745 -0.0017329981 -0.00029165132 0.00057061156
000340 35 37 56 3e c3 7f 40 3b d8 96 aa bb c0 f7 5d 3c
       0.20919497 0.0029373027 -0.0052059703 0.013547838
000350 dc 22 1a 3b 64 10 f9 3b ce 8c 5e 3e 0b dc 57 3e
       0.0023519313 0.007600831 0.217334 0.21080033
000360 03 37 3c 3e f7 7d 21 3b ad 4c 46 3c 53 90 47 3e
       0.1838036 0.0024641731 0.012103242 0.19488649
000370 e1 50 7a bb 62 30 bc bb 41 bc 6e 3c a1 13 91 3c
       -0.003819518 -0.0057430724 0.01457125 0.017709555
000380 f3 41 58 3e 6d ff 2f bc d2 d0 46 3e 37 d4 3e 3e
       0.21118908 -0.010742051 0.19415596 0.18635641
000390 aa 50 4c 3c 2a 76 34 3b 2e 59 09 bb 23 c3 7d 3b
       0.012470404 0.0027536252 -0.0020957696 0.0038721047
0003a0 ac 44 51 ba d2 f3 5f 3b 14 91 50 3e 78 be 62 bc
       -0.000798295 0.0034172428 0.20367843 -0.013839357
0003b0 72 37 5a 3e bb b8 c1 bc 03 ec 89 bc da 1d 51 3e
       0.21310213 -0.023647657 -0.016836172 0.20421544
0003c0 23 03 f0 3d 02 c2 19 3c 3c 24 70 3c 34 8b 0f bd
       0.11719348 0.009384634 0.014657076 -0.035044864
0003d0 c6 11 f4 bb 5a 7c 04 bb e1 83 16 bb 8e aa fb 3d
       -0.007448408 -0.002021572 -0.002296679 0.1228839
0003e0 d9 f0 75 3b ad 79 00 3e aa d3 e9 3d 9c 2d 8d 38
       0.003752759 0.12546416 0.11417325 6.731899e-05
0003f0 fe 79 8a ba 31 69 a5 bc 52 27 fc 3d 74 85 b8 3b
       -0.0010564921 -0.02019176 0.12312187 0.005631143

a f4 [60]
000000 e5 91 31 be 0e 90 a5 b9 8f b1 b7 bb e9 cf 24 3c
       -0.1734081 -0.00031578582 -0.0056058834 0.010059335
000010 e7 f1 ed 3b fe 77 de 3b a2 f5 8c bb e0 20 41 be
       0.007261503 0.0067892065 -0.0043017427 -0.18860197
000020 5b 1e 77 bc 98 73 3c be b5 77 37 be 74 74 8c 3b
       -0.015082921 -0.1840347 -0.17916758 0.004286343
000030 0d 18 b4 bc a9 5f ba bb e4 f9 33 be 4b a8 cf bc
       -0.021984125 -0.005687673 -0.17575794 -0.025348803
000040 45 d4 81 bc 14 14 0e 3b 6d 1f bb ba f2 80 0a bc
       -0.015848288 0.0021679448 -0.0014276333 -0.0084535945
000050 49 ab 1e be 78 b6 2a be b8 30 1c bc 9c e6 ac bb
       -0.15495028 -0.16671169 -0.0095331 -0.005276514
000060 2d 83 31 3c 14 60 ee 3b f7 98 80 ba dd ec af 3b
       0.010834497 0.007274637 -0.0009811212 0.0053688125
000070 cc ed 33 be 3d b9 8e bb d2 10 41 3b 5c 88 b8 bb
       -0.17571181 -0.004355578 0.0029459489 -0.0056314897
000080 47 10 aa 3b 7c 65 52 3b c4 94 2f be 77 a4 2c be
       0.0051899287 0.0032103946 -0.17146593 -0.16859613
000090 34 2e 20 be 7b be 8b bb a2 a6 0a bb 22 41 2c be
       -0.15642625 -0.0042646504 -0.002115645 -0.16821721
0000a0 f6 d4 be bb 8e b3 67 3c 42 d9 8e bc ad f8 93 3a
       -0.0058237268 0.01414193 -0.017437581 0.0011289321
0000b0 1a 96 2a be a5 e0 aa bb 96 6c 2a be b7 56 2b be
       -0.16658822 -0.005214768 -0.16642985 -0.16732298
0000c0 53 2e 63 3b bd bb 56 3b 5a 28 b4 bb b5 fe c4 bc
       0.0034665063 0.003276571 -0.0054979743 -0.024047235
0000d0 7f 0d 89 3c 27 b1 95 bb df 05 26 be 69 f9 0f 3c
       0.016730068 -0.0045682373 -0.16213177 0.008787491
0000e0 2b e8 2b be 14 89 34 3c 03 cd b5 ba 61 2f 37 be
       -0.16787784 0.01101901 -0.0013870302 -0.17889167

b f4 [60]
000000 30 5f 1b 3e 00 00 00 00 00 00 00 00 d1 34 03 bd
       0.1517303 0.0 0.0 -0.03203279
000010 00 00 00 00 00 00 00 00 00 00 00 00 ff 1f 2c 3e
       0.0 0.0 0.0 0.1680908
000020 00 00 00 00 89 08 25 3e 34 df 1a 3e 6b d3 20 bc
       0.0 0.16116537 0.15124208 -0.009816031
000030 00 00 00 00 ea e9 0d bc d1 1e 20 3e 00 00 00 00
       0.0 -0.0086617265 0.15636756 0.0
000040 00 00 00 00 00 00 00 00 00 00 00 00 5d 8e 10 bc
       0.0 0.0 0.0 -0.008823005
000050 3a 3d 03 3e fc 7f 15 3e 90 c3 01 bd 00 00 00 00
       0.12816325 0.14599603 -0.031680644 0.0
000060 00 00 00 00 00 00 00 00 00 d7 ee bb 00 00 00 00
       0.0 0.0 -0.0072888136 0.0
000070 69 05 1e 3e a4 be f0 bb 00 00 00 00 00 00 00 00
       0.15431751 -0.007346945 0.0 0.0
000080 00 00 00 00 ca 46 42 bc ad 00 1b 3e 72 0b 19 3e
       0.0 -0.011857698 0.15136977 0.14945772
000090 54 76 0b 3e e0 99 27 bc 00 00 00 00 ee 9d 0c 3e
       0.13619357 -0.010229558 0.0 0.1373212
0000a0 5b c4 c4 bb 00 00 00 00 00 00 00 00 00 00 00 00
       -0.0060048527 0.0 0.0 0.0
0000b0 a6 ed 13 3e 9c 0d d2 bb 9e fc 0f 3e 25 36 17 3e
       0.14446124 -0.006410314 0.1406121 0.14766748
0000c0 00 00 00 00 63 6b 29 bc bd c5 c4 bb 00 00 00 00
       0.0 -0.010340544 -0.0060050176 0.0
0000d0 00 00 00 00 00 00 00 00 26 5b 12 3e 00 00 00 00
       0.0 0.0 0.14292583 0.0
0000e0 aa e3 13 3e 00 00 00 00 37 63 fa bb 19 ec 1b 3e
       0.14442316 0.0 -0.007641222 0.15226783

K f4 [8, 60]
000000 cd 21 8f bc 1a 78 23 bd 1d 55 48 3b 03 b0 31 bc
       -0.017472172 -0.03990946 0.003056831 -0.010845187
000010 33 c4 ba bc a4 5f 04 bd 00 60 99 bc fe 04 77 bd
       -0.022798633 -0.032317773 -0.018722534 -0.060307495
000020 11 eb 22 bd e3 ac 02 bd d9 a2 94 3d 47 0b cf ba
       -0.039774958 -0.03190316 0.07257623 -0.0015796208
000030 95 b8 ee bb 29 75 3f 3d f7 03 22 bd e4 f2 43 3d
       -0.0072851875 0.046742592 -0.039554562 0.04783906
000040 19 f0 13 bd 3d 06 39 bd ba 99 11 3d c6 fa 82 3c
       -0.036117647 -0.045171965 0.035546996 0.015988719
000050 a9 5e 11 bc fb b7 d5 bd c2 35 85 3b 44 7e 62 bd
       -0.008872666 -0.10435482 0.0040652463 -0.055296198
000060 b5 3d b8 3b 28 58 64 bd cd a1 4f 3d 83 9f 11 3e
       0.0056225904 -0.055748135 0.050691415 0.14221005
000070 b7 65 81 bd 34 06 82 3d 55 79 4b 3d 3b 0b 08 bc
       -0.06318229 0.063488394 0.049676258 -0.008303459
000080 9e d6 54 bc 96 27 2d bc bf 89 2f bd f2 84 a8 3b
       -0.012990622 -0.01056852 -0.042855974 0.0051428014
000090 94 da 56 3d 89 09 3c bd a3 eb 56 3d f6 ec 6a bc
       0.052454546 -0.04590753 0.052470814 -0.014338722
0000a0 49 ef 76 bc 23 e2 81 3d cd 0f 8a 3d de a4 be 3b
       -0.015071698 0.0634196 0.06741295 0.0058179935
0000b0 0e 9f 69 bc e9 30 18 3e e0 67 35 3d b2 cb 4c bd
       -0.014259113 0.14862408 0.044288516 -0.049998946
0000c0 1a d2 dd bc 05 14 37 bd 0c f6 5e bc d7 84 6b bc
       -0.027077723 -0.044696826 -0.013608467 -0.014374933
0000d0 d8 b4 da bd 2c 45 91 bd 9a 5e 89 3c da 5c 3c bc
       -0.106790245 -0.070932716 0.016768742 -0.011496747
0000e0 ce ef 17 bd c9 9e 0b bd e7 4c cb bc e5 a3 42 bd
       -0.03709393 -0.034086976 -0.024816943 -0.047519583
0000f0 6e 1f 44 bc bb f6 40 bd 4e e8 8f bb 57 bc aa bc
       -0.011970384 -0.0471103 -0.0043917065 -0.02084176
000100 10 ca dc bc d2 b6 4f bc 52 f3 21 3e 25 ab 74 bd
       -0.02695182 -0.012677865 0.15815476 -0.05973353
000110 b2 01 26 bd c2 bb 18 bd 89 f1 1b be de 22 a5 bc
       -0.04052896 -0.037288435 -0.15228857 -0.020158228
000120 1f 1d 12 bc be c9 9e 3e 07 db 34 bd d3 9a a4 3e
       -0.008918076 0.31013292 -0.044154193 0.32149372
000130 33 ce 28 bd f3 b7 52 bc ce 93 9f 3e f0 31 46 3c
       -0.041212272 -0.01286124 0.31167454 0.012096867
000140 77 40 a0 3b 0a 58 10 3d 21 bd 6c 3a e7 40 57 bd
       0.0048904973 0.03524021 0.0009030868 -0.05255213
000150 b8 7d 4f 3c 93 91 65 bd d9 77 a3 3e fb 75 88 3d
       0.012664251 -0.056047034 0.31927374 0.06663128
000160 e0 64 84 bd 1b ed 97 3e 86 ba 9a 3e ab 28 96 ba
       -0.06464553 0.29673085 0.3022043 -0.0011456212
000170 b3 14 84 3b 69 10 5b 3c e9 5d 7d bc 85 76 0b bd
       0.004030788 0.013370612 -0.015464284 -0.034048576
000180 c0 ad 9c 3e 0b 6d c8 bc b0 09 9a 3e 6a 50 5d bb
       0.3060131 -0.024466058 0.30085516 -0.0033769854
000190 05 9a 9e ba d2 52 92 3e b3 4f 24 bd 59 af f5 3b
       -0.0012100345 0.28578812 -0.04011507 0.0074977097
0001a0 98 d2 c9 38 ce fd 37 be 1c d6 a0 3e a7 d6 a7 bc
       9.623653e-05 -0.17967913 0.31413352 -0.020488096
0001b0 49 f8 eb bc ab ce 9f bc 60 cf 4e bb 32 08 aa bc
       -0.028804915 -0.019507727 -0.003155671 -0.020755861
0001c0 dd e6 f1 bd ee c8 7d bd e4 cc 04 3c 98 1f d6 bb
       -0.11811612 -0.0619592 0.00810549 -0.006534528
0001d0 78 84 42 bd 8d 29 a9 bc 29 e4 e3 bb f8 6b dc bc
       -0.047489613 -0.020649696 -0.006954689 -0.026906952
0001e0 82 4a 4a bb 3c e1 e2 bc 60 fa 5a bc 86 5e 80 bb
       -0.0030867164 -0.02769529 -0.013365358 -0.003917518
0001f0 97 66 97 bc 62 62 0f bd 78 d2 27 be 8d 4c 20 bd
       -0.018481536 -0.035005935 -0.16388881 -0.039135505
000200 b7 cb 3f bc 4a a9 08 bd 0f 5d d7 bd 0c 95 fe bb
       -0.011706284 -0.03336457 -0.105157964 -0.0077692326
000210 99 ed a2 bc d0 64 74 3e 38 92 b5 bc 65 8a 7a 3e
       -0.019888686 0.23866582 -0.02216445 0.24466856
000220 46 53 01 bd 55 87 29 bd 6a 5f 7f 3e e3 98 b8 bc
       -0.031573556 -0.04138883 0.24938741 -0.02253384
000230 30 77 fc bb ae 67 3b bd b9 b4 d0 bc 4c 87 80 bd
       -0.007704638 -0.045753174 -0.0254768 -0.06275806
000240 5a f6 8b bc 9b 81 a2 bc 30 67 71 3e eb d3 98 3e
       -0.017085243 -0.019837191 0.23574519 0.2984918
000250 2b 58 33 bd 8c bc 6e 3e 60 d1 7d 3e a0 42 dd bc
       -0.043785255 0.23314112 0.24786901 -0.027009308
000260 9a 50 97 bb 35 a7 39 bc 8f 32 d8 bc 42 9d 0a bc
       -0.0046177628 -0.011331369 -0.026391296 -0.008460345
000270 f3 72 67 3e 10 f6 bb bc 3f 1d 81 3e 25 cf 0b bc
       0.22602443 -0.02294448 0.25217625 -0.008533274
000280 fe 4d 06 bc 03 1e 72 3e b7 9c 9d bd 93 f8 b2 bc
       -0.008197306 0.23644261 -0.076959066 -0.021847045
000290 20 e5 9f bc bf 99 69 3e 7b 69 7f 3e f7 11 9d bc
       -0.019518435 0.22812556 0.24942581 -0.019173605
0002a0 a2 7c 03 bd 3d 02 d7 bc 3d 43 21 bc 7d 33 37 bd
       -0.03210128 -0.026246184 -0.009842691 -0.044726837
0002b0 c3 a7 b5 3c 28 c1 24 bd b6 75 c7 bc 63 e6 ca bb
       0.022174722 -0.04022327 -0.024348121 -0.006192015
0002c0 46 f8 02 bd 31 9f e7 bc 64 ed 74 bc ff 3c 01 bd
       -0.031975053 -0.02827415 -0.014949176 -0.03155231
0002d0 9d e5 23 3c 4a 6d f7 bc e9 f8 34 3c c2 12 25 3a
       0.010003475 -0.03020348 0.011045673 0.00062970456
0002e0 54 77 4b bc 3f eb 9b bc 2e 22 a9 3d 98 e5 c7 bb
       -0.012418587 -0.019033073 0.082584724 -0.0061003678
0002f0 72 6e 80 bc 44 42 d9 3c fe a6 bf bd 8e 8a 0a 3c
       -0.015677664 0.026520856 -0.09358023 0.008455886
000300 4b 57 86 bc 6c 9f ac 3e a6 fe 14 bd 99 2f a1 3e
       -0.016399046 0.3371538 -0.036375664 0.31481627
000310 33 b8 f9 3c 82 01 96 3c 37 6f a6 3e a4 8f 15 3d
       0.03048334 0.018311266 0.32506725 0.03651394
000320 fe 4a 42 bc 62 eb d4 bd bf 1b fc 3c 3e b2 85 3c
       -0.0118587 -0.10396458 0.03077495 0.016320344
000330 cb 36 f5 3c 28 cb 51 bc 09 f7 a3 3e 18 97 a6 3e
       0.029933354 -0.012804784 0.3202441 0.3253715
000340 9f 79 9a 3c 90 d7 a7 3e b3 5d a8 3e 37 23 c5 bb
       0.018856822 0.3278165 0.32883987 -0.006016161
000350 fd cb 18 bc 33 95 20 3c 2f f8 bf 3c 99 e0 55 bc
       -0.009325978 0.009801197 0.023433773 -0.013054037
000360 87 e1 a2 3e a9 1b 96 3c 39 8b a8 3e 19 ae a7 3b
       0.3181269 0.018323736 0.32918718 0.0051171896
000370 2e 77 43 bc 43 d4 a9 3e f3 62 8a 3c 34 37 08 3d
       -0.01193027 0.33169755 0.016892886 0.03325577
000380 57 ba de 3b bb b9 bc bd 91 78 a9 3e a8 9c 06 bd
       0.006797116 -0.09215113 0.33099797 -0.032864243
000390 06 0c de bc 3c 28 26 bd 83 04 6e 3b ae 29 98 bc
       -0.027105343 -0.040565714 0.0036318607 -0.018574562
0003a0 a7 8d ae bd c7 b4 0d bc da 89 9d 3c 2b c0 ac 39
       -0.08523112 -0.008649058 0.019230772 0.00032949573
0003b0 56 27 8f 3c 4d 2b 1c bd 4c 4e 58 bc e7 52 ec bc
       0.017474812 -0.038127232 -0.013202261 -0.028848125
0003c0 3b 5f 0e bc d3 63 22 bd d2 30 16 bc 41 8a 40 bc
       -0.008689697 -0.03964598 -0.009166913 -0.011751712
0003d0 eb 14 41 bb 59 f0 25 bc 62 1c 1a be 58 42 3b bd
       -0.002946193 -0.010128104 -0.1504989 -0.045717567
0003e0 55 83 33 bb d7 d9 e7 bc 8d bc c0 bd 25 46 80 bc
       -0.0027391512 -0.028302116 -0.09410963 -0.015658448
0003f0 7a a9 11 bd 16 30 74 3e e8 f7 22 bd 38 55 7a 3e
       -0.035562016 0.23846468 -0.039787203 0.24446571

a f4 [60]
000000 ad 2d 4b bb f4 54 23 3d cc 75 f6 3a 13 3d 5b 3b
       -0.0031002567 0.03987594 0.0018803417 0.003345315
000010 99 c4 93 3c 86 88 e7 3c d2 db f7 be 6b 33 58 3c
       0.018038081 0.028263342 -0.48409897 0.013195853
000020 fc 31 96 3c be 9f 19 bd 33 60 cc 3d af 8a cb bb
       0.018334381 -0.037505858 0.09979286 -0.0062116007
000030 1e 7a a9 bc 9d 46 51 3e 95 07 17 3d ec 4d 51 3e
       -0.020688113 0.20437093 0.036872465 0.20439881
000040 dc e6 02 bd d7 01 01 bd b2 35 54 3e 36 4e 2b bd
       -0.031958446 -0.031495895 0.20723608 -0.041822635
000050 ae 24 66 3c 0e 0d fd be 8a ee 25 bd 0e 0c 1b 3c
       0.014046831 -0.49424022 -0.04051069 0.009463323
000060 66 b9 63 bd e7 61 6b 3c c5 28 4b 3e c5 e2 2e bf
       -0.05559673 0.014366603 0.19839771 -0.6831477
000070 bf ac ca bb 64 92 47 3e ef 01 45 3e 78 b9 87 3c
       -0.0061851437 0.19489437 0.19239019 0.01656793
000080 f2 07 29 ba 10 be 7c bc 60 18 41 bd 28 45 e9 bb
       -0.00064480223 -0.015426174 -0.047142386 -0.00711884
000090 28 e7 3a 3e ef e0 06 bd d7 87 45 3e 72 dd c1 bb
       0.18252242 -0.032929357 0.192901 -0.005916291
0000a0 99 45 15 bb 14 c9 38 3e d0 33 09 3c b9 00 16 bd
       -0.002277708 0.18045455 0.0083741695 -0.036621783
0000b0 86 9e 19 b7 b8 60 45 3f a3 24 48 3e 0c 0c c6 3c
       -9.15642e-06 0.77100706 0.19545226 0.024175666
0000c0 b8 ff 17 3d 27 6c bf 3a 5c c5 a3 3b 76 f2 04 bc
       0.037109107 0.0014604375 0.0049978923 -0.008114448
0000d0 ac 18 f3 3c 2d b5 0a bb 57 d5 22 bd 06 8a c7 bb
       0.02967485 -0.0021165118 -0.039754238 -0.0060894517
0000e0 8d 97 7f 3c a6 d1 78 3c 17 c2 79 bc a1 7e 7f 3c
       0.015600097 0.015186703 -0.0152440285 0.0155941555

b f4 [60]
000000 8d e4 b1 bb bb 04 02 bd 00 00 00 00 34 3f 5c bc
       -0.0054288567 -0.031742793 0.0 -0.013442803
000010 b7 a2 7a bc a0 39 da bc 29 0b d4 be e7 ba 5d bd
       -0.015297583 -0.026638806 -0.41414765 -0.054133322
000020 37 b6 b4 bc c7 f8 01 bd 35 e7 a7 3c 33 ef 6e bc
       -0.022059543 -0.031731393 0.02049599 -0.014583397
000030 75 0f 2e bd e2 1e cf be 6e 0a 02 bd 11 b3 d3 be
       -0.04249521 -0.4045325 -0.031748228 -0.41347554
000040 b0 92 22 bd 84 31 1d bd 54 d6 c6 be 34 fa 04 bd
       -0.039690673 -0.0383773 -0.38835394 -0.032465175
000050 00 00 00 00 54 16 ce be f9 b2 c2 bc 8f 30 61 bd
       0.0 -0.4025141 -0.023766981 -0.05497795
000060 79 bc 0a bd 4f 48 f2 bc 62 fe c5 be 6c 20 36 3f
       -0.033871148 -0.029575495 -0.3867064 0.7114322
000070 0a 7f 5d bd f5 3b c3 be 48 30 ce be 00 00 00 00
       -0.054076232 -0.3813168 -0.4027121 0.0
000080 00 00 00 00 7a ec 56 bc 94 0b 02 bd 8c ab 9e bc
       0.0 -0.013117904 -0.031749323 -0.01936891
000090 cb 4d c1 be 7b ff 01 bd 4e ff cd be 24 dc 12 bc
       -0.37754664 -0.031737786 -0.40233845 -0.008963618
0000a0 e8 92 2b bb e2 8b be be 8e cd 9f 3c c7 9b fb bc
       -0.0026180092 -0.37216097 0.019507196 -0.030713929
0000b0 00 00 00 00 69 55 90 3e 9b 33 ce be f6 9a b6 bc
       0.0 0.28190163 -0.40273747 -0.022290688
0000c0 61 c4 b6 bc a2 08 ff bc 00 00 00 00 db 30 84 bd
       -0.022310438 -0.031132046 0.0 -0.06454631
0000d0 0e 2f ab bb 48 95 6a bd 76 50 04 bd 87 d3 bc bb
       -0.005224115 -0.057271272 -0.032303296 -0.0057625207
0000e0 a8 14 68 bd 08 19 02 bd c0 23 9d bc 2b b7 cd bc
       -0.056660324 -0.031762153 -0.019182086 -0.025111755

K f4 [8, 60]
000000 c9 80 7f 3b 09 2a 28 3e 0b 4b db 3a e4 df db bc
       0.0038986674 0.16422285 0.0016730739 -0.026840158
000010 79 0d e2 bc 10 31 93 ba dd 95 b7 3a d3 63 8d bc
       -0.027594315 -0.0011229832 0.0014006455 -0.017259514
000020 c7 17 07 bd 85 58 ed bb c8 67 82 bc 80 63 e3 bc
       -0.03298166 -0.0072432184 -0.015918627 -0.027757406
000030 da 55 2d bc fb 7d 66 3a 16 b6 1a 3c 13 fd f8 bb
       -0.010579551 0.0008792576 0.009442827 -0.007598528
000040 64 bb 21 3e 7e 2b dd bc ca 9a 25 bc 7a db 4d ba
       0.1579414 -0.026998278 -0.010107705 -0.0007852834
000050 58 b1 1c 3e ad 8b ac 3d 60 46 d1 3b c0 cf 33 bc
       0.15302026 0.084250785 0.006386563 -0.010974824
000060 f6 ec f1 bc ea 7c 72 bc 28 b9 01 3c 9d ab b2 bc
       -0.029531937 -0.01480029 0.00791768 -0.021810347
000070 d4 fd d7 38 67 c1 63 bc 95 72 1a ba 57 a0 ce 3a
       0.00010299278 -0.013901091 -0.0005891708 0.0015764338
000080 99 2a 33 bc 45 35 20 3e 84 0c 79 bc a6 b0 31 3a
       -0.010935449 0.1564532 -0.015200738 0.0006778337
000090 a1 31 29 3e ad 06 1c bc db 05 ab bb 9c 1b 89 bc
       0.16522838 -0.009523076 -0.005219204 -0.016736798
0000a0 c8 ad a0 bc 87 64 1f 3c ae 1e bf bb a7 dd c2 bc
       -0.019614115 0.009728557 -0.0058325147 -0.023787333
0000b0 33 1e 2a bb 0f 3f 22 3e f2 cb 04 3c 1e 46 22 3e
       -0.0025957942 0.15844367 0.008105265 0.1584706
0000c0 05 e1 1e 3e 1c 20 25 3e d0 31 5c bd 04 3b c7 3a
       0.15515526 0.1612553 -0.053758442 0.0015200083
0000d0 e8 7e 3b bc 74 ec 70 bc 5f b6 17 3e db 86 a4 bb
       -0.011443831 -0.014704812 0.14815663 -0.005020959
0000e0 7c 98 04 bc 34 ca ba 3b a4 4f 10 3d 44 13 cd bc
       -0.008092996 0.005700374 0.0352322 -0.0250336
0000f0 2d 11 0d bc 42 e4 14 3e 01 79 f2 bb 4f 9c b3 3b
       -0.008610052 0.14540198 -0.0073996787 0.00548128
000100 cc 91 2b bd 3b 26 17 39 82 83 97 bb 18 71 dc bb
       -0.04188709 0.00014414724 -0.0046238312 -0.006727349
000110 a4 93 e4 bc 27 a7 cd bc 87 49 cb 3b 14 9a bf 3b
       -0.027902432 -0.025104119 0.0062038335 0.005847225
000120 32 7c 16 bd 04 94 d2 bc 46 c6 1a bc cb 72 d5 bb
       -0.036739536 -0.025705345 -0.009446686 -0.0065139285
000130 10 62 f5 3d d8 d8 29 bd a9 c9 d9 bb de 87 b1 bc
       0.119815946 -0.041466564 -0.006646354 -0.021671232
000140 6d aa f1 3d a6 c5 d3 be 6e 75 12 ba 30 84 39 bc
       0.11800084 -0.4136173 -0.00055869564 -0.01132302
000150 d1 60 b0 bb 46 33 07 3c f0 47 40 bc db d2 6f bc
       -0.005382635 0.008251971 -0.011735901 -0.014637674
000160 52 b4 2e bc a9 b0 9d ba dc 04 4a bc fd bc 90 bc
       -0.010663109 -0.0012030798 -0.01233026 -0.017668242
000170 ea 92 a3 3d fb a3 02 3e 9e b0 b9 39 09 a1 a5 bb
       0.07987006 0.12757866 0.0003541754 -0.0050545973
000180 61 5c 08 3e 8d ab 10 bc 42 d2 17 bc 4a 68 87 3b
       0.1331649 -0.008829963 -0.009266438 0.0041323053
000190 33 e1 11 bd 0a c6 a6 3b 0b 9d a9 bc ef ed e4 bc
       -0.035615157 0.005089526 -0.020704767 -0.027945487
0001a0 27 d0 ca ba 4c 3c 02 3e 7e c2 a5 3b 36 5c 03 3e
       -0.0015473411 0.12718314 0.0050585857 0.12828144
0001b0 51 ba fe 3d 5a 4e 04 3e e5 20 ac bc 99 e4 8c bc
       0.12437881 0.12920514 -0.02101178 -0.017198848
0001c0 5e 55 f5 3a f6 26 94 3a a7 2e 04 3e 4b 5d 42 bc
       0.0018717458 0.0011303115 0.12908421 -0.011863063
0001d0 e1 0f 44 bc 61 93 9b bb 18 b2 3b bd ef 70 11 bd
       -0.011966676 -0.0047477935 -0.04582414 -0.035508092
0001e0 bf 26 07 bc d7 a5 33 3e a5 da 6b bc d7 12 9c b9
       -0.008248984 0.17543732 -0.014395391 -0.00029768675
0001f0 0a 62 a9 bc c0 9c af 3b 92 5e 48 3b 31 71 4d 3c
       -0.020676631 0.005359262 0.0030573946 0.012539194
000200 b9 fa 44 3c 8f 7f 6a 3a fe 6f e0 3b e6 d5 23 bb
       0.012022668 0.00089453993 0.006849288 -0.002499932
000210 36 77 5b bc 4e 37 8b 3b 22 3c 3e bb 16 40 03 3c
       -0.013395121 0.004248536 -0.0029027541 0.008010885
000220 b2 bf 31 3e e3 e5 88 3c 09 06 a6 bb 3f ce 28 bc
       0.17358282 0.016711181 -0.0050666374 -0.010303079
000230 ff dc 2a 3e c8 c5 32 3e 09 4a 9a bc e3 7c 8f bc
       0.16685866 0.1745826 -0.01883413 -0.017515605
000240 95 83 52 bb 40 d1 34 bc 1c 73 36 3c d5 0c 44 3c
       -0.0032121886 -0.011036217 0.011135843 0.01196595
000250 04 60 87 3a 6f f0 3c bc 2d bc bc bb bb d5 d6 bb
       0.0010328298 -0.011531933 -0.005759737 -0.0065562404
000260 0e 3a ce bc de 06 31 3e 8b 18 80 bc 52 f5 fb bb
       -0.025174167 0.17287776 -0.015636703 -0.0076891566
000270 5f 9e 3b 3e 15 07 25 bc a7 f7 07 b8 29 bd fc bb
       0.18322133 -0.010072489 -3.2417152e-05 -0.0077129793
000280 e0 3f 4c bd d2 8f 8d bc d4 94 44 bc 0d d2 20 bd
       -0.049865603 -0.017280493 -0.011998374 -0.03926282
000290 f6 5a ae 39 e6 6c 30 3e 53 14 8f bb ee 58 2e 3e
       0.00033255637 0.17229041 -0.0043664365 0.17026111
0002a0 2b c7 29 3e 7a 04 32 3e b0 e7 09 bd 0f cf b6 3a
       0.16579883 0.1738452 -0.03366822 0.0013947206
0002b0 a4 5a 93 bc 9b 28 d9 ba d0 ca 1f 3e d3 52 25 bc
       -0.017987557 -0.0016567888 0.1560471 -0.010090548
0002c0 b0 02 5d ba 27 bb 4a bc 38 5d f6 bb 4a c5 01 bd
       -0.00084308814 -0.012373722 -0.0075184368 -0.03168229
0002d0 18 0c 86 bc 9a 2d 2d 3e f5 5d 58 bc 44 3a 8b bc
       -0.016363189 0.16911927 -0.013205995 -0.016995557
0002e0 96 c0 c2 bc 6f 67 83 bb 34 b9 a6 bb 52 66 da 3b
       -0.023773473 -0.004010133 -0.005087996 0.0066650296
0002f0 05 0c 85 bc 00 5c 07 3b bc c9 94 bc 80 c8 aa bc
       -0.016241083 0.0020654202 -0.0181626 -0.020847559
000300 ed 96 1b bd 81 6f 81 3a 84 51 05 bc 82 da 80 bc
       -0.03798573 0.000987515 -0.008137111 -0.015729193
000310 d3 fc 28 3e 80 1c d7 bc 04 5d 14 bc 04 0e 5b bb
       0.16502695 -0.026258707 -0.00905538 -0.0033425102
000320 c6 c6 2f 3e a0 83 f9 be 8d fc 83 3a 9d 3d 28 ba
       0.1716567 -0.48733234 0.0010069773 -0.00064178725
000330 eb 7d 20 3b 8d 97 95 bc eb 24 22 bc 12 4f a9 3a
       0.0024489115 -0.018260742 -0.009896497 0.0012917242
000340 c2 c4 ae bb 2d 7f a3 3b 72 6f dd bb 6e 38 d4 bc
       -0.005333514 0.004989526 -0.00675767 -0.025905814
000350 e1 4e bd 3d 1d a0 43 3e 55 00 f3 bb 41 a3 da 3a
       0.092435606 0.19104047 -0.007415811 0.0016680734
000360 70 fd 3b 3e 5e 1a 6f 3b 54 6c 37 3b 5d df 90 bc
       0.18358397 0.0036484222 0.0027988153 -0.017684633
000370 73 f0 dd bc 55 19 8d bc a5 ae 0f bb 86 29 08 bd
       -0.027092194 -0.017223993 -0.0021924165 -0.033242725
000380 a5 a8 1a 3b 9b 11 3a 3e 92 26 14 3b 3b c4 26 3e
       0.0023599055 0.18170778 0.0022605998 0.16285793
000390 49 99 2d 3e 9a cd 1d 3e 97 55 fb bc 24 0d 32 bb
       0.16953005 0.15410462 -0.03068046 -0.0027168477
0003a0 16 f6 00 3b 03 a7 16 3c c4 5e 36 3e 7d 09 00 bb
       0.0019677929 0.009195092 0.17809588 -0.0019536905
0003b0 91 96 11 bc db d4 40 bc de 06 de bc 81 ed b8 bc
       -0.0088859955 -0.011769499 -0.027102884 -0.022574188
0003c0 a1 6a b6 bb 0d 3a 27 3e aa 4c 32 bc b2 db be ba
       -0.0055669104 0.16330738 -0.010882536 -0.0014561324
0003d0 d7 d8 b7 bc 3d 7c 6e bc a2 ee b6 3b 23 05 8c bb
       -0.022442264 -0.014555988 0.0055826465 -0.0042730733
0003e0 c7 26 21 bc 99 80 05 bc b6 ef 96 3c 3d 8e 04 bc
       -0.009835905 -0.008148336 0.01842485 -0.008090553
0003f0 19 26 a3 bc 39 8d 7a 3c 59 52 51 bc 7c f4 56 bc
       -0.019915627 0.015292459 -0.012775981 -0.013119813

a f4 [60]
000000 45 2f 45 bc 52 63 eb bd fe 1b 8f bb 7a 4c 9d 39
       -0.012035196 -0.11493553 -0.0043673506 0.00030002353
000010 a8 6b 06 3d 93 ce cc 3a 4a 2b cb 3c 32 b8 de b8
       0.032817513 0.0015625529 0.024800915 -0.00010620094
000020 04 da f7 bc 39 80 fe b9 cc 9c 1c 3a ab 00 e3 bb
       -0.030255325 -0.0004854219 0.0005974292 -0.00692757
000030 51 36 8a bc 2f c1 4d 3c d0 6d 1f bc c9 5e a7 ba
       -0.016871603 0.012558266 -0.009730771 -0.0012769337
000040 dd 11 c2 bd 83 d2 19 3d 10 66 00 bd 3d b4 1e b9
       -0.094760634 0.037554275 -0.031347334 -0.00015135198
000050 b9 77 ca bd 0e 9c 0c bf 77 0e 08 bc b5 0d b4 ba
       -0.098861165 -0.5492562 -0.00830423 -0.0013736995
000060 69 ea 14 3d e0 dd 11 bc 78 67 28 3c 15 04 07 37
       0.036356363 -0.008902997 0.010278575 8.0475775e-06
000070 f0 30 d2 ba 54 54 b8 3a f4 c4 93 bc 52 f2 56 bc
       -0.0016036313 0.0014063218 -0.01803825 -0.013119297
000080 f8 65 28 3e a7 a9 e6 bd f8 67 2e 3c f0 a2 38 bc
       0.16445148 -0.11262827 0.010644905 -0.011269316
000090 87 73 ed bd 4d e3 b0 3b 10 f6 24 3c 22 38 09 bb
       -0.11594301 0.00539819 0.0100684315 -0.0020937999
0000a0 91 a8 e9 3c 72 c0 24 bb a0 86 84 bb 73 83 95 3c
       0.028522762 -0.002513912 -0.004044369 0.018251156
0000b0 81 20 b6 3c 79 8f d9 bd 1b a4 1c bc cb df d0 bd
       0.022232296 -0.10623068 -0.00956061 -0.10198935
0000c0 4c ed d9 bd 19 7a bf bd ea 70 dc bc 13 89 3a bc
       -0.10640964 -0.0934946 -0.02690931 -0.01138522
0000d0 da a5 13 3a 46 20 09 bc b6 2e c7 bd 7f 64 fa 39
       0.0005632319 -0.008369511 -0.09725706 0.0004775859
0000e0 16 5f aa bc 53 a9 27 bb 16 5d e3 bc 17 e7 ec bc
       -0.020797294 -0.0025583103 -0.027754348 -0.028918786

b f4 [60]
000000 00 00 00 00 0f 5d d4 bc 79 86 f0 bb f3 db 0a bc
       0.0 -0.02592328 -0.007340249 -0.008475292
000010 8b eb ce bc 00 00 00 00 00 00 00 00 58 7f c9 bb
       -0.0252588 0.0 0.0 -0.0061492138
000020 a7 c2 0c bd 00 00 00 00 92 98 fd bb 00 00 00 00
       -0.034365322 0.0 -0.007739135 0.0
000030 a7 5a b4 bc 00 00 00 00 00 00 00 00 00 00 00 00
       -0.022015883 0.0 0.0 0.0
000040 51 eb 1e bd 7c f7 d5 bc 00 00 00 00 fd 55 e3 bb
       -0.038798634 -0.026118986 0.0 -0.006937741
000050 a0 5a 0d bd 9d 45 bf 3d 00 00 00 00 00 00 00 00
       -0.034510255 0.093394496 0.0 0.0
000060 88 b6 e9 bc 00 00 00 00 23 2c 01 bc 00 00 00 00
       -0.02852942 0.0 -0.007884058 0.0
000070 00 00 00 00 00 00 00 00 00 00 00 00 00 00 00 00
       0.0 0.0 0.0 0.0
000080 e8 da 36 bb 9b 3e 88 bc 22 e2 12 bc 00 00 00 00
       -0.0027901474 -0.016631415 -0.008965047 0.0
000090 03 80 1c bd 9d 5c f8 bb cc c9 c4 bb ce c2 04 bc
       -0.03820802 -0.0075793997 -0.0060055014 -0.008103086
0000a0 e5 66 fe bc 00 00 00 00 4b c9 c4 bb e2 13 02 bd
       -0.031054923 0.0 -0.0060054413 -0.031757243
0000b0 00 00 00 00 7f d2 63 bc bf 0b 52 bc 1d 9e 0f bd
       0.0 -0.013905167 -0.012820183 -0.035062898
0000c0 66 4c 08 bd 02 44 85 bd 07 d4 f4 bc 00 00 00 00
       -0.033275984 -0.06507112 -0.029886259 0.0
0000d0 1e f3 54 bc 00 00 00 00 4c 6d ad bc a3 c9 c4 bb
       -0.012997417 0.0 -0.02117028 -0.0060054823
0000e0 d0 64 e7 bb 00 00 00 00 e3 96 c8 bc a2 11 02 bd
       -0.0070615783 0.0 -0.02448601 -0.031755097

K f4 [8, 60]
000000 a4 d6 a0 3b ff 4d 54 3e 2a 99 75 bd b1 d4 a3 3c
       0.0049083997 0.20732878 -0.05996052 0.01999888
000010 42 0c 48 3e 2a 4a db bc e1 8b df bc 83 1a 74 bd
       0.19535926 -0.026768763 -0.02728838 -0.059595596
000020 ac 71 00 bd 00 4d 3d 3b 80 64 7f bc ea cb e7 ba
       -0.031358406 0.0028885007 -0.015587926 -0.0017684672
000030 05 a5 61 bc cb 70 68 bd a1 75 9e bc 3b f0 bb bb
       -0.013772254 -0.056748193 -0.0193432 -0.005735425
000040 58 8f 73 bc 02 1d 64 bc df be 00 bc ee 99 4c bd
       -0.014865719 -0.013922932 -0.007858007 -0.049951486
000050 f0 8b 35 bd 9f 36 52 3c 7f cc b7 3c 56 29 e7 bc
       -0.044322908 0.0128304055 0.022436379 -0.028217953
000060 ff cb 56 bf b2 30 b1 bb 5a 7b 6b 3d bf 15 be 3a
       -0.83905023 -0.0054074163 0.057490684 0.001450233
000070 51 e9 e9 3b 35 5c 01 bc bd 6c 4e bc 64 4a 4b be
       0.007138409 -0.007895519 -0.012599167 -0.19852597
000080 e9 ce 2d bc 5d 7e de bd 31 ef 94 be 13 a3 4b bd
       -0.010608413 -0.10863946 -0.2908874 -0.049716067
000090 45 96 a1 bc f7 ce 0d 3e a1 29 d5 3a ec a0 98 3d
       -0.019724974 0.13848482 0.0016263017 0.074525684
0000a0 02 f3 19 bf e2 69 bc bc 91 a2 59 3c 34 de 87 38
       -0.60136425 -0.022999708 0.013283388 6.47869e-05
0000b0 74 59 d1 bc 90 82 83 bd d6 aa c5 bb 2f 39 a0 bc
       -0.02555535 -0.06421387 -0.006032328 -0.019558517
0000c0 2f e1 fd 3d 6c d7 c6 3e 3f 9b 73 bd 62 38 44 bd
       0.12396466 0.3883623 -0.059474226 -0.047905333
0000d0 0d d9 19 bc bf c7 6a 3b 9c cf 25 bc da 61 b3 3c
       -0.009390128 0.0035824624 -0.010120299 0.021897245
0000e0 fb f3 96 bc bd 23 e2 bc 42 b6 1e bb c4 8e 9a 3e
       -0.018426886 -0.027604932 -0.002421752 0.30187047
0000f0 2b 7b 23 bc d1 4e 1a 3f ba f7 bb 3e b3 e5 e3 3c
       -0.009978096 0.60276514 0.36712438 0.02781949
000100 3b 09 93 3e 3c 2d 66 3b 7e 12 99 3e a5 0a 2f 3f
       0.2871798 0.0035122177 0.2989692 0.6837562
000110 ef 9d 05 bc d7 5c ac 3b cf cb 31 3b bf 63 4f bb
       -0.00815533 0.005260091 0.0027129536 -0.0031645147
000120 81 dc 94 3e 06 e3 1b bd af 81 23 bb c2 7d 8f 3e
       0.2907448 -0.038058303 -0.0024949124 0.28025633
000130 9b 51 a4 3e 51 ed a9 bc be 67 69 bb 5c c2 47 bd
       0.3209351 -0.020743044 -0.0035614814 -0.04876934
000140 9b 92 87 bb 00 65 91 bb 03 96 34 3c 8e 9a 9c 3e
       -0.00413735 -0.004437089 0.011022094 0.30586666
000150 cc 6a 4a bf 85 e1 5d bc 90 cc 90 3b d6 5b fa 3c
       -0.7906921 -0.013542538 0.004418917 0.030561369
000160 b9 5e 36 3c 39 e2 90 bc 79 af 99 3e 67 07 3b be
       0.011130982 -0.017685996 0.30016688 -0.18264543
000170 1e 8a 52 bc 1b 55 02 3d e8 49 4d bc 96 72 fc bc
       -0.0128503125 0.031819444 -0.012529828 -0.030816358
000180 6e 96 8c 3e 28 41 92 3e 8d 38 8b 3e ed a6 9f be
       0.2745852 0.28565335 0.27191582 -0.31182042
000190 c8 f4 3c bf d5 95 8c 3e c3 4b c9 3c b5 90 8a 3e
       -0.73811007 0.27458063 0.024572259 0.27063528
0001a0 68 f8 63 bc f8 8d a9 3e 2e 71 98 3e cf 41 8b 3e
       -0.013914205 0.33116126 0.2977385 0.27198645
0001b0 46 6d 73 3e dc 0c f9 3d 2a cb 68 bd 13 3a 2b bd
       0.23772153 0.12160656 -0.056834377 -0.04180343
0001c0 76 b5 ea 3b 69 23 98 bc 15 fe a0 bb 17 d9 98 3e
       0.007162745 -0.018571572 -0.0049131014 0.29853126
0001d0 c6 48 18 bc 26 a3 d4 bb c0 f6 8e bc ff ca 15 3e
       -0.009294694 -0.0064891754 -0.017451644 0.14628218
0001e0 92 1e 76 bc c0 06 be 3e c4 d6 e1 3d 72 da 34 bd
       -0.015021937 0.37114525 0.110272914 -0.04415364
0001f0 09 00 34 3d bd ac 3d bd 1a e7 eb 3d a9 e2 24 3d
       0.043945346 -0.046307314 0.115186885 0.040255222
000200 ff eb a2 bd fa bc e8 bc 9d 74 1a bd 71 de 62 bc
       -0.07955169 -0.028410424 -0.037708867 -0.0138469795
000210 6a 57 b5 3d 52 9c 7a bd 6a 86 6e bd f0 0e ca 3d
       0.088545635 -0.061184235 -0.058233656 0.0986613
000220 9d 68 d9 3d c3 29 bc bd fe e7 ff bc b5 a2 10 bd
       0.106156565 -0.09187653 -0.031238552 -0.03531142
000230 d5 67 7b bd d7 6e 82 bc 4b b7 ad bc a3 42 bc 3d
       -0.06137832 -0.015921993 -0.021205565 0.091923974
000240 c0 a3 eb 3e 55 96 67 bd 48 06 83 3d c2 34 3a bd
       0.4602337 -0.056539852 0.063976824 -0.04546047
000250 67 56 3d bd e4 1b bc bd d1 f4 0c 3e 4a 15 35 be
       -0.046224978 -0.09185007 0.13765265 -0.17683902
000260 29 0d 3d bc 9c 2d 99 bd 24 5d 22 3d c5 38 b0 bd
       -0.011538782 -0.074794024 0.039639607 -0.08604578
000270 d3 de cc 3d 89 c6 8e 3d b7 26 c6 3d a9 68 56 bf
       0.10003438 0.06971461 0.09675353 -0.8375345
000280 08 6b e4 3e 12 1d c5 3d 33 87 de bc 0a e1 d3 3d
       0.44612908 0.09624685 -0.027164077 0.10345657
000290 0b 23 91 bd 2e 0b ea 3d b0 63 b1 3d 65 bf df 3d
       -0.07086762 0.114279136 0.08661592 0.109251775
0002a0 2f 62 13 bd 63 cf 01 3f 3e c1 85 bd c4 a4 bb bd
       -0.035982307 0.5070707 -0.06530999 -0.09162286
0002b0 42 c3 e9 bc 92 8c 41 bd 6e 32 73 bd 90 3a e1 3d
       -0.028535489 -0.0472532 -0.059374265 0.10997498
0002c0 88 bd 4c bd 4b 32 a2 39 f9 e1 4c bd 05 73 2d bd
       -0.04998544 0.0003093652 -0.05002019 -0.04234602
0002d0 d9 d5 38 ba 69 81 02 3f 8d f9 a0 3e bf a9 c5 3c
       -0.0007050909 0.50978714 0.31440392 0.024128793
0002e0 83 35 d4 be b3 a5 07 bd fb fc 67 3e bf 47 3d 3e
       -0.41447076 -0.033117007 0.22655098 0.184844
0002f0 e3 b6 a2 bc b7 dc 82 3c 1a 8e 25 bb 94 26 b8 bb
       -0.019862598 0.015974386 -0.00252617 -0.0056198332
000300 55 19 6a 3e 31 2a fa bc 70 df 22 bc 72 4c 4f 3e
       0.22861226 -0.030537697 -0.009940967 0.20244005
000310 3a d9 52 3e 3b 5a 10 bd 54 52 07 bc 13 89 4d bd
       0.20590678 -0.0352423 -0.008259375 -0.050179552
000320 45 36 de bc 1e ac c8 3c f1 69 85 3c e0 92 6f 3e
       -0.027125487 0.024496134 0.016285868 0.23395872
000330 82 26 b4 3e 54 af 95 bc 62 39 a1 3c ca 45 2e 3d
       0.3518563 -0.01827208 0.019680683 0.042547025
000340 9a 4c 32 3c e0 be d9 bc 0c f8 7a 3e 70 f1 ea bd
       0.010882521 -0.026580274 0.24508685 -0.11471832
000350 91 4b 78 3c de 46 95 bd 50 07 11 be 59 b7 e3 bc
       0.015154735 -0.072889075 -0.14162946 -0.027797388
000360 fd b0 67 3e f1 42 e2 be c7 4b 2e 3e 2e ff e7 bd
       0.2262611 -0.44191697 0.17021094 -0.113279685
000370 51 65 b2 3e 75 5c 40 3e 3e 6d 9f 3c 34 49 43 3e
       0.34842923 0.1878527 0.01946127 0.19070894
000380 b9 72 c4 bc b3 af 86 3e 5b d6 49 3e d0 26 49 3e
       -0.023980485 0.26305923 0.19710676 0.19643712
000390 c5 12 1b bf f4 e2 a8 3e 28 68 23 bd c4 ca 4d bd
       -0.60575515 0.32985651 -0.039894253 -0.0502422
0003a0 de 25 6a 3b 62 a8 13 3d af df 80 bc e9 e4 22 3e
       0.0035728137 0.036049254 -0.01573166 0.15907635
0003b0 2b 78 33 bb 48 1b ba bc cb b3 06 bc 15 29 69 3d
       -0.0027384858 -0.022718087 -0.008221577 0.056923945
0003c0 12 c7 48 3b 6e ac 14 3f c8 ff cb 3e b5 1a 3d bd
       0.0030636233 0.58075607 0.39843583 -0.046168048
0003d0 ea 18 ac 3d 75 9c b5 bb 07 a8 a2 3e 05 82 d9 3e
       0.084031895 -0.005542333 0.3176882 0.4248201
0003e0 bf ff 96 bd 22 1a 03 bd 25 91 da bc 27 46 53 bc
       -0.073729984 -0.032007344 -0.026680538 -0.012895144
0003f0 77 d6 ac 3e 74 48 82 bb e0 be 69 bd 30 d1 a3 3e
       0.33757374 -0.0039759222 -0.0570668 0.31995535

a f4 [60]
000000 bb 6f 7f 3c 53 9a 76 3e 75 c0 72 3e f4 ab 10 3d
       0.015590603 0.24082308 0.23706229 0.035320237
000010 34 d9 1b bf ba 4a 04 be 48 6d 1b 3e 85 16 30 3f
       -0.608783 -0.12919131 0.15178406 0.6878436
000020 a4 29 fb bd be 0b fc bc 56 6b f6 bc c0 7d 19 3b
       -0.12263802 -0.030767318 -0.030080479 0.00234209
000030 f2 ec 25 3e 6a 0e 3f bd 8e 9d a7 3d c5 93 0e 3e
       0.16203669 -0.046644606 0.08184348 0.13923557
000040 b6 6a 03 3e e6 ef fa bd 76 2a e0 bd 3d 1c 14 bd
       0.12833676 -0.12252788 -0.10945599 -0.036159743
000050 7b 23 01 be 8a 72 b6 3c db 10 26 bd 0c 56 2b 3e
       -0.12611191 0.022271413 -0.04054342 0.16732043
000060 78 38 4c 3e 1b 22 99 3d c9 7a 1e bd 4e 7e 38 be
       0.19943416 0.07477208 -0.038691316 -0.18016931
000070 e5 09 c8 3c 91 4c fa bd 4c b4 31 3e 62 94 3c be
       0.02441878 -0.12221635 0.17353934 -0.18415979
000080 34 e7 be bd d2 99 d8 be d0 e0 24 bf 40 4e 05 be
       -0.09321442 -0.42304856 -0.64405537 -0.13018131
000090 06 98 0f 3e 4c 51 16 bf b3 d2 d4 3d ba 87 5e bf
       0.14022836 -0.587178 0.1039175 -0.8692585
0000a0 ab d4 be 3d 28 da dd 3d a8 93 04 bd 35 ba e1 3d
       0.09317907 0.10832626 -0.03236738 0.11021844
0000b0 df e7 0b be 70 65 4c 3e d6 89 fc 3d f6 1a e9 3d
       -0.1366267 0.1996057 0.123309776 0.113820955
0000c0 8e b5 fa be b3 c5 be be 29 a5 28 be 2a d7 15 be
       -0.4896664 -0.37260208 -0.16469254 -0.1463286
0000d0 d2 cf 71 bd 13 f9 65 3b c4 66 6e 3d a8 b4 98 3d
       -0.059036084 0.0035091087 0.058203474 0.074563324
0000e0 97 26 97 3d c6 03 26 bd b4 9b 1c bc 82 c3 8a 3e
       0.07380407 -0.040530942 -0.009558607 0.27102286

b f4 [60]
000000 00 00 00 00 f8 62 ff be 02 69 17 be 36 53 b0 bc
       0.0 -0.49880195 -0.14786151 -0.021524053
000010 c1 50 63 3d 85 90 e4 bd 95 23 8f bd 1c e7 a2 3d
       0.055496935 -0.111603774 -0.069892086 0.07954237
000020 e9 0e ee bd fc ac 1e bd 4d 7e b5 bc 8f ab f2 bb
       -0.11623938 -0.03873919 -0.022154951 -0.0074057053
000030 0b 19 63 bd a5 1d 50 bd f3 b1 5d bd 9c 31 8c bd
       -0.055443805 -0.05080952 -0.054124784 -0.068454
000040 88 84 d1 bd 9e 0d e5 bd 41 eb c5 bd cc a7 63 bd
       -0.102303565 -0.11184238 -0.09664012 -0.055579945
000050 03 e0 f0 bd 8a 4b 72 bc a2 96 1c bd 5a 74 85 bd
       -0.11761477 -0.014788518 -0.038229592 -0.06516333
000060 5f a9 84 3f db 5a 5d bd 43 97 29 3d 97 c3 cd bd
       1.0364188 -0.054041725 0.04140402 -0.100470714
000070 a6 1a 99 bc 5b aa e7 bd 9f 36 15 be d4 c5 5e be
       -0.018689465 -0.113117896 -0.14571618 -0.21755153
000080 55 7c a9 bd 12 83 d3 be b2 38 29 bf 2f b5 eb bd
       -0.082756676 -0.41310936 -0.66102135 -0.115091674
000090 7c 48 57 bd 28 07 1c 3e 74 76 c1 bd 0b 60 82 3f
       -0.05255936 0.15237105 -0.09446421 1.018556
0000a0 0e 9b 6b 3f dd 63 a2 bd e0 a6 b5 bc 15 22 a3 bd
       0.9203347 -0.07929204 -0.022174299 -0.07965485
0000b0 73 f5 ed bd c8 f6 02 be 60 12 b8 bd 36 c2 d9 bd
       -0.11619081 -0.12789452 -0.0898788 -0.10632746
0000c0 7e 52 ee 3e 1f 60 0b be 9c 47 11 be db a6 0a be
       0.46547312 -0.13610886 -0.14187473 -0.13540213
0000d0 a4 d3 29 bd 4a cc 5c bd 59 0b 52 bd c5 ca f2 bd
       -0.0414616 -0.053905763 -0.051280353 -0.118550815
0000e0 ce 99 5d bd ca fd b2 bd 38 54 5d bd 0b 0e 23 3e
       -0.054101758 -0.08739813 -0.054035395 0.15923326

K f4 [8, 60]
000000 2d a7 c5 3a 7e 62 a1 3c f7 dc a6 bb 42 21 82 be
       0.001507973 0.019700285 -0.005092259 -0.25416
000010 54 f2 53 3c 30 75 8c 3a bd 13 a9 3c 01 fe 42 bc
       0.0129361935 0.0010716077 0.020639295 -0.01190138
000020 8d 73 b1 bc b7 3e 80 bb 48 2a 24 bc 60 fb 1b be
       -0.021661544 -0.003913726 -0.010019846 -0.1523261
000030 1d c1 b6 bc a7 f2 4b 3b 7a c5 37 3c 8e 68 17 3b
       -0.02230888 0.0031119974 0.011216516 0.002310309
000040 9c eb d8 3b 16 44 e2 bc 02 ad 8a 3b e5 e2 d4 bc
       0.0066198837 -0.027620357 0.00423205 -0.025987098
000050 e6 15 ca bc 85 4a 83 3f 6c 88 ae bc 75 47 cc 3e
       -0.024668645 1.0257117 -0.021305285 0.39898267
000060 0c 30 bb bc b5 9c 6e 3c 11 c9 45 3e 9a dd 91 be
       -0.022850059 0.014563729 0.19314982 -0.2848938
000070 9a f9 13 3b d1 56 2e 3b 76 bf 8d 3c 4f b5 f0 bd
       0.0022579194 0.002660204 0.01730321 -0.11753332
000080 bc 8d b1 bc fc 40 93 bb e5 21 db 3d ae 6a 44 bc
       -0.02167403 -0.0044938307 0.10699824 -0.011988325
000090 37 6b 80 bf e5 bd 13 bc 62 e8 31 bc c3 a2 cd bc
       -1.0032719 -0.009017442 -0.010858627 -0.025102025
0000a0 62 11 c4 3e 9f 42 b9 be bf 34 5c 3e 68 9a c0 bc
       0.38294512 -0.3618364 0.21504496 -0.023511127
0000b0 21 ea 07 3e 35 65 25 3d 25 c5 56 bb 60 9a 98 bc
       0.13272907 0.04037972 -0.0032771316 -0.0186283
0000c0 55 79 c1 3e 26 78 c7 bb 61 a0 2e bd 53 c4 bb 3d
       0.37787881 -0.006087321 -0.042633418 0.09168305
0000d0 34 84 05 3c f7 20 a6 3b a8 bf 22 bf 54 15 6c ba
       0.008149195 0.0050698477 -0.63573694 -0.00090058637
0000e0 2b 39 e7 bc bf 8c 24 3c 5d 34 90 3c 76 f9 49 bc
       -0.028225502 0.010043322 0.017603094 -0.0123275425
0000f0 2e df ae 3b f3 27 78 bc 09 76 18 bd f0 e4 25 bf
       0.0053366637 -0.015146243 -0.037221942 -0.64802456
000100 62 71 b6 bb 42 b7 94 3d 5f a9 33 bc 2a a1 a5 3d
       -0.0055677155 0.07261516 -0.010965674 0.0808738
000110 ba 9d ba bc 06 06 5f bc bc 39 95 3d 0b 30 dd 3d
       -0.022780288 -0.013612276 0.072864026 0.10800179
000120 62 38 af 3d f0 80 a9 3d ce 23 cd bd 57 98 73 3a
       0.08555676 0.08276546 -0.10016595 0.0009292415
000130 8e af 89 bc d3 20 91 3d 3b 34 6e bb 77 c7 94 3d
       -0.016807344 0.07086339 -0.003634705 0.072646074
000140 43 b7 b3 bc 30 d6 d3 be 9e 52 7e 3c 8b 9b a1 3e
       -0.021937972 -0.4137435 0.015522627 0.31563982
000150 a7 86 cd bc 1b 61 41 bc cf cb d1 3e 27 95 b0 3d
       -0.025088621 -0.011802937 0.40975806 0.086221986
000160 fc ed b7 3d cb 29 b6 3d 08 de ce bc c2 c3 a2 bd
       0.08980939 0.0889469 -0.025252357 -0.07947494
000170 3f 2e 81 bb 96 bf 98 3d 0f b0 45 3e d6 c0 2d bc
       -0.0039422805 0.07458417 0.19305442 -0.010605058
000180 40 ca bc 3e 19 96 49 3b d3 12 21 3b 1d b0 9f 3d
       0.36873055 0.0030759631 0.002457787 0.07797263
000190 0e 43 2c 3f c5 31 cd be b1 3a 9f 3d a7 55 9b 3d
       0.6728982 -0.40077034 0.07774866 0.07584696
0001a0 ac 75 bf 3e 85 7e 9b 3e e3 93 8f 3a 78 54 1d bc
       0.37394464 0.30369964 0.0010954108 -0.009602658
0001b0 70 c0 fe be 5c 12 89 3c 4a 1b bd bc 6e a9 33 3d
       -0.49756193 0.016732387 -0.023084302 0.043862753
0001c0 bf 17 0c 3c f8 22 b1 3b d2 e9 2e bf 64 8a 31 3c
       0.008550583 0.00540578 -0.6832553 0.010836218
0001d0 d9 ca f4 bc e1 fb a1 3d d9 09 aa bb 1d 1c 2c bb
       -0.029881882 0.0790937 -0.005189162 -0.0026261874
0001e0 90 86 5e bc a8 73 75 bd 87 21 40 bc 7d d7 82 3e
       -0.013581887 -0.05992475 -0.011726744 0.2555503
0001f0 c9 38 1d bd 4d bf a0 3e b4 df 11 bc ef b2 9c 3e
       -0.038384233 0.3139595 -0.008903433 0.30605265
000200 68 3a cb bc fb 49 30 bd 93 1e a1 3e 32 42 87 bc
       -0.024808124 -0.043039303 0.3146864 -0.016511057
000210 ae 08 96 3e 51 5d 9b 3e df 20 16 bd cf 36 25 bc
       0.29303497 0.30344632 -0.036652442 -0.010083868
000220 56 68 17 bd 40 90 96 3e 95 2d bf bc 7d 9f 9f 3e
       -0.036964737 0.2940693 -0.023337165 0.31176367
000230 f6 87 23 bd 2e 33 62 be 9c f6 22 be f3 36 c2 be
       -0.039924584 -0.22089836 -0.15914387 -0.37932548
000240 8d 5f 69 bd c0 86 09 bc 6b 8e 97 bd b8 27 c2 3e
       -0.05697589 -0.008393943 -0.07400211 0.37920928
000250 d0 81 9a 3e d3 61 9f 3e 64 9c 85 bc 57 a5 10 bf
       0.30177164 0.3112932 -0.016309924 -0.5650229
000260 c2 30 35 bd d7 af 9a 3e 3e e5 b4 3d 9b 6a 1b bd
       -0.044235952 0.3021228 0.08832787 -0.037943464
000270 ba 19 e0 3e 83 1d fc 3a fc 76 7d 3b 31 1d 9e 3e
       0.43769628 0.0019234869 0.0038675657 0.30881646
000280 46 39 1e be 81 05 84 3d fa ac 26 3f 09 76 99 3e
       -0.15451536 0.06446362 0.6510769 0.29972866
000290 69 a5 30 bd 3b 27 93 be 0e 59 35 3c 05 fa 01 bd
       -0.043126497 -0.28740868 0.011068596 -0.031732578
0002a0 d4 d9 04 3e 70 da fe bc 67 be 66 bd 65 03 64 3e
       0.1297372 -0.031110018 -0.056333926 0.2226692
0002b0 2e 0c 29 bc c1 ca a9 bd 6f 73 b3 3e 41 c3 36 bd
       -0.010317845 -0.08290625 0.35049006 -0.044619802
0002c0 0e 28 0e bd a2 e7 9f 3e ee 37 2e bc 11 b2 df bc
       -0.034706168 0.3123141 -0.010633452 -0.027306588
0002d0 16 4a a0 3b 41 ce 85 3c 64 0c da bc 6e 36 8c be
       0.004891644 0.016333701 -0.026617236 -0.27385277
0002e0 e5 fc 80 3b 84 18 44 3e c9 d3 84 bc f0 95 37 3e
       0.0039363974 0.19149977 -0.016214268 0.1792829
0002f0 fc e1 2d bc 75 77 55 bb 08 20 21 3e e4 36 aa 3d
       -0.010612961 -0.0032572423 0.15734875 0.08311251
000300 46 86 3e 3e c8 1e 49 3e bf 7d cc bd 82 d2 ce bb
       0.18605909 0.19640648 -0.09984922 -0.0063117156
000310 79 71 a3 bc 19 15 26 3e 4f 54 8d bb 07 1e 18 3e
       -0.019951569 0.16218986 -0.004313029 0.14855205
000320 1b 05 c0 bc d0 67 7c bf 66 bc ee ba 5a 0b 8d 3f
       -0.023439934 -0.98595905 -0.0018214106 1.1019089
000330 9f 65 2c bd d1 61 57 bc 98 3d ca 3e a9 75 a0 be
       -0.0420891 -0.01314588 0.39500117 -0.31339768
000340 cc 58 61 3e 12 a0 48 3e f3 a8 da 3a 44 ac ac bd
       0.2200653 0.19592312 0.0016682431 -0.084312946
000350 a0 d5 2c bc 6e 19 3d 3e cb 54 e3 3e da 94 10 ba
       -0.010548979 0.18466732 0.4440063 -0.00055153447
000360 38 1e c6 3c 36 fe 40 bc 37 cd e0 3b 8f d7 19 3e
       0.024184331 -0.011779359 0.006860401 0.15023635
000370 c6 a8 e4 3e 5a 96 30 3c ac 7b 91 bd 65 93 2d 3e
       0.44660014 0.010778034 -0.07103667 0.16950758
000380 ec a3 1d 3f 44 33 36 3d d6 21 37 bb c2 a5 9e bc
       0.6157825 0.044482484 -0.0027943752 -0.019366149
000390 3c 9a 8d 3e 4a 64 b3 3c 63 06 0e bd 6a 2c 08 be
       0.27656734 0.021898407 -0.03467406 -0.13298193
0003a0 b0 f4 79 bc 5d 94 45 bb 70 4e a8 bd 3b e8 37 3b
       -0.015256092 -0.0030148246 -0.08218086 0.0028062004
0003b0 70 bc cb bc 31 0e 54 3e d4 db 40 3b d2 8e 11 bd
       -0.024870127 0.20708539 0.0029427903 -0.035536595
0003c0 e2 39 f8 bb 35 72 41 bd cd 54 dd bc 4b 4a af 3e
       -0.0075752595 -0.047228057 -0.027017975 0.3423637
0003d0 20 63 ed bc 24 44 c6 3e a9 f2 af bb d6 04 c5 3e
       -0.02897793 0.38723862 -0.0053695035 0.38480252
0003e0 fe b4 47 bd 42 d5 45 3b e2 fb ce 3e 47 6d 9f be
       -0.048756592 0.0030186926 0.40426546 -0.3113806
0003f0 20 7b c5 3e 96 96 c4 3e 40 fa 52 bd 4b 4a b5 bb
       0.385705 0.38396138 -0.05150819 -0.005532538
