learner_tingwei/model/testcase_1_distsquare_eps_0.0004_l_0.004_auglag_lbfgsiters_100addloss_0_adddim_0__seed_1/model36000.pkl (torch, 24480 bytes, 22 tensors)

Qincpt f4 [1, 1, 8]
000000 6f 29 73 3f a4 ed 63 3f 79 ed 77 3f 6e e8 60 3f
       0.949851 0.89034486 0.9684673 0.8785466
000010 30 83 6d 3f 42 b1 64 3f 07 34 5a 3f ee 1f 63 3f
       0.927783 0.89332974 0.8523564 0.88720596

Qslope f4 [1, 1, 8]
000000 95 b0 61 3f 7a df 74 3f db 3d 55 3f fe 5a 64 3f
       0.8816007 0.956535 0.8329751 0.89201343
000010 8e cc 58 3f 89 9f 60 3f fc b8 75 3f 3c 4a 70 3f
       0.84687126 0.8774343 0.9598539 0.9386327

Pincpt f4 [1, 1, 8]
000000 8f 31 9a 3f 77 ab 82 3f d3 60 8f 3f ef 3b 84 3f
       1.2046374 1.0208577 1.1201423 1.033079
000010 b7 1f 84 3f bc f9 8a 3f b9 33 7a 3f 49 08 7f 3f
       1.0322179 1.0857463 0.9773517 0.9962202

K f4 [8, 60]
000000 da d5 cb 3d 01 d6 f5 bb e5 4b d6 bb 58 d9 83 bc
       0.09952898 -0.007502318 -0.006539809 -0.016094849
000010 87 4a 83 ba 78 9e c7 bb a0 86 20 bc 9a 41 cb 3d
       -0.0010016718 -0.006091889 -0.009797722 0.09924622
000020 05 5b e9 bb 35 41 f4 3d 46 f7 db 3d 95 03 51 bc
       -0.007121446 0.119265 0.10740523 -0.012757202
000030 cd aa 11 bb 91 d4 08 3c ce 2f f1 3d 1c 3c 99 3b
       -0.002222705 0.008351461 0.11776696 0.004676355
000040 44 62 e4 bb dd 2d 3e bc de 39 e5 3b 5b 78 02 3b
       -0.006969722 -0.011607614 0.0069954237 0.0019908163
000050 0d 4f ea 3d 14 bb f1 3d 0f 39 d9 bb f6 44 04 3c
       0.11440859 0.118032604 -0.0066291164 0.008073082
000060 d7 7f 34 3c 57 9a e6 ba 86 03 f7 bc d8 fc 6c bc
       0.0110168075 -0.0017593604 -0.030153047 -0.0144645795
000070 2d fd ed 3d f2 55 62 bc 76 c1 02 bc 6b 85 ac ba
       0.11620555 -0.013814436 -0.007980695 -0.001316232
000080 bc f4 99 3c 44 33 49 bc 84 52 ef 3d 0f d3 dc 3d
       0.018793456 -0.012280289 0.116856605 0.10782444
000090 47 67 ee 3d b4 37 1e bc d3 7b c8 3a 3f 8e dc 3d
       0.11640792 -0.009656835 0.0015295692 0.10769319
0000a0 38 28 e9 bb d3 d8 3f 3b 0b e4 ce ba 72 ed 96 b9
       -0.00711539 0.0029273524 -0.0015784515 -0.0002878714
0000b0 c7 03 0e 3e e4 e8 89 bc 02 81 04 3e 5a 9c dc 3d
       0.13868628 -0.016834684 0.12939838 0.10772009
0000c0 a0 f1 17 bc df b7 96 bb c0 0f af bb 95 35 8f bb
       -0.0092739165 -0.004599556 -0.0053424537 -0.004370401
0000d0 95 e3 f9 3b 9f ac 90 3b de 1f 02 3e d4 19 a5 3c
       0.007626007 0.0044151093 0.12707469 0.020153917
0000e0 62 0c ef 3d 9d c9 19 3c 7f 95 1b bc 2b 2f dd 3d
       0.11672284 0.009386447 -0.009496092 0.10800012
0000f0 a8 6b 30 3e 25 79 0e bc ad 71 08 bd 12 10 f5 bb
       0.17228568 -0.008695875 -0.033311535 -0.0074787224
000100 46 b5 85 b9 98 a9 27 bc ae 5b c3 bb 89 d2 16 3e
       -0.00025502796 -0.010233305 -0.005961857 0.1472875
000110 e0 05 0a bb 1e 74 20 3e 7c 3a 31 3e 68 14 26 bc
       -0.002106063 0.15669295 0.17307466 -0.010136701
000120 2a ac e6 bb 5d f0 29 bc b9 27 16 3e 60 31 08 bc
       -0.0070395665 -0.0103722485 0.1466359 -0.008312553
000130 54 11 97 bb 1e 87 b7 bb 56 9f 81 3b b0 ef 20 bc
       -0.00461022 -0.005600824 0.003955762 -0.009822771
000140 25 36 12 3e 2f 61 21 3e 4e 4b d6 bb ea c2 ef 3b
       0.14278467 0.15759729 -0.0065397387 0.0073169367
000150 82 02 6b bc 3e 1b a4 bb 97 f9 c3 bb c9 b4 d1 ba
       -0.01434386 -0.0050081303 -0.005980681 -0.0015999313
000160 91 c4 22 3e bc 5b 4f bc 14 97 2a bc 06 f3 ef 3b
       0.15895297 -0.0126561485 -0.010411996 0.007322672
000170 8e c2 2b bc ad 3f 85 bc 40 54 23 3e 8b 71 34 3e
       -0.010483397 -0.016265715 0.15950108 0.17621438
000180 76 4e 26 3e fe 2d ea 3a e9 c7 05 3c 75 20 16 3e
       0.16240868 0.001786649 0.008165338 0.14660819
000190 a1 8d 00 3c 30 57 05 bc 61 f9 17 bc 19 2f 36 3c
       0.007846267 -0.008138463 -0.009275765 0.011119627
0001a0 55 b7 2c 3e 45 6d db b9 26 8c 1d 3e 97 23 1e 3e
       0.1686681 -0.00041852347 0.15385494 0.15443264
0001b0 e4 33 ac bc 20 20 85 bc b0 4a aa bc 00 b3 39 bc
       -0.021020837 -0.01625067 -0.020787567 -0.011334181
0001c0 ab 29 0f 3c f8 95 b7 bb 7d 76 2c 3e 12 d4 05 3c
       0.008737962 -0.0056025945 0.16842075 0.008168237
0001d0 6a 45 22 3e 86 f4 47 3b 75 5f 15 bb 22 c1 1b 3e
       0.15846792 0.0030510738 -0.0022792493 0.15210393
0001e0 7c ce ba 3d f7 ef 18 bb f9 43 0d b9 57 6c 98 3c
       0.09121415 -0.002333639 -0.0001347213 0.018606348
0001f0 22 3c a2 bc 04 57 93 3c 4d 72 85 3a e4 78 90 3d
       -0.019804064 0.017985828 0.0010181159 0.07054308
000200 79 6d e9 3b 7a d3 32 3d 46 0c 85 3d 7a d8 00 3b
       0.007123646 0.04365871 0.064964816 0.001966028
000210 87 92 46 bb ff 13 d5 bc 1f 2f 92 3d 44 c9 03 bc
       -0.003029974 -0.026010511 0.07137894 -0.008043591
000220 76 fb 83 bc 91 52 99 bc 29 f5 b1 3b bd 7d d8 3b
       -0.016111117 -0.018716129 0.0054308367 0.006606786
000230 43 f5 a1 3d 7f 55 8f 3d f5 5a 8c 3c a4 fc 92 bc
       0.07908108 0.06998729 0.017133215 -0.017942734
000240 90 5b 5f bc 38 17 21 bc 56 77 f7 3b 07 54 d2 3b
       -0.01363267 -0.009832196 0.0075520677 0.0064187082
000250 35 5d 8a 3d e4 38 41 bc 4e ac b4 3b 70 85 7d bc
       0.06756059 -0.011793349 0.0055137044 -0.0154737085
000260 6b c6 a9 3b f4 0f 29 bc 1d 31 8b 3d 0a d0 9b 3d
       0.005181124 -0.010318745 0.06796477 0.0760804
000270 90 c2 a4 3d f1 1e 0d 3c 8e 76 e7 bb 47 bf b5 3d
       0.08044922 0.008613334 -0.0070636934 0.08874374
000280 2d d7 ef ba 3b 68 0b bb 60 9e 09 bc a7 a1 89 bb
       -0.001829838 -0.0021271843 -0.008399576 -0.0042001787
000290 e2 0d 5f 3d 67 aa 84 bc 21 49 90 3d 7f 86 97 3d
       0.0544566 -0.016194535 0.07045198 0.073987
0002a0 4a e2 4a 3b e6 c5 ad 3b 9a 26 c6 3b b4 bb 94 bc
       0.0030957633 0.0053031323 0.006047082 -0.01815591
0002b0 d0 34 84 bb 74 25 1d bc 0a a2 76 3d 77 bc 4e ba
       -0.004034616 -0.009591449 0.060213126 -0.000788636
0002c0 b4 15 92 3d 0e fd 3e 3c 2c d4 14 bb 24 ba a4 3d
       0.07133046 0.011657013 -0.0022709472 0.08043316
0002d0 dd cc 1e 3e 67 7e b9 3a 80 83 d6 ba c6 c3 6a bb
       0.15507837 0.0014152051 -0.0016366094 -0.0035822256
0002e0 d0 16 8d 3c 89 f3 46 bb 70 8c 1c 3b b2 04 37 3e
       0.017222792 -0.003035756 0.0023887418 0.17872885
0002f0 cc 4c 87 3a e6 94 33 3e 04 6f 24 3e ba e9 3b ba
       0.001032257 0.17537269 0.16057974 -0.0007168312
000300 92 4a ba bb 13 d3 49 b8 54 81 3a 3e d1 12 00 bb
       -0.005685159 -4.8118713e-05 0.18213397 -0.0019542465
000310 3b ba a8 3b 69 58 97 bc 86 f0 ee bc 14 e7 b9 bb
       0.0051491535 -0.018474774 -0.029167425 -0.0056732986
000320 b2 ff 19 3e a4 4a 31 3e 07 97 10 bc 8f 43 ae 3b
       0.15038946 0.1731363 -0.00882507 0.005318112
000330 9b 42 7d bc c4 25 e3 ba c7 e8 98 b9 18 95 15 3a
       -0.0154577745 -0.0017329981 -0.00029165132 0.00057061156
000340 5a 49 31 3e c3 7f 40 3b d8 96 aa bb c0 f7 5d 3c
       0.17313138 0.0029373027 -0.0052059703 0.013547838
000350 dc 22 1a 3b 64 10 f9 3b 99 0c 3b 3e 58 6a 35 3e
       0.0023519313 0.007600831 0.18266524 0.17716348
000360 97 7c 1d 3e f7 7d 21 3b ad 4c 46 3c 60 71 22 3e
       0.15379559 0.0024641731 0.012103242 0.15863562
000370 e1 50 7a bb 62 30 bc bb 41 bc 6e 3c a1 13 91 3c
       -0.003819518 -0.0057430724 0.01457125 0.017709555
000380 4a b5 37 3e 6d ff 2f bc f1 e0 23 3e 7c 05 19 3e
       0.1794025 -0.010742051 0.16003777 0.14943498
000390 aa 50 4c 3c 2a 76 34 3b 2e 59 09 bb 23 c3 7d 3b
       0.012470404 0.0027536252 -0.0020957696 0.0038721047
0003a0 ac 44 51 ba d2 f3 5f 3b c8 bd 30 3e 78 be 62 bc
       -0.000798295 0.0034172428 0.17259896 -0.013839357
0003b0 86 a3 39 3e bb b8 c1 bc 03 ec 89 bc e8 35 2b 3e
       0.18128785 -0.023647657 -0.016836172 0.16719782
0003c0 eb cc 1b 3e 02 c2 19 3c 3c 24 70 3c 74 58 b6 bb
       0.15214889 0.009384634 0.014657076 -0.0055647437
0003d0 c6 11 f4 bb 5a 7c 04 bb e1 83 16 bb e1 0c 1c 3e
       -0.007448408 -0.002021572 -0.002296679 0.15239288
0003e0 d9 f0 75 3b 9e 03 1e 3e d9 f9 16 3e 9c 2d 8d 38
       0.003752759 0.15431067 0.14743747 6.731899e-05
0003f0 fe 79 8a ba 31 69 a5 bc 4e b8 1e 3e 74 85 b8 3b
       -0.0010564921 -0.02019176 0.15499994 0.005631143

a f4 [60]
000000 45 8c 14 be 0e 90 a5 b9 8f b1 b7 bb 53 cd d6 bb
       -0.14506634 -0.00031578582 -0.0056058834 -0.0065552383
000010 e7 f1 ed 3b fe 77 de 3b a2 f5 8c bb a9 68 16 be
       0.007261503 0.0067892065 -0.0043017427 -0.14688362
000020 5b 1e 77 bc 8d ed 19 be bb e8 1c be 74 74 8c 3b
       -0.015082921 -0.15032025 -0.15323155 0.004286343
000030 0d 18 b4 bc a9 5f ba bb bc 9d 13 be 4b a8 cf bc
       -0.021984125 -0.005687673 -0.1441564 -0.025348803
000040 45 d4 81 bc 14 14 0e 3b 6d 1f bb ba 23 de 69 3c
       -0.015848288 0.0021679448 -0.0014276333 0.014274153
000050 e7 02 0b be 1b 0d 14 be 18 75 a8 3a 9c e6 ac bb
       -0.13575326 -0.14458124 0.001285228 -0.005276514
000060 2d 83 31 3c 14 60 ee 3b f7 98 80 ba dd ec af 3b
       0.010834497 0.007274637 -0.0009811212 0.0053688125
000070 4c 77 15 be 3d b9 8e bb d2 10 41 3b 5c 88 b8 bb
       -0.1459629 -0.004355578 0.0029459489 -0.0056314897
000080 47 10 aa 3b 7c 65 52 3b 8b 80 13 be b3 7a 12 be
       0.0051899287 0.0032103946 -0.14404504 -0.14304619
000090 a6 be 0e be 7b be 8b bb a2 a6 0a bb b8 ee 16 be
       -0.13939914 -0.0042646504 -0.002115645 -0.14739501
0000a0 f6 d4 be bb 8e b3 67 3c 42 d9 8e bc ad f8 93 3a
       -0.0058237268 0.01414193 -0.017437581 0.0011289321
0000b0 f4 ec 13 be a5 e0 aa bb b8 96 13 be a2 ad 0e be
       -0.14445859 -0.005214768 -0.14412963 -0.13933423
0000c0 53 2e 63 3b bd bb 56 3b 5a 28 b4 bb b5 fe c4 bc
       0.0034665063 0.003276571 -0.0054979743 -0.024047235
0000d0 7f 0d 89 3c 27 b1 95 bb 04 86 10 be 69 f9 0f 3c
       0.016730068 -0.0045682373 -0.14113623 0.008787491
0000e0 ef 73 16 be 14 89 34 3c 03 cd b5 ba 29 b5 19 be
       -0.14692663 0.01101901 -0.0013870302 -0.15010513

b f4 [60]
000000 fc e7 09 3e 00 00 00 00 00 00 00 00 00 00 00 00
       0.13467401 0.0 0.0 0.0
000010 00 00 00 00 00 00 00 00 00 00 00 00 05 fa 0b 3e
       0.0 0.0 0.0 0.13669594
000020 00 00 00 00 b9 0f 0c 3e c0 ce 09 3e 6b d3 20 bc
       0.0 0.13677873 0.13457775 -0.009816031
000030 00 00 00 00 ea e9 0d bc 0b f3 0a 3e 00 00 00 00
       0.0 -0.0086617265 0.13569276 0.0
000040 00 00 00 00 00 00 00 00 00 00 00 00 00 00 00 00
       0.0 0.0 0.0 0.0
000050 16 05 fa 3d 0c 22 0a 3e 00 00 00 00 00 00 00 00
       0.12208001 0.1348955 0.0 0.0
000060 00 00 00 00 00 00 00 00 00 d7 ee bb 00 00 00 00
       0.0 0.0 -0.0072888136 0.0
000070 b3 4b 0a 3e a4 be f0 bb 00 00 00 00 00 00 00 00
       0.1350544 -0.007346945 0.0 0.0
000080 00 00 00 00 ca 46 42 bc d8 86 0a 3e 22 77 0a 3e
       0.0 -0.011857698 0.13528001 0.13522008
000090 92 68 06 3e e0 99 27 bc 00 00 00 00 a3 49 03 3e
       0.13125828 -0.010229558 0.0 0.12821059
0000a0 5b c4 c4 bb 00 00 00 00 00 00 00 00 00 00 00 00
       -0.0060048527 0.0 0.0 0.0
0000b0 c9 86 08 3e 9c 0d d2 bb e8 c6 04 3e 6b 8e 06 3e
       0.13332666 -0.006410314 0.12966502 0.13140266
0000c0 00 00 00 00 63 6b 29 bc bd c5 c4 bb 00 00 00 00
       0.0 -0.010340544 -0.0060050176 0.0
0000d0 00 00 00 00 00 00 00 00 d7 6a 08 3e 00 00 00 00
       0.0 0.0 0.13322006 0.0
0000e0 14 82 09 3e 00 00 00 00 37 63 fa bb c2 11 09 3e
       0.13428527 0.0 -0.007641222 0.1338568

K f4 [8, 60]
000000 cd 21 8f bc 2b 60 06 bc 1d 55 48 3b 03 b0 31 bc
       -0.017472172 -0.008201639 0.003056831 -0.010845187
000010 33 c4 ba bc 9a bd 11 bc 8b 48 96 3c 8c ec e9 bc
       -0.022798633 -0.008895302 0.018345138 -0.028555177
000020 11 eb 22 bd 17 79 5b b9 27 c8 86 3a 15 ce c9 3b
       -0.039774958 -0.00020930577 0.0010283039 0.0061586
000030 a1 ca a3 bb 53 79 6d 3e fa 08 00 bc 9c a1 6e 3e
       -0.0049985205 0.23190813 -0.00781464 0.23303837
000040 3c 3e a0 bb 69 a4 6f bc 2b cc 5f 3e c6 fa 82 3c
       -0.0048902314 -0.014626601 0.21855228 0.015988719
000050 a9 5e 11 bc 15 36 bf 3c c2 35 85 3b 28 c9 c0 bc
       -0.008872666 0.023341218 0.0040652463 -0.023533419
000060 b5 3d b8 3b a9 a7 64 bb be 67 6d 3e 87 10 06 3e
       0.0056225904 -0.0034889972 0.23184106 0.13092242
000070 60 b8 00 bd bf 3b 72 3e 26 c5 73 3e 3b 0b 08 bc
       -0.031425834 0.23655604 0.23805675 -0.008303459
000080 9e d6 54 bc 96 27 2d bc cb 22 36 bc f2 84 a8 3b
       -0.012990622 -0.01056852 -0.011116694 0.0051428014
000090 6f db 6e 3e 38 76 68 bc 4a e0 73 3e f6 ec 6a bc
       0.23325895 -0.014188342 0.23816028 -0.014338722
0000a0 49 ef 76 bc 08 1e 7a 3e 99 13 ed bc de a4 be 3b
       -0.015071698 0.24425519 -0.028940009 0.0058179935
0000b0 0e 9f 69 bc 20 7a 5c 3b ca 8e 6a 3e b2 cb 4c bd
       -0.014259113 0.0033642128 0.22906032 -0.049998946
0000c0 1a d2 dd bc 05 14 37 bd 0c f6 5e bc 93 72 8e 3c
       -0.027077723 -0.044696826 -0.013608467 0.017388618
0000d0 16 9d 59 bd e4 62 05 bc 9a 5e 89 3c da 5c 3c bc
       -0.053128324 -0.008141253 0.016768742 -0.011496747
0000e0 97 cf ae bb 2a 75 18 bb e7 4c cb bc e5 a3 42 bd
       -0.005334805 -0.0023263195 -0.024816943 -0.047519583
0000f0 6e 1f 44 bc 75 96 7d bc 4e e8 8f bb 57 bc aa bc
       -0.011970384 -0.015477766 -0.0043917065 -0.02084176
000100 10 ca dc bc 59 a7 08 3c 5a 3f 92 3c 34 36 e5 bc
       -0.02695182 0.00834068 0.017852474 -0.027979948
000110 b2 01 26 bd cf 89 b8 bb 09 9b ff bb 3d d4 80 bc
       -0.04052896 -0.0056316624 -0.007800464 -0.015726203
000120 97 08 ff 3b 8b fe 9e 3e 3d f5 4b bc 3a 1a a5 3e
       0.0077830064 0.31053576 -0.012448606 0.32246572
000130 b7 ac 27 bc 8e b7 8b 3c 52 ac a1 3e f0 31 46 3c
       -0.0102340495 0.0170553 0.31576782 0.012096867
000140 77 40 a0 3b 3d a4 b2 3b 21 bd 6c 3a f1 55 aa bc
       0.0048904973 0.0054517076 0.0009030868 -0.020792933
000150 b8 7d 4f 3c 56 2b 99 bb 8a ba a3 3e d9 f1 a4 3d
       0.012664251 -0.0046743555 0.31978256 0.08053941
000160 2f bc 06 bd 10 f6 99 3e 8d b9 9d 3e ab 28 96 ba
       -0.03289431 0.30070543 0.30805627 -0.0011456212
000170 b3 14 84 3b 69 10 5b 3c cb 0b 85 3c 85 76 0b bd
       0.004030788 0.013370612 0.016240975 -0.034048576
000180 08 df 9e 3e a6 84 eb 3b 92 73 9b 3e 6a 50 5d bb
       0.31029534 0.007187444 0.3036161 -0.0033769854
000190 05 9a 9e ba b8 09 96 3e 59 a9 99 bc 59 af f5 3b
       -0.0012100345 0.2930429 -0.018757509 0.0074977097
0001a0 98 d2 c9 38 7d 10 2b bb 51 4f a2 3e a7 d6 a7 bc
       9.623653e-05 -0.0026102357 0.3170114 -0.020488096
0001b0 49 f8 eb bc ab ce 9f bc 60 cf 4e bb 5c 5b 34 3c
       -0.028804915 -0.019507727 -0.003155671 0.01100811
0001c0 a4 02 97 bd 53 4d 32 bb e4 cc 04 3c 98 1f d6 bb
       -0.073735505 -0.0027206733 0.00810549 -0.006534528
0001d0 60 ff 80 bc d7 ef 35 3c 29 e4 e3 bb f8 6b dc bc
       -0.015746772 0.011104546 -0.006954689 -0.026906952
0001e0 82 4a 4a bb 94 2b 84 3b 60 fa 5a bc 86 5e 80 bb
       -0.0030867164 0.004033515 -0.013365358 -0.003917518
0001f0 97 66 97 bc af f1 f5 bb 3d ce 22 bc 39 9a f1 bb
       -0.018481536 -0.0075056176 -0.009936866 -0.007373121
000200 b7 cb 3f bc e7 dc d5 ba 93 77 03 bb d6 8b 07 3c
       -0.011706284 -0.0016316444 -0.0020060285 0.008273086
000210 ad ca 1e bb 67 63 25 3e 52 05 1d 3c c4 cb 2b 3e
       -0.002422969 0.161512 0.009583788 0.16776949
000220 2e d7 d9 b8 95 65 26 bc dc 25 35 3e e3 98 b8 bc
       -0.00010387447 -0.010156055 0.17690223 -0.02253384
000230 30 77 fc bb c8 42 ae bc b9 b4 d0 bc ba e5 fd bc
       -0.007704638 -0.021272078 -0.0254768 -0.030993331
000240 5a f6 8b bc 25 9b a5 3b 95 93 20 3e 3d 98 aa 3e
       -0.017085243 0.005053895 0.15681298 0.33319274
000250 1b fc 44 bc 8c 88 28 3e 1c cf 2c 3e a0 42 dd bc
       -0.012022997 0.16458338 0.16875881 -0.027009308
000260 9a 50 97 bb 35 a7 39 bc be 93 af 3b 42 9d 0a bc
       -0.0046177628 -0.011331369 0.0053581884 -0.008460345
000270 6c eb 1f 3e 49 0f 10 3c 15 2a 3a 3e 25 cf 0b bc
       0.1561715 0.008792707 0.18180116 -0.008533274
000280 fe 4d 06 bc 39 cb 27 3e de e4 15 bd 93 f8 b2 bc
       -0.008197306 0.16386117 -0.036595218 -0.021847045
000290 20 e5 9f bc 49 fc d4 bb 93 6e 32 3e f7 11 9d bc
       -0.019518435 -0.0064998013 0.17424993 -0.019173605
0002a0 a2 7c 03 bd 3d 02 d7 bc 3d 43 21 bc a4 65 54 bc
       -0.03210128 -0.026246184 -0.009842691 -0.012963686
0002b0 f6 4e 97 3d 09 cd 36 3c b6 75 c7 bc 63 e6 ca bb
       0.073881075 0.011157283 -0.024348121 -0.006192015
0002c0 d9 26 5f b9 05 8a 64 3b 64 ed 74 bc ff 3c 01 bd
       -0.00021281409 0.0034872305 -0.014949176 -0.03155231
0002d0 9d e5 23 3c 3f f0 8c 3a e9 f8 34 3c c2 12 25 3a
       0.010003475 0.0010752751 0.011045673 0.00062970456
0002e0 54 77 4b bc 1b 15 9f 3b e0 d6 40 3c 9c 05 1b bd
       -0.012418587 0.004854811 0.01176998 -0.037847146
0002f0 72 6e 80 bc de b8 a4 bb dd 45 72 bc 6a e5 b8 bb
       -0.015677664 -0.0050269207 -0.0147871645 -0.0056425827
000300 65 05 52 3c 59 8f 94 3e d4 8f 9e bb 57 be 89 3e
       0.012818669 0.29015616 -0.004838923 0.2690303
000310 05 49 82 3b 59 64 2e bc 95 38 90 3e a4 8f 15 3d
       0.0039759898 -0.010644042 0.2816817 0.03651394
000320 fe 4a 42 bc 36 b2 a3 3c bf 1b fc 3c e0 01 7d bc
       -0.0118587 0.019982439 0.03077495 -0.015442342
000330 cb 36 f5 3c a6 e6 af 3b 65 c7 8c 3e 3d 24 98 3e
       0.029933354 0.0053680716 0.27495876 0.29715148
000340 a4 43 53 bc 0f d6 92 3e 26 98 91 3e 37 23 c5 bb
       -0.012894545 0.2867894 0.28436393 -0.006016161
000350 fd cb 18 bc 33 95 20 3c 70 78 0a 3b 99 e0 55 bc
       -0.009325978 0.009801197 0.0021128915 -0.013054037
000360 ed 8e 8e 3e 93 d9 4f bc fd a0 90 3e 19 ae a7 3b
       0.2784342 -0.012686151 0.28247824 0.0051171896
000370 2e 77 43 bc 82 83 93 3e 5b dc c9 bc 34 37 08 3d
       -0.01193027 0.2881127 -0.024641206 0.03325577
000380 57 ba de 3b 39 03 ad bb ec b4 92 3e a8 9c 06 bd
       0.006797116 -0.005279925 0.28653657 -0.032864243
000390 06 0c de bc 3c 28 26 bd 83 04 6e 3b c4 12 58 3c
       -0.027105343 -0.040565714 0.0036318607 0.013188068
0003a0 0f 94 7a bc 91 b8 95 bc da 89 9d 3c 2b c0 ac 39
       -0.015294089 -0.018276485 0.019230772 0.00032949573
0003b0 b7 db 69 bc a5 ed d0 bb 4c 4e 58 bc e7 52 ec bc
       -0.0142735755 -0.0063759857 -0.013202261 -0.028848125
0003c0 3b 5f 0e bc d4 71 05 bc d2 30 16 bc 41 8a 40 bc
       -0.008689697 -0.0081448145 -0.009166913 -0.011751712
0003d0 eb 14 41 bb 57 d6 3a ba c3 d1 29 bd 44 b6 64 bc
       -0.002946193 -0.0007127276 -0.04145981 -0.013959471
0003e0 55 83 33 bb c1 56 5d 3b 78 2b 3e bc 2c 99 7b bb
       -0.0027391512 0.0033773633 -0.011607043 -0.0038390858
0003f0 c0 55 63 3b 09 d1 3c 3e 91 40 04 bc 37 a6 45 3e
       0.0034688562 0.18439116 -0.008072034 0.19301687

a f4 [60]
000000 ad 2d 4b bb dd aa 1f 3c cc 75 f6 3a 13 3d 5b 3b
       -0.0031002567 0.009745327 0.0018803417 0.003345315
000010 99 c4 93 3c fd 7a a7 bc 98 d3 19 bd b2 05 38 3d
       0.018038081 -0.020444388 -0.037555307 0.044927306
000020 fc 31 96 3c 72 d0 19 bc 04 97 9a 3b 93 ef 0b bc
       0.018334381 -0.009388076 0.0047177095 -0.008541006
000030 00 d3 40 3a 64 e5 57 3e 37 37 b7 3b f0 93 5c 3e
       0.000735566 0.210836 0.005591299 0.21540809
000040 ab 0f 6f ba 9a 9b ed b8 3a d0 66 3e 36 4e 2b bd
       -0.0009119461 -0.00011330024 0.2254037 -0.041822635
000050 ae 24 66 3c 9e 6d 3c bd 8a ee 25 bd 3c 40 b6 bc
       0.014046831 -0.046002977 -0.04051069 -0.022247426
000060 66 b9 63 bd 89 22 48 bc b7 cc 57 3e 89 17 2a bf
       -0.05559673 -0.012215265 0.21074186 -0.6644216
000070 7d bf cf 3c 85 c5 59 3e 27 80 58 3e 78 b9 87 3c
       0.025359863 0.21266754 0.21142636 0.01656793
000080 f2 07 29 ba 10 be 7c bc cf b2 88 bc 28 45 e9 bb
       -0.00064480223 -0.015426174 -0.016686825 -0.00711884
000090 79 ed 58 3e b5 e1 0e bc 17 28 57 3e 72 dd c1 bb
       0.21184339 -0.008720805 0.21011387 -0.005916291
0000a0 99 45 15 bb 9e 06 57 3e 7f d7 08 3d b9 00 16 bd
       -0.002277708 0.20998618 0.033408638 -0.036621783
0000b0 86 9e 19 b7 f0 33 b9 3b 4c bc 5a 3e 0c 0c c6 3c
       -9.15642e-06 0.0056519434 0.21360892 0.024175666
0000c0 b8 ff 17 3d 27 6c bf 3a 5c c5 a3 3b 6f 65 22 bd
       0.037109107 0.0014604375 0.0049978923 -0.039647516
0000d0 61 2d 0a be 34 52 54 bb 57 d5 22 bd 06 8a c7 bb
       -0.13493873 -0.003239763 -0.039754238 -0.0060894517
0000e0 c1 56 82 bc 66 7c 7b bc 17 c2 79 bc a1 7e 7f 3c
       -0.015910508 -0.015349483 -0.0152440285 0.0155941555

b f4 [60]
000000 8d e4 b1 bb 00 00 00 00 00 00 00 00 34 3f 5c bc
       -0.0054288567 0.0 0.0 -0.013442803
000010 b7 a2 7a bc 00 00 00 00 c2 8c 03 bd ff 43 b7 bc
       -0.015297583 0.0 -0.03211666 -0.02237129
000020 37 b6 b4 bc 00 00 00 00 61 c0 6e 3a 00 00 00 00
       -0.022059543 0.0 0.0009107646 0.0
000030 00 00 00 00 6d 76 6f be 00 00 00 00 d4 73 67 be
       0.0 -0.2338502 0.0 -0.22602779
000040 09 07 07 bc 9e c4 ea bb 98 46 6a be 34 fa 04 bd
       -0.008241423 -0.007164552 -0.22878492 -0.032465175
000050 00 00 00 00 20 33 00 bd f9 b2 c2 bc ab 29 be bc
       0.0 -0.031298757 -0.023766981 -0.023213228
000060 79 bc 0a bd 00 00 00 00 26 2e 75 be 0e d0 17 3f
       -0.033871148 0.0 -0.23943385 0.5930184
000070 fd cb b6 bc 08 07 62 be dc 7f 6d be 00 00 00 00
       -0.022314066 -0.22072995 -0.23193306 0.0
000080 00 00 00 00 7a ec 56 bc 00 00 00 00 8c ab 9e bc
       0.0 -0.013117904 0.0 -0.01936891
000090 1b bc 65 be 00 00 00 00 d4 2b 63 be 24 dc 12 bc
       -0.22435038 0.0 -0.22184688 -0.008963618
0000a0 e8 92 2b bb be bc 6b be 27 e1 2b bc c7 9b fb bc
       -0.0026180092 -0.23021218 -0.010490692 -0.030713929
0000b0 00 00 00 00 00 00 00 00 de e2 6d be f6 9a b6 bc
       0.0 0.0 -0.23231074 -0.022290688
0000c0 61 c4 b6 bc a2 08 ff bc 00 00 00 00 24 48 06 bd
       -0.022310438 -0.031132046 0.0 -0.032783642
0000d0 68 ce c1 3d 11 b2 bf bb 76 50 04 bd 87 d3 bc bb
       0.09463197 -0.0058500846 -0.032303296 -0.0057625207
0000e0 03 f7 cb bc 00 00 00 00 c0 23 9d bc 2b b7 cd bc
       -0.024898058 0.0 -0.019182086 -0.025111755

K f4 [8, 60]
000000 c9 80 7f 3b 90 e7 ec 3d 0b 4b db 3a e4 df db bc
       0.0038986674 0.115676045 0.0016730739 -0.026840158
000010 dc e5 6f bb 10 31 93 ba dd 95 b7 3a d3 63 8d bc
       -0.0036605513 -0.0011229832 0.0014006455 -0.017259514
000020 c7 17 07 bd 85 58 ed bb c8 67 82 bc 80 63 e3 bc
       -0.03298166 -0.0072432184 -0.015918627 -0.027757406
000030 af 79 96 3b fb 7d 66 3a 16 b6 1a 3c 13 fd f8 bb
       0.0045921425 0.0008792576 0.009442827 -0.007598528
000040 35 7f e0 3d 83 6f 00 3b ca 9a 25 bc 7a db 4d ba
       0.10961763 0.0019597716 -0.010107705 -0.0007852834
000050 ec 1c d7 3d a5 3b 8b 3c 60 46 d1 3b c0 cf 33 bc
       0.10503563 0.016996214 0.006386563 -0.010974824
000060 d3 a7 cb ba ea 7c 72 bc 28 b9 01 3c 9d ab b2 bc
       -0.0015537686 -0.01480029 0.00791768 -0.021810347
000070 d4 fd d7 38 67 c1 63 bc 95 72 1a ba 57 a0 ce 3a
       0.00010299278 -0.013901091 -0.0005891708 0.0015764338
000080 54 62 c5 3b 65 8f da 3d 84 0c 79 bc a6 b0 31 3a
       0.0060236845 0.106718816 -0.015200738 0.0006778337
000090 fa 49 ea 3d ad 06 1c bc db 05 ab bb 9c 1b 89 bc
       0.11439891 -0.009523076 -0.005219204 -0.016736798
0000a0 c8 ad a0 bc 87 64 1f 3c ae 1e bf bb 3d 99 02 3c
       -0.019614115 0.009728557 -0.0058325147 0.007971105
0000b0 33 1e 2a bb 44 94 df 3d 1f dc 90 3b 5b 9f e8 3d
       -0.0025957942 0.10916951 0.0044207717 0.1135852
0000c0 7a 55 dc 3d 9c 11 f3 3d aa b7 bc bc 04 3b c7 3a
       0.10758491 0.11868593 -0.023036797 0.0015200083
0000d0 e8 7e 3b bc 74 ec 70 bc 6a a1 cc 3d db 86 a4 bb
       -0.011443831 -0.014704812 0.09991725 -0.005020959
0000e0 3e 50 1e 3b 34 ca ba 3b e6 a8 e5 b8 44 13 cd bc
       0.0024156715 0.005700374 -0.00010951031 -0.0250336
0000f0 2d 11 0d bc fb e9 20 3e 01 79 f2 bb 4f 9c b3 3b
       -0.008610052 0.15714256 -0.0073996787 0.00548128
000100 4e 65 5c bc 3b 26 17 39 82 83 97 bb 18 71 dc bb
       -0.013451887 0.00014414724 -0.0046238312 -0.006727349
000110 a4 93 e4 bc 27 a7 cd bc 87 49 cb 3b 14 9a bf 3b
       -0.027902432 -0.025104119 0.0062038335 0.005847225
000120 57 94 02 bc 04 94 d2 bc 46 c6 1a bc cb 72 d5 bb
       -0.007969937 -0.025705345 -0.009446686 -0.0065139285
000130 19 23 09 3e fd 64 44 bc a9 c9 d9 bb de 87 b1 bc
       0.13392295 -0.011986968 -0.006646354 -0.021671232
000140 56 f6 05 3e f2 62 02 3c 6e 75 12 ba 30 84 39 bc
       0.13082251 0.007958161 -0.00055869564 -0.01132302
000150 27 b3 61 bc 46 33 07 3c f0 47 40 bc db d2 6f bc
       -0.013775623 0.008251971 -0.011735901 -0.014637674
000160 52 b4 2e bc a9 b0 9d ba dc 04 4a bc fd bc 90 bc
       -0.010663109 -0.0012030798 -0.01233026 -0.017668242
000170 32 65 48 bc 61 57 0d 3e 9e b0 b9 39 09 a1 a5 bb
       -0.012231158 0.13802864 0.0003541754 -0.0050545973
000180 fe f9 0f 3e 8d ab 10 bc 42 d2 17 bc 4a 68 87 3b
       0.14060208 -0.008829963 -0.009266438 0.0041323053
000190 33 e1 11 bd 0a c6 a6 3b 0b 9d a9 bc ca 48 79 3b
       -0.035615157 0.005089526 -0.020704767 0.003803777
0001a0 27 d0 ca ba d1 0d 0f 3e 46 d6 99 bc de fa 12 3e
       -0.0015473411 0.13970114 -0.018778931 0.1435351
0001b0 df 2f 0c 3e 85 c3 14 3e 61 21 24 3c 99 e4 8c bc
       0.13690136 0.1452771 0.010017724 -0.017198848
0001c0 5e 55 f5 3a f6 26 94 3a 6b 7b 12 3e 4b 5d 42 bc
       0.0018717458 0.0011303115 0.14304893 -0.011863063
0001d0 38 bc d0 bb 61 93 9b bb 2f ae a2 bc ef 70 11 bd
       -0.0063700937 -0.0047477935 -0.019858448 -0.035508092
0001e0 bf 26 07 bc 53 bf a8 3d a5 da 6b bc d7 12 9c b9
       -0.008248984 0.08239617 -0.014395391 -0.00029768675
0001f0 4f dd bd 3b c0 9c af 3b 92 5e 48 3b 31 71 4d 3c
       0.0057942043 0.005359262 0.0030573946 0.012539194
000200 b9 fa 44 3c 8f 7f 6a 3a fe 6f e0 3b e6 d5 23 bb
       0.012022668 0.00089453993 0.006849288 -0.002499932
000210 4d 4e a0 3b 4e 37 8b 3b 22 3c 3e bb 16 40 03 3c
       0.0048921467 0.004248536 -0.0029027541 0.008010885
000220 dc a0 b1 3d ce e3 ca 3b 09 06 a6 bb 3f ce 28 bc
       0.086732596 0.006191707 -0.0050666374 -0.010303079
000230 c9 30 90 3d 85 b7 7a 3b 09 4a 9a bc e3 7c 8f bc
       0.07040555 0.0038256359 -0.01883413 -0.017515605
000240 92 46 21 3c 40 d1 34 bc 1c 73 36 3c d5 0c 44 3c
       0.009843485 -0.011036217 0.011135843 0.01196595
000250 04 60 87 3a 6f f0 3c bc 2d bc bc bb bb d5 d6 bb
       0.0010328298 -0.011531933 -0.005759737 -0.0065562404
000260 c2 aa 86 b8 f8 7c a5 3d 8b 18 80 bc 52 f5 fb bb
       -6.421424e-05 0.080804765 -0.015636703 -0.0076891566
000270 54 68 bf 3d 15 07 25 bc a7 f7 07 b8 29 bd fc bb
       0.09346071 -0.010072489 -3.2417152e-05 -0.0077129793
000280 e0 3f 4c bd d2 8f 8d bc d4 94 44 bc b8 d5 f5 bb
       -0.049865603 -0.017280493 -0.011998374 -0.007502284
000290 f6 5a ae 39 12 b5 9a 3d 90 7d 3f 3c 09 43 95 3d
       0.00033255637 0.07554068 0.011687651 0.072881766
0002a0 b6 32 9a 3d d8 e0 a3 3d 0f 10 6a bb 0f cf b6 3a
       0.075292036 0.0800187 -0.0035715138 0.0013947206
0002b0 a4 5a 93 bc 9b 28 d9 ba c7 64 83 3d d3 52 25 bc
       -0.017987557 -0.0016567888 0.06415706 -0.010090548
0002c0 9c 3b 3c 3c 27 bb 4a bc 0a 59 95 3c 4a c5 01 bd
       0.011488821 -0.012373722 0.018230934 -0.03168229
0002d0 18 0c 86 bc a5 d4 0d 3e f5 5d 58 bc 44 3a 8b bc
       -0.016363189 0.13850649 -0.013205995 -0.016995557
0002e0 d9 9f 05 3b 6f 67 83 bb 34 b9 a6 bb 52 66 da 3b
       0.0020389466 -0.004010133 -0.005087996 0.0066650296
0002f0 05 0c 85 bc 00 5c 07 3b bc c9 94 bc 80 c8 aa bc
       -0.016241083 0.0020654202 -0.0181626 -0.020847559
000300 40 2e 5c bc 81 6f 81 3a 84 51 05 bc 82 da 80 bc
       -0.013438761 0.000987515 -0.008137111 -0.015729193
000310 36 1e 0f 3e a9 d0 e7 3a 04 5d 14 bc 04 0e 5b bb
       0.13976368 0.0017686087 -0.00905538 -0.0033425102
000320 0b 33 15 3e ab c0 7c bc 8d fc 83 3a 9d 3d 28 ba
       0.14570253 -0.015426795 0.0010069773 -0.00064178725
000330 d9 60 d5 b8 8d 97 95 bc eb 24 22 bc 12 4f a9 3a
       -0.00010174671 -0.018260742 -0.009896497 0.0012917242
000340 c2 c4 ae bb 2d 7f a3 3b 72 6f dd bb 6e 38 d4 bc
       -0.005333514 0.004989526 -0.00675767 -0.025905814
000350 ff 1c 13 3c c2 29 25 3e 55 00 f3 bb 41 a3 da 3a
       0.008979081 0.1612921 -0.007415811 0.0016680734
000360 b6 df 19 3e 5e 1a 6f 3b 54 6c 37 3b 5d df 90 bc
       0.15026745 0.0036484222 0.0027988153 -0.017684633
000370 73 f0 dd bc 55 19 8d bc a5 ae 0f bb c4 1b c4 ba
       -0.027092194 -0.017223993 -0.0021924165 -0.0014961888
000380 a5 a8 1a 3b f8 e7 1d 3e 65 ee 7e 39 ed a3 0b 3e
       0.0023599055 0.1542052 0.00024312137 0.13636751
000390 e0 4a 11 3e 24 18 03 3e eb 53 13 39 24 0d 32 bb
       0.14188719 0.12802178 0.00014050274 -0.0027168477
0003a0 16 f6 00 3b 03 a7 16 3c 80 47 1d 3e 7d 09 00 bb
       0.0019677929 0.009195092 0.15359306 -0.0019536905
0003b0 e2 3a c3 ba db d4 40 bc fd 2f 85 bb 81 ed b8 bc
       -0.0014894868 -0.011769499 -0.0040645585 -0.022574188
0003c0 a1 6a b6 bb 7b 38 4c 3e aa 4c 32 bc b2 db be ba
       -0.0055669104 0.1994342 -0.010882536 -0.0014561324
0003d0 50 08 84 3b 3d 7c 6e bc a2 ee b6 3b 23 05 8c bb
       0.0040293112 -0.014555988 0.0055826465 -0.0042730733
0003e0 c7 26 21 bc 99 80 05 bc b6 ef 96 3c 3d 8e 04 bc
       -0.009835905 -0.008148336 0.01842485 -0.008090553
0003f0 02 0e 00 ba 39 8d 7a 3c 59 52 51 bc 7c f4 56 bc
       -0.00048849 0.015292459 -0.012775981 -0.013119813

a f4 [60]
000000 45 2f 45 bc ba 3b 00 be fe 1b 8f bb 7a 4c 9d 39
       -0.012035196 -0.12522784 -0.0043673506 0.00030002353
000010 8a e0 50 3c 93 ce cc 3a 4a 2b cb 3c 32 b8 de b8
       0.012748847 0.0015625529 0.024800915 -0.00010620094
000020 04 da f7 bc 39 80 fe b9 cc 9c 1c 3a ab 00 e3 bb
       -0.030255325 -0.0004854219 0.0005974292 -0.00692757
000030 3f 44 91 bc 2f c1 4d 3c d0 6d 1f bc c9 5e a7 ba
       -0.017732738 0.012558266 -0.009730771 -0.0012769337
000040 30 1d e3 bd d4 9d ed 3b 10 66 00 bd 3d b4 1e b9
       -0.110895514 0.0072514806 -0.031347334 -0.00015135198
000050 2f d0 ef bd 53 cb b9 bb 77 0e 08 bc b5 0d b4 ba
       -0.1170963 -0.00566999 -0.00830423 -0.0013736995
000060 0e ec d6 bb e0 dd 11 bc 78 67 28 3c 15 04 07 37
       -0.0065589016 -0.008902997 0.010278575 8.0475775e-06
000070 f0 30 d2 ba 54 54 b8 3a f4 c4 93 bc 52 f2 56 bc
       -0.0016036313 0.0014063218 -0.01803825 -0.013119297
000080 f0 88 f1 bb a8 5c f7 bd f8 67 2e 3c f0 a2 38 bc
       -0.0073710606 -0.1207822 0.010644905 -0.011269316
000090 8d df f7 bd 4d e3 b0 3b 10 f6 24 3c 22 38 09 bb
       -0.12103186 0.00539819 0.0100684315 -0.0020937999
0000a0 91 a8 e9 3c 72 c0 24 bb a0 86 84 bb db 49 11 bc
       0.028522762 -0.002513912 -0.004044369 -0.008867706
0000b0 81 20 b6 3c fc 30 ee bd d5 8c 87 3c 73 52 f0 bd
       0.022232296 -0.11630437 0.016546646 -0.11734476
0000c0 0c 4f fd bd fa 9b de bd d4 ee 56 b9 13 89 3a bc
       -0.123685926 -0.10869594 -0.00020497601 -0.01138522
0000d0 da a5 13 3a 46 20 09 bc a9 86 ed bd 7f 64 fa 39
       0.0005632319 -0.008369511 -0.1159795 0.0004775859
0000e0 6c 0c f7 b9 53 a9 27 bb ce e8 7e 3b 17 e7 ec bc
       -0.00047120766 -0.0025583103 0.0038896087 -0.028918786

b f4 [60]
000000 00 00 00 00 53 d0 a7 3d 79 86 f0 bb f3 db 0a bc
       0.0 0.081940316 -0.007340249 -0.008475292
000010 00 00 00 00 00 00 00 00 00 00 00 00 58 7f c9 bb
       0.0 0.0 0.0 -0.0061492138
000020 a7 c2 0c bd 00 00 00 00 92 98 fd bb 00 00 00 00
       -0.034365322 0.0 -0.007739135 0.0
000030 00 00 00 00 00 00 00 00 00 00 00 00 00 00 00 00
       0.0 0.0 0.0 0.0
000040 6a e7 9e 3d 00 00 00 00 00 00 00 00 fd 55 e3 bb
       0.077589825 0.0 0.0 -0.006937741
000050 ba a7 9f 3d 00 00 00 00 00 00 00 00 00 00 00 00
       0.07795663 0.0 0.0 0.0
000060 00 00 00 00 00 00 00 00 23 2c 01 bc 00 00 00 00
       0.0 0.0 -0.007884058 0.0
000070 00 00 00 00 00 00 00 00 00 00 00 00 00 00 00 00
       0.0 0.0 0.0 0.0
000080 00 00 00 00 ab 39 a9 3d 22 e2 12 bc 00 00 00 00
       0.0 0.082629524 -0.008965047 0.0
000090 e9 7a 99 3d 9d 5c f8 bb cc c9 c4 bb ce c2 04 bc
       0.074941464 -0.0075793997 -0.0060055014 -0.008103086
0000a0 e5 66 fe bc 00 00 00 00 4b c9 c4 bb 00 00 00 00
       -0.031054923 0.0 -0.0060054413 0.0
0000b0 00 00 00 00 e4 71 a9 3d 00 00 00 00 33 fe a1 3d
       0.0 0.08273676 0.0 0.07909813
0000c0 f7 67 a0 3d 12 3a 96 3d 00 00 00 00 00 00 00 00
       0.0783233 0.07335295 0.0 0.0
0000d0 1e f3 54 bc 00 00 00 00 e0 5b aa 3d a3 c9 c4 bb
       -0.012997417 0.0 0.08318305 -0.0060054823
0000e0 00 00 00 00 00 00 00 00 00 00 00 00 a2 11 02 bd
       0.0 0.0 0.0 -0.031755097

K f4 [8, 60]
000000 a4 d6 a0 3b 56 35 a1 3e d5 4d 99 3d b1 d4 a3 3c
       0.0049083997 0.31486005 0.074855484 0.01999888
000010 30 ea f5 bd 2a 4a db bc b1 a2 e4 3d 35 df d5 3d
       -0.12007558 -0.026768763 0.111638434 0.10442964
000020 ac 71 00 bd 00 4d 3d 3b 80 64 7f bc ea cb e7 ba
       -0.031358406 0.0028885007 -0.015587926 -0.0017684672
000030 19 6d f4 3d 62 5f 74 ba 38 83 4b 3c 1a 36 ed 3d
       0.11934871 -0.00093220745 0.012421422 0.11582585
000040 90 61 fd 3d 02 1d 64 bc df be 00 bc ee 99 4c bd
       0.12372124 -0.013922932 -0.007858007 -0.049951486
000050 f0 8b 35 bd 9f 36 52 3c 7f cc b7 3c ab 65 e6 3d
       -0.044322908 0.0128304055 0.022436379 0.112498604
000060 a9 00 69 bf 50 ec d7 3c 91 9a a9 3c c3 e5 f7 3c
       -0.9101663 0.0263578 0.020703586 0.030260926
000070 51 e9 e9 3b 35 5c 01 bc a4 8b ec 3d 4e c3 2a be
       0.007138409 -0.007895519 0.11550072 -0.16676065
000080 e9 ce 2d bc 44 64 b8 3c 9a 9d 1c bc 13 a3 4b bd
       -0.010608413 0.022508748 -0.0095590595 -0.049716067
000090 75 d6 df 3d 64 31 20 bd 26 e0 03 3e 89 b0 34 be
       0.10929576 -0.039109603 0.12878475 -0.17645468
0000a0 8f ea 35 bf 3d 3e d1 3d 91 a2 59 3c 75 eb f2 3d
       -0.71061033 0.10216949 0.013283388 0.11861316
0000b0 74 59 d1 bc 32 35 78 3d 6e 0a 05 3e de a6 d6 3d
       -0.02555535 0.060597606 0.1299226 0.10481046
0000c0 50 dc 59 be 48 7c dc 3e 3f 9b 73 bd 62 38 44 bd
       -0.21275449 0.4306357 -0.059474226 -0.047905333
0000d0 0d d9 19 bc 41 c8 10 3d 11 4e b1 3c 68 97 02 3e
       -0.009390128 0.035347227 0.02164367 0.1275307
0000e0 1a 89 5a 3c bd 23 e2 bc d7 61 f0 3c 73 73 7a 3c
       0.013338352 -0.027604932 0.029343529 0.015286314
0000f0 2b 7b 23 bc d5 60 22 3f 5c 79 d8 3e b3 e5 e3 3c
       -0.009978096 0.63429004 0.4228009 0.02781949
000100 ff 5f fa bd 3c 2d 66 3b e2 dc 9e 3e 32 ec 3b 3e
       -0.12225341 0.0035122177 0.31027895 0.1835182
000110 ef 9d 05 bc d7 5c ac 3b cf cb 31 3b bf 63 4f bb
       -0.00815533 0.005260091 0.0027129536 -0.0031645147
000120 d7 16 95 3e f5 2e 73 39 71 c7 ef 3c 8c 8a 88 3e
       0.29118988 0.00023191779 0.029269906 0.26668203
000130 d7 ae af 3e 51 ed a9 bc be 67 69 bb 5c c2 47 bd
       0.3431308 -0.020743044 -0.0035614814 -0.04876934
000140 9b 92 87 bb 00 65 91 bb 03 96 34 3c 30 53 a6 3e
       -0.00413735 -0.004437089 0.011022094 0.32485342
000150 cd 25 5b bf f8 47 95 3c 0b 5a 3e 3c dd 88 73 3c
       -0.85604554 0.018222794 0.011618148 0.014864174
000160 b9 5e 36 3c 39 e2 90 bc 82 89 af 3e 16 81 1a be
       0.011130982 -0.017685996 0.34284598 -0.15088305
000170 1e 8a 52 bc cb 8a c3 3c ec 03 20 3c 96 72 fc bc
       -0.0128503125 0.023869893 0.00976656 -0.030816358
000180 ce 94 8d 3e 01 d0 f7 bc 4b 2c 8f 3e 3e d6 cd be
       0.2765259 -0.030250551 0.2796348 -0.40202516
000190 09 94 4d bf 93 17 93 3e c3 4b c9 3c f0 ee 87 3e
       -0.8030401 0.28728923 0.024572259 0.26549482
0001a0 68 f8 63 bc b5 46 c3 3e 81 80 a0 3e f3 d5 94 3e
       -0.013914205 0.38139883 0.3134804 0.2906948
0001b0 87 d3 67 be 35 b7 46 3e 2a cb 68 bd 13 3a 2b bd
       -0.22639285 0.19405825 -0.056834377 -0.04180343
0001c0 76 b5 ea 3b 1d 26 58 3c ff f6 db 3c 05 7d 96 3e
       0.007162745 0.013192681 0.026851175 0.29392257
0001d0 5d 14 b8 3c 26 a3 d4 bb 78 83 6a 3c a2 23 5a bc
       0.022470647 -0.0064891754 0.014313571 -0.01331416
0001e0 92 1e 76 bc 99 9b 8a 3e 2f 8e aa 3c 72 da 34 bd
       -0.015021937 0.27071837 0.020819752 -0.04415364
0001f0 52 6f 96 bd bd ac 3d bd c4 90 23 3d c5 98 35 3d
       -0.073454514 -0.046307314 0.03993298 0.044335146
000200 ff eb a2 bd fa bc e8 bc 9d 74 1a bd 71 de 62 bc
       -0.07955169 -0.028410424 -0.037708867 -0.0138469795
000210 a9 84 4a 3c 3b 16 45 bc 4d d6 d8 bc 8f 4c bd 3c
       0.01236073 -0.012029226 -0.026469374 0.023107795
000220 3b 5d ee 3c c3 29 bc bd fe e7 ff bc b5 a2 10 bd
       0.02909719 -0.09187653 -0.031238552 -0.03531142
000230 d5 67 7b bd d7 6e 82 bc 4b b7 ad bc 99 af b5 3c
       -0.06137832 -0.015921993 -0.021205565 0.022178458
000240 a9 12 29 3f 90 f4 ca bc 3e c8 95 bc f9 36 00 bd
       0.660441 -0.02477482 -0.01828396 -0.031302426
000250 67 56 3d bd e4 1b bc bd 10 69 21 3d 1b 8e 14 be
       -0.046224978 -0.09185007 0.039406836 -0.14507334
000260 29 0d 3d bc d9 e4 ed bc 30 46 8d 3b c5 38 b0 bd
       -0.011538782 -0.029039787 0.0043113455 -0.08604578
000270 a7 6a a6 3c 13 42 05 bd ec 5f 08 3d 13 37 ee be
       0.020314528 -0.032533716 0.033294603 -0.46526393
000280 85 fb 1f 3f ac 96 b7 3c 33 87 de bc 43 47 db 3c
       0.62493163 0.022410713 -0.027164077 0.026767379
000290 0b 23 91 bd 46 ed 00 3d fd ed ba 3c f2 36 c9 3c
       -0.07086762 0.03147628 0.02281856 0.024562333
0002a0 05 67 81 be 9e 31 0a 3f 3e c1 85 bd c4 a4 bb bd
       -0.2527391 0.5398196 -0.06530999 -0.09162286
0002b0 42 c3 e9 bc ff c0 7d bc e1 2f e2 bc 66 a3 c7 3c
       -0.028535489 -0.015487908 -0.027610721 0.024369907
0002c0 dc 42 95 bc 4b 32 a2 39 ac 8b 95 bc 57 a0 33 be
       -0.018220358 0.0003093652 -0.018255077 -0.17541634
0002d0 d9 d5 38 ba 2d b6 00 3f 1f 26 95 3e bf a9 c5 3c
       -0.0007050909 0.5027798 0.29130647 0.024128793
0002e0 57 1d 00 be b3 a5 07 bd f4 66 65 3e 90 41 1c 3e
       -0.12511192 -0.033117007 0.22402555 0.15259385
0002f0 e3 b6 a2 bc b7 dc 82 3c 1a 8e 25 bb 94 26 b8 bb
       -0.019862598 0.015974386 -0.00252617 -0.0056198332
000300 54 db 66 3e f5 53 cf 3b 88 c5 b2 3c f8 f6 4e 3e
       0.22544605 0.006327147 0.021822706 0.20211399
000310 35 43 71 3e 3b 5a 10 bd 54 52 07 bc 13 89 4d bd
       0.23560794 -0.0352423 -0.008259375 -0.050179552
000320 45 36 de bc 1e ac c8 3c f1 69 85 3c 2e 2b 79 3e
       -0.027125487 0.024496134 0.016285868 0.24332878
000330 47 82 68 bf 8f 10 5d 3c f9 6d ad 3c 1e 96 5f 3c
       -0.9082379 0.013492717 0.021170603 0.013646631
000340 9a 4c 32 3c e0 be d9 bc ef 73 87 3e de ff 15 be
       0.010882521 -0.026580274 0.26455638 -0.14648387
000350 91 4b 78 3c aa 90 b6 3b ef e7 e8 bb 59 b7 e3 bc
       0.015154735 0.0055714445 -0.0071077268 -0.027797388
000360 52 4d 69 3e 51 dc 67 bd 2b 75 49 3e d9 58 aa be
       0.22783402 -0.056606594 0.19673602 -0.3327091
000370 91 7c 4a bf a4 e3 57 3e 3e 6d 9f 3c 11 e7 4f 3e
       -0.79096323 0.21082932 0.01946127 0.20302989
000380 b9 72 c4 bc 38 6b 86 3e 16 f5 61 3e fa 8b 5a 3e
       -0.023980485 0.26253676 0.22066149 0.2134246
000390 96 41 a8 be ef 4c a0 3e 28 68 23 bd c4 ca 4d bd
       -0.32862538 0.31308696 -0.039894253 -0.0502422
0003a0 de 25 6a 3b a4 6f 8c 3b a6 53 83 3c 8e 68 4d 3e
       0.0035728137 0.0042857695 0.016031098 0.20059416
0003b0 b8 c8 ed 3c 48 1b ba bc 1f de c0 3c 02 22 87 bd
       0.029026374 -0.022718087 0.023543416 -0.06598283
0003c0 12 c7 48 3b 6f 8c 17 3f 87 fc ca 3e b5 1a 3d bd
       0.0030636233 0.5919866 0.39645788 -0.046168048
0003d0 f9 0d dd bd 75 9c b5 bb f3 7d 9d 3e 80 28 83 3e
       -0.10793681 -0.005542333 0.30760154 0.25616837
0003e0 bf ff 96 bd 22 1a 03 bd 25 91 da bc 27 46 53 bc
       -0.073729984 -0.032007344 -0.026680538 -0.012895144
0003f0 1d 0e a6 3e 1e 0f da 3b b3 48 cf bc 53 81 9f 3e
       0.32432643 0.006654634 -0.02530322 0.31153354

a f4 [60]
000000 bb 6f 7f 3c 88 2f 9b 3e 5f c2 6b 3e f4 ab 10 3d
       0.015590603 0.303097 0.23023365 0.035320237
000010 38 83 4a be ba 4a 04 be 48 b6 1f 3e 5c c9 45 3e
       -0.19776618 -0.12919131 0.15596879 0.19315094
000020 a4 29 fb bd be 0b fc bc 56 6b f6 bc c0 7d 19 3b
       -0.12263802 -0.030767318 -0.030080479 0.00234209
000030 9e fa 29 3e db d7 b4 3a 30 40 4e 3d 68 35 16 3e
       0.16599509 0.001379724 0.050354183 0.1466881
000040 74 fc 33 3e e6 ef fa bd 76 2a e0 bd 3d 1c 14 bd
       0.17576772 -0.12252788 -0.10945599 -0.036159743
000050 7b 23 01 be 8a 72 b6 3c db 10 26 bd 15 ad 3f 3e
       -0.12611191 0.022271413 -0.04054342 0.1871837
000060 a4 bb 2a 3f e6 87 31 3d a8 3e 20 bd 24 56 4d bd
       0.66692567 0.043342493 -0.039122254 -0.05013098
000070 e5 09 c8 3c 91 4c fa bd 24 69 57 3e a5 19 5d be
       0.02441878 -0.12221635 0.21036202 -0.21591814
000080 34 e7 be bd 75 54 15 bd 87 99 48 bb 40 4e 05 be
       -0.09321442 -0.036457498 -0.0030609088 -0.13018131
000090 4d c8 1c 3e 72 ff 2a bd 69 12 13 3e e8 0f d9 be
       0.15310784 -0.041747518 0.14362492 -0.42394948
0000a0 34 c7 08 3f c1 65 13 3e a8 93 04 bd 98 73 0c 3e
       0.5342896 0.14394285 -0.03236738 0.1371597
0000b0 df e7 0b be d9 f4 55 3e fb ac 26 3e 86 93 14 3e
       -0.1366267 0.20894183 0.16276924 0.145094
0000c0 10 a7 b5 bd b6 b2 c4 be 29 a5 28 be 2a d7 15 be
       -0.08869755 -0.38417596 -0.16469254 -0.1463286
0000d0 d2 cf 71 bd ca fd e5 bc 52 5e db 3c a7 09 fe 3d
       -0.059036084 -0.028075118 0.026778374 0.12404185
0000e0 0d ea 2d 3d c6 03 26 bd 9d 75 ae 3c 74 c2 2d 3e
       0.042459536 -0.040530942 0.021296317 0.16968709

b f4 [60]
000000 00 00 00 00 40 3e 03 bf c0 92 0e be 36 53 b0 bc
       0.0 -0.5126686 -0.13923168 -0.021524053
000010 5b a8 2c be 85 90 e4 bd a2 0e 98 bd ca f6 bd 3d
       -0.16861098 -0.111603774 -0.07424666 0.09275587
000020 e9 0e ee bd fc ac 1e bd 4d 7e b5 bc 8f ab f2 bb
       -0.11623938 -0.03873919 -0.022154951 -0.0074057053
000030 37 6a 8c bd 00 00 00 00 32 2d b7 bc 79 a5 a8 bd
       -0.068561964 0.0 -0.022360418 -0.082346864
000040 b4 81 a8 bd 9e 0d e5 bd 41 eb c5 bd cc a7 63 bd
       -0.08227864 -0.11184238 -0.09664012 -0.055579945
000050 03 e0 f0 bd 8a 4b 72 bc a2 96 1c bd 4a dc 83 bd
       -0.11761477 -0.014788518 -0.038229592 -0.06438501
000060 d3 11 97 3f 8a 7d b6 bc dd 76 04 bd 95 67 1a bd
       1.1802315 -0.022276659 -0.03233992 -0.03769644
000070 a6 1a 99 bc 5b aa e7 bd fe d0 1e be a5 3e 3e be
       -0.018689465 -0.113117896 -0.15509412 -0.18578584
000080 55 7c a9 bd 8c df 09 bd 02 cd b3 bc 2f b5 eb bd
       -0.082756676 -0.033660457 -0.021948341 -0.115091674
000090 c7 6e a9 bd a3 24 1b bd f6 6f c2 bd d8 06 6d 3f
       -0.08273082 -0.037876736 -0.09494011 0.9258857
0000a0 31 65 85 3f ad 5a d3 bd e0 a6 b5 bc 90 ef b6 bd
       1.0421506 -0.103200294 -0.022174299 -0.08932412
0000b0 73 f5 ed bd fb a0 07 be bc 35 95 bd 91 59 f9 bd
       -0.11619081 -0.13245003 -0.0728564 -0.121752866
0000c0 d3 65 64 3d c9 e8 8e bd 9c 47 11 be db a6 0a be
       0.05576117 -0.06977994 -0.14187473 -0.13540213
0000d0 a4 d3 29 bd d5 5f b5 bc fd e1 9f bc e0 1a e0 bd
       -0.0414616 -0.022140423 -0.01951694 -0.10942626
0000e0 80 fb b6 bc ca fd b2 bd 45 70 b6 bc 17 84 29 bd
       -0.022336721 -0.08739813 -0.022270331 -0.041385736

K f4 [8, 60]
000000 2d a7 c5 3a 7e 62 a1 3c dc d3 b3 39 7e 7a 99 be
       0.001507973 0.019700285 0.00034299388 -0.29976267
000010 54 f2 53 3c 51 95 34 bd bd 13 a9 3c 15 ec 37 bd
       0.0129361935 -0.04408771 0.020639295 -0.04490288
000020 09 4f 6d 3c b7 3e 80 bb fd b9 05 bd 60 fb 1b be
       0.0144841755 -0.003913726 -0.032648075 -0.1523261
000030 8d 68 6a bd 0d 7a 1f bd a2 ea 97 3c 8e 68 17 3b
       -0.057228614 -0.038934756 0.018544499 0.002310309
000040 9c eb d8 3b f2 67 27 bd 02 ad 8a 3b 3e 9f 21 bd
       0.0066198837 -0.040870614 0.00423205 -0.039458506
000050 e6 15 ca bc 57 fa 86 3f 6c 88 ae bc 74 26 4b 3e
       -0.024668645 1.0545148 -0.021305285 0.19838887
000060 0c 30 bb bc b5 9c 6e 3c 25 dd af 3e f7 6f 9e 3c
       -0.022850059 0.014563729 0.34348407 0.019340498
000070 99 c4 51 bd ad 85 2e bd 76 bf 8d 3c 4f b5 f0 bd
       -0.05121288 -0.042607952 0.01730321 -0.11753332
000080 bc 8d b1 bc 5e fb 1b bd 93 4a 14 be ae 6a 44 bc
       -0.02167403 -0.03808152 -0.14481573 -0.011988325
000090 3d f8 36 bf e5 bd 13 bc 62 e8 31 bc d2 89 25 bd
       -0.7147253 -0.009017442 -0.010858627 -0.04041464
0000a0 4a 06 6f 3f 43 4e 01 bf 82 81 dc 3e 64 b7 3f bd
       0.9336897 -0.5051004 0.43067557 -0.046805754
0000b0 87 71 8a 3e 08 c1 93 3d 25 c5 56 bb 60 9a 98 bc
       0.2703974 0.07214552 -0.0032771316 -0.0186283
0000c0 b9 76 b7 3e 26 78 c7 bb 61 a0 2e bd 53 c4 bb 3d
       0.35832766 -0.006087321 -0.042633418 0.09168305
0000d0 34 84 05 3c f7 20 a6 3b 16 ea f7 be 54 15 6c ba
       0.008149195 0.0050698477 -0.4842078 -0.00090058637
0000e0 13 0c c3 39 10 f9 31 bd 5d 34 90 3c 76 f9 49 bc
       0.00037202294 -0.043450415 0.017603094 -0.0123275425
0000f0 2e df ae 3b f3 27 78 bc 38 35 0c 3c ad 83 dd be
       0.0053366637 -0.015146243 0.00855761 -0.43264523
000100 62 71 b6 bb 6a f9 0b 3d 5f a9 33 bc 25 c1 36 3d
       -0.0055677155 0.034173407 -0.010965674 0.04461779
000110 c5 a4 95 3a 06 06 5f bc 12 d2 17 3d 0b 30 dd 3d
       0.0011416903 -0.013612276 0.037065573 0.10800179
000120 ff 4f 58 3d e2 55 1e 3d 46 e4 e2 bb 57 98 73 3a
       0.052810665 0.038656123 -0.006924185 0.0009292415
000130 8e af 89 bc d3 75 17 3d 3b 34 6e bb 88 99 29 3d
       -0.016807344 0.0369776 -0.003634705 0.041406184
000140 43 b7 b3 bc 3f c7 c5 be 9e 52 7e 3c 69 a6 b4 3e
       -0.021937972 -0.38628575 0.015522627 0.3528321
000150 a7 86 cd bc 1b 61 41 bc 92 17 c4 3e 95 28 11 3e
       -0.025088621 -0.011802937 0.38299233 0.14175637
000160 2f 3a 3e 3d 09 58 48 3d 08 de ce bc c2 c3 a2 bd
       0.046442207 0.048912082 -0.025252357 -0.07947494
000170 3f 2e 81 bb 35 f5 05 3d 3a 3b d0 3d d6 c0 2d bc
       -0.0039422805 0.03270455 0.101675466 -0.010605058
000180 e2 1d 3f bf 19 96 49 3b d3 12 21 3b 77 ed 38 3d
       -0.7465497 0.0030759631 0.002457787 0.04514834
000190 23 1b e2 3e 2d 1a 6f be 0d bd cf 3e 95 32 2d 3d
       0.4416133 -0.23349829 0.40573922 0.042284567
0001a0 14 25 c4 3e 1d c2 ab 3e e3 93 8f 3a 78 54 1d bc
       0.38309538 0.33546534 0.0010954108 -0.009602658
0001b0 0c 9c e6 3e 5c 12 89 3c 4a 1b bd bc 6e a9 33 3d
       0.4504093 0.016732387 -0.023084302 0.043862753
0001c0 bf 17 0c 3c f8 22 b1 3b ed b0 7f be 64 8a 31 3c
       0.008550583 0.00540578 -0.24969836 0.010836218
0001d0 26 f4 79 ba 39 a3 16 3d d9 09 aa bb 1d 1c 2c bb
       -0.0009534977 0.036776755 -0.005189162 -0.0026261874
0001e0 90 86 5e bc a8 73 75 bd 4b 8b ea ba d7 cb d9 3e
       -0.013581887 -0.05992475 -0.0017894296 0.4253833
0001f0 c9 38 1d bd c5 2e 6b 3e b4 df 11 bc b7 83 64 3e
       -0.038384233 0.2296706 -0.008903433 0.2231587
000200 ac 53 5d 3b fb 49 30 bd 81 9c 65 3e 32 42 87 bc
       0.0033771796 -0.043039303 0.22422983 -0.016511057
000210 e5 5d 58 3e 78 d3 60 3e cf 61 0e bc cf 36 25 bc
       0.21129568 0.21955669 -0.008690312 -0.010083868
000220 56 68 17 bd ed 2d 51 3e 95 2d bf bc fc 5e 63 3e
       -0.036964737 0.20427676 -0.023337165 0.22204202
000230 f6 87 23 bd 52 32 4c be 9c f6 22 be 37 4f 78 bf
       -0.039924584 -0.1994107 -0.15914387 -0.9699587
000240 8d 5f 69 bd c0 86 09 bc 16 0e d9 3d fe aa c1 3e
       -0.05697589 -0.008393943 0.1059839 0.3782577
000250 c1 e1 65 3e f3 d8 6a 3e 64 9c 85 bc 57 a5 10 bf
       0.224494 0.22934322 -0.016309924 -0.5650229
000260 c2 30 35 bd 7c ed 5f 3e ae 40 c7 3d 9b 6a 1b bd
       -0.044235952 0.21867937 0.097291335 -0.037943464
000270 ca 9a 30 3f 83 1d fc 3a fc 76 7d 3b a6 79 63 3e
       0.6898619 0.0019234869 0.0038675657 0.22214374
000280 32 0a e1 be a7 22 f8 3e e9 8a 59 3e 31 43 61 3e
       -0.4395309 0.48463938 0.21244396 0.21998288
000290 0f 02 28 3e a4 e3 82 be 0e 59 35 3c 05 fa 01 bd
       0.16407035 -0.255643 0.011068596 -0.031732578
0002a0 1b 76 76 be 70 da fe bc 67 be 66 bd 65 03 64 3e
       -0.24068491 -0.031110018 -0.056333926 0.2226692
0002b0 2e 0c 29 bc c1 ca a9 bd 8a 6c fa 3e 41 c3 36 bd
       -0.010317845 -0.08290625 0.48910934 -0.044619802
0002c0 22 84 c8 bb 0f 21 6c 3e ee 37 2e bc 11 b2 df bc
       -0.006119267 0.23059486 -0.010633452 -0.027306588
0002d0 16 4a a0 3b 41 ce 85 3c 8b a4 f5 3a 68 af 8f be
       0.004891644 0.016333701 0.0018741054 -0.28063512
0002e0 e5 fc 80 3b 5e b2 f7 3d c9 d3 84 bc 9b 7d e6 3d
       0.0039363974 0.12094568 -0.016214268 0.11254426
0002f0 5e 9b 90 3c 75 77 55 bb d5 2e ce 3d e4 36 aa 3d
       0.01765221 -0.0032572423 0.10067526 0.08311251
000300 75 4a ef 3d cd c3 ef 3d cf bf cf 3a 82 d2 ce bb
       0.116841234 0.11707268 0.001585001 -0.0063117156
000310 79 71 a3 bc 84 44 db 3d 4f 54 8d bb da cd c7 3d
       -0.019951569 0.10706428 -0.004313029 0.0975606
000320 1b 05 c0 bc b7 c2 75 bf 66 bc ee ba f7 de 04 3f
       -0.023439934 -0.96000236 -0.0018214106 0.5190272
000330 9f 65 2c bd d1 61 57 bc 0f a4 cc 3e a7 8f 65 bb
       -0.0420891 -0.01314588 0.39968917 -0.003502825
000340 b2 5b 0a 3e 59 5c f8 3d f3 a8 da 3a 44 ac ac bd
       0.13511541 0.12126989 0.0016682431 -0.084312946
000350 a0 d5 2c bc 33 57 e7 3d 56 d0 44 3e da 94 10 ba
       -0.010548979 0.11295929 0.19220099 -0.00055153447
000360 98 22 c0 3e 36 fe 40 bc 37 cd e0 3b 7a 7e bf 3d
       0.37526393 -0.011779359 0.006860401 0.09350295
000370 75 f2 a0 3e 2c 03 96 bd 02 8c bb 3e 61 67 e1 3d
       0.3143498 -0.07324824 0.36630255 0.11006046
000380 82 d0 17 3e 10 28 9c 3d d6 21 37 bb c2 a5 9e bc
       0.14825633 0.07624829 -0.0027943752 -0.019366149
000390 98 80 21 bf 4a 64 b3 3c 63 06 0e bd 6a 2c 08 be
       -0.63086843 0.021898407 -0.03467406 -0.13298193
0003a0 b0 f4 79 bc 5d 94 45 bb c9 64 25 be 3b e8 37 3b
       -0.015256092 -0.0030148246 -0.16151728 0.0028062004
0003b0 89 31 7d 3b a9 7c 03 3e d4 db 40 3b d2 8e 11 bd
       0.0038634262 0.12840523 0.0029427903 -0.035536595
0003c0 e2 39 f8 bb 35 72 41 bd 79 8d c5 bb 4a de 12 3f
       -0.0075752595 -0.047228057 -0.0060288277 0.57370436
0003d0 20 63 ed bc 82 d8 b6 3e a9 f2 af bb c8 b8 b3 3e
       -0.02897793 0.35712057 -0.0053695035 0.35101914
0003e0 f3 6a b4 bc 42 d5 45 3b 18 ce b8 3e 47 6d 9f be
       -0.022023654 0.0030186926 0.36094737 -0.3113806
0003f0 01 37 b7 3e 29 09 b4 3e 50 b3 ea 3a 4b 4a b5 bb
       0.35784152 0.3516324 0.0017906222 -0.005532538
