learner_tingwei/model/testcase_1_distsquare_eps_0.0004_l_0.004_auglag_lbfgsiters_100addloss_0_adddim_0__seed_1/model59000.pkl (torch, 24480 bytes, 22 tensors)

Qincpt f4 [1, 1, 8]
000000 5c 8f 7b 3f 68 30 61 3f db 13 7d 3f 28 91 60 3f
       0.98265624 0.8796449 0.9885842 0.8772149
000010 98 be 66 3f 57 79 5a 3f 6b b6 4d 3f 80 04 59 3f
       0.90134573 0.853414 0.8035647 0.8477249

Qslope f4 [1, 1, 8]
000000 86 2d 5d 3f 43 70 84 3f df 55 1e 3f b0 08 56 3f
       0.8639759 1.034676 0.6184978 0.83607006
000010 3e 28 48 3f 9d b1 63 3f e6 c4 92 3f 4a 28 7c 3f
       0.78186405 0.8894289 1.1466339 0.98498976

Pincpt f4 [1, 1, 8]
000000 7b ea 7d 3f e2 56 54 3f 5f 28 92 3f a3 a5 4e 3f
       0.99185914 0.8294507 1.141857 0.8072149
000010 4d a6 87 3f e0 d7 8c 3f 35 20 37 3f 84 56 86 3f
       1.0597626 1.100338 0.7153352 1.0495152

K f4 [8, 60]
000000 60 21 90 3d 01 d6 f5 bb e5 4b d6 bb 71 b1 9e bc
       0.07037616 -0.007502318 -0.006539809 -0.01937172
000010 87 4a 83 ba 78 9e c7 bb a0 86 20 bc 31 ef 90 3d
       -0.0010016718 -0.006091889 -0.009797722 0.07076872
000020 05 5b e9 bb 49 01 b9 3d ef 0f a0 3d 95 03 51 bc
       -0.007121446 0.09033448 0.07815539 -0.012757202
000030 cd aa 11 bb 91 d4 08 3c c2 b8 b4 3d 1c 3c 99 3b
       -0.002222705 0.008351461 0.08824302 0.004676355
000040 44 62 e4 bb dd 2d 3e bc de 39 e5 3b 5b 78 02 3b
       -0.006969722 -0.011607614 0.0069954237 0.0019908163
000050 ec c7 ac 3d 4a 10 b5 3d 0f 39 d9 bb f6 44 04 3c
       0.084365696 0.088409975 -0.0066291164 0.008073082
000060 d7 7f 34 3c 57 9a e6 ba 86 03 f7 bc d8 fc 6c bc
       0.0110168075 -0.0017593604 -0.030153047 -0.0144645795
000070 cb a7 b1 3d f2 55 62 bc 76 c1 02 bc 6b 85 ac ba
       0.08674582 -0.013814436 -0.007980695 -0.001316232
000080 bc f4 99 3c 44 33 49 bc 19 ea b2 3d 04 6c a0 3d
       0.018793456 -0.012280289 0.08736057 0.07833102
000090 e8 e1 af 3d b4 37 1e bc d3 7b c8 3a 85 0d 9f 3d
       0.0858801 -0.009656835 0.0015295692 0.077662505
0000a0 38 28 e9 bb d3 d8 3f 3b 0b e4 ce ba 72 ed 96 b9
       -0.00711539 0.0029273524 -0.0015784515 -0.0002878714
0000b0 a0 9b de 3d e4 e8 89 bc cf 03 cb 3d 3d 6b 9f 3d
       0.10869527 -0.016834684 0.09912836 0.07784126
0000c0 a0 f1 17 bc df b7 96 bb c0 0f af bb 95 35 8f bb
       -0.0092739165 -0.004599556 -0.0053424537 -0.004370401
0000d0 95 e3 f9 3b 9f ac 90 3b 70 52 c6 3d d4 19 a5 3c
       0.007626007 0.0044151093 0.096836925 0.020153917
0000e0 3e 2d b2 3d 9d c9 19 3c 7f 95 1b bc a1 37 a1 3d
       0.087000355 0.009386447 -0.009496092 0.078719385
0000f0 d2 b8 32 3e 25 79 0e bc ad 71 08 bd ac 98 e1 bb
       0.17453316 -0.008695875 -0.033311535 -0.006884655
000100 46 b5 85 b9 98 a9 27 bc ae 5b c3 bb d9 7b 1a 3e
       -0.00025502796 -0.010233305 -0.005961857 0.15086307
000110 e0 05 0a bb 6d 31 22 3e 0a b7 32 3e 68 14 26 bc
       -0.002106063 0.15839167 0.17452636 -0.010136701
000120 2a ac e6 bb 5d f0 29 bc da 58 17 3e 60 31 08 bc
       -0.0070395665 -0.0103722485 0.14779988 -0.008312553
000130 54 11 97 bb 1e 87 b7 bb 56 9f 81 3b b0 ef 20 bc
       -0.00461022 -0.005600824 0.003955762 -0.009822771
000140 41 06 13 3e f2 f6 21 3e 4e 4b d6 bb ea c2 ef 3b
       0.14357854 0.15816858 -0.0065397387 0.0073169367
000150 82 02 6b bc 3e 1b a4 bb 97 f9 c3 bb c9 b4 d1 ba
       -0.01434386 -0.0050081303 -0.005980681 -0.0015999313
000160 23 06 24 3e bc 5b 4f bc 14 97 2a bc 06 f3 ef 3b
       0.16017966 -0.0126561485 -0.010411996 0.007322672
000170 8e c2 2b bc ad 3f 85 bc 28 84 24 3e 20 85 35 3e
       -0.010483397 -0.016265715 0.16066039 0.17726564
000180 d4 1d 26 3e fe 2d ea 3a e9 c7 05 3c fd 1e 18 3e
       0.16222316 0.001786649 0.008165338 0.14855571
000190 a1 8d 00 3c 30 57 05 bc 61 f9 17 bc 19 2f 36 3c
       0.007846267 -0.008138463 -0.009275765 0.011119627
0001a0 7e b3 2c 3e 45 6d db b9 c6 20 1e 3e 7a bf 1f 3e
       0.16865346 -0.00041852347 0.1544219 0.15600386
0001b0 e4 33 ac bc 20 20 85 bc b0 4a aa bc 00 b3 39 bc
       -0.021020837 -0.01625067 -0.020787567 -0.011334181
0001c0 ab 29 0f 3c f8 95 b7 bb 84 33 2c 3e 12 d4 05 3c
       0.008737962 -0.0056025945 0.16816527 0.008168237
0001d0 eb d1 22 3e 86 f4 47 3b 75 5f 15 bb fd bc 1d 3e
       0.1590039 0.0030510738 -0.0022792493 0.15404125
0001e0 9b 34 b2 3d f7 ef 18 bb f9 43 0d b9 b7 46 69 bc
       0.0870144 -0.002333639 -0.0001347213 -0.014238051
0001f0 22 3c a2 bc 04 57 93 3c 4d 72 85 3a 63 df 89 3d
       -0.019804064 0.017985828 0.0010181159 0.06732061
000200 79 6d e9 3b f4 15 24 3d 5e a2 77 3d 7a d8 00 3b
       0.007123646 0.04006 0.06045758 0.001966028
000210 87 92 46 bb ff 13 d5 bc 8c 18 89 3d 44 c9 03 bc
       -0.003029974 -0.026010511 0.06694135 -0.008043591
000220 76 fb 83 bc 91 52 99 bc 29 f5 b1 3b bd 7d d8 3b
       -0.016111117 -0.018716129 0.0054308367 0.006606786
000230 c9 05 97 3d 0d 76 85 3d f5 5a 8c 3c a4 fc 92 bc
       0.0737415 0.06516657 0.017133215 -0.017942734
000240 90 5b 5f bc 38 17 21 bc 56 77 f7 3b 07 54 d2 3b
       -0.01363267 -0.009832196 0.0075520677 0.0064187082
000250 52 a9 81 3d e4 38 41 bc 4e ac b4 3b 70 85 7d bc
       0.063311234 -0.011793349 0.0055137044 -0.0154737085
000260 6b c6 a9 3b f4 0f 29 bc 96 d2 81 3d 9f 61 93 3d
       0.005181124 -0.010318745 0.06338994 0.07196354
000270 ea de 98 3d f1 1e 0d 3c 8e 76 e7 bb 18 cd a8 3d
       0.074643925 0.008613334 -0.0070636934 0.082422435
000280 2d d7 ef ba 3b 68 0b bb 60 9e 09 bc a7 a1 89 bb
       -0.001829838 -0.0021271843 -0.008399576 -0.0042001787
000290 68 77 4a 3d 67 aa 84 bc 04 c6 84 3d 9c 07 8e 3d
       0.04943028 -0.016194535 0.06483081 0.06935045
0002a0 4a e2 4a 3b e6 c5 ad 3b 9a 26 c6 3b b4 bb 94 bc
       0.0030957633 0.0053031323 0.006047082 -0.01815591
0002b0 d0 34 84 bb 74 25 1d bc 69 23 62 3d 77 bc 4e ba
       -0.004034616 -0.009591449 0.05520955 -0.000788636
0002c0 7b 7e 87 3d 0e fd 3e 3c 2c d4 14 bb 1a e7 9a 3d
       0.06615921 0.011657013 -0.0022709472 0.075636104
0002d0 75 f2 18 3e 67 7e b9 3a 80 83 d6 ba 59 18 66 bb
       0.1493624 0.0014152051 -0.0016366094 -0.0035109727
0002e0 d0 16 8d 3c 89 f3 46 bb 70 8c 1c 3b 70 4e 32 3e
       0.017222792 -0.003035756 0.0023887418 0.17412734
0002f0 cc 4c 87 3a 54 92 2d 3e f5 1a 1e 3e ba e9 3b ba
       0.001032257 0.16950351 0.15439971 -0.0007168312
000300 92 4a ba bb 13 d3 49 b8 2d ec 33 3e d1 12 00 bb
       -0.005685159 -4.8118713e-05 0.17570563 -0.0019542465
000310 3b ba a8 3b 69 58 97 bc 86 f0 ee bc 14 e7 b9 bb
       0.0051491535 -0.018474774 -0.029167425 -0.0056732986
000320 27 cc 12 3e 95 49 2a 3e 07 97 10 bc 8f 43 ae 3b
       0.1433569 0.16629632 -0.00882507 0.005318112
000330 9b 42 7d bc c4 25 e3 ba c7 e8 98 b9 18 95 15 3a
       -0.0154577745 -0.0017329981 -0.00029165132 0.00057061156
000340 af ba 2a 3e c3 7f 40 3b d8 96 aa bb c0 f7 5d 3c
       0.16672777 0.0029373027 -0.0052059703 0.013547838
000350 dc 22 1a 3b 64 10 f9 3b 67 6e 34 3e cf a7 2e 3e
       0.0023519313 0.007600831 0.1762024 0.17056201
000360 36 86 15 3e f7 7d 21 3b ad 4c 46 3c 05 f9 1b 3e
       0.14601979 0.0024641731 0.012103242 0.15231712
000370 e1 50 7a bb 62 30 bc bb 41 bc 6e 3c a1 13 91 3c
       -0.003819518 -0.0057430724 0.01457125 0.017709555
000380 19 28 30 3e 6d ff 2f bc 8e 88 1c 3e 04 5a 12 3e
       0.17202796 -0.010742051 0.15286466 0.1429215
000390 aa 50 4c 3c 2a 76 34 3b 2e 59 09 bb 23 c3 7d 3b
       0.012470404 0.0027536252 -0.0020957696 0.0038721047
0003a0 ac 44 51 ba d2 f3 5f 3b 19 dd 28 3e 78 be 62 bc
       -0.000798295 0.0034172428 0.16490592 -0.013839357
0003b0 66 90 32 3e bb b8 c1 bc 03 ec 89 bc 2d 34 25 3e
       0.17437896 -0.023647657 -0.016836172 0.16133185
0003c0 59 6f 3f 3e 02 c2 19 3c 3c 24 70 3c 34 8b 0f bd
       0.1869482 0.009384634 0.014657076 -0.035044864
0003d0 c6 11 f4 bb 5a 7c 04 bb e1 83 16 bb fb 6c 41 3e
       -0.007448408 -0.002021572 -0.002296679 0.18889229
0003e0 d9 f0 75 3b 44 fe 43 3e 17 57 3b 3e 9c 2d 8d 38
       0.003752759 0.19139963 0.18294941 6.731899e-05
0003f0 fe 79 8a ba 31 69 a5 bc ae fc 42 3e 74 85 b8 3b
       -0.0010564921 -0.02019176 0.19041702 0.005631143

a f4 [60]
000000 1c 4a 1d be 0e 90 a5 b9 8f b1 b7 bb e9 cf 24 3c
       -0.15360302 -0.00031578582 -0.0056058834 0.010059335
000010 e7 f1 ed 3b fe 77 de 3b a2 f5 8c bb e6 96 23 be
       0.007261503 0.0067892065 -0.0043017427 -0.15975532
000020 5b 1e 77 bc f5 3b 20 be e9 e1 21 be 74 74 8c 3b
       -0.015082921 -0.15647872 -0.15808834 0.004286343
000030 0d 18 b4 bc a9 5f ba bb 87 8f 18 be 4b a8 cf bc
       -0.021984125 -0.005687673 -0.14898501 -0.025348803
000040 45 d4 81 bc 14 14 0e 3b 6d 1f bb ba 23 de 69 3c
       -0.015848288 0.0021679448 -0.0014276333 0.014274153
000050 6b 2b 0d be 59 da 15 be 18 75 a8 3a 9c e6 ac bb
       -0.13786094 -0.14634074 0.001285228 -0.005276514
000060 2d 83 31 3c 14 60 ee 3b f7 98 80 ba dd ec af 3b
       0.010834497 0.007274637 -0.0009811212 0.0053688125
000070 f6 8b 1a be 3d b9 8e bb d2 10 41 3b 5c 88 b8 bb
       -0.15092453 -0.004355578 0.0029459489 -0.0056314897
000080 47 10 aa 3b 7c 65 52 3b a1 a9 17 be 33 24 17 be
       0.0051899287 0.0032103946 -0.14810802 -0.14759903
000090 6a fc 0e be 7b be 8b bb a2 a6 0a bb c0 6b 1a be
       -0.13963476 -0.0042646504 -0.002115645 -0.15080166
0000a0 f6 d4 be bb 8e b3 67 3c 42 d9 8e bc ad f8 93 3a
       -0.0058237268 0.01414193 -0.017437581 0.0011289321
0000b0 45 43 14 be a5 e0 aa bb a4 0d 15 be 9e 5a 15 be
       -0.14478786 -0.005214768 -0.14555985 -0.14585349
0000c0 53 2e 63 3b bd bb 56 3b 5a 28 b4 bb b5 fe c4 bc
       0.0034665063 0.003276571 -0.0054979743 -0.024047235
0000d0 7f 0d 89 3c 27 b1 95 bb 47 dc 10 be 69 f9 0f 3c
       0.016730068 -0.0045682373 -0.14146529 0.008787491
0000e0 05 68 17 be 14 89 34 3c 03 cd b5 ba 61 c1 1f be
       -0.14785774 0.01101901 -0.0013870302 -0.15601112

b f4 [60]
000000 a7 e1 0d 3e 00 00 00 00 00 00 00 00 d1 34 03 bd
       0.13855611 0.0 0.0 -0.03203279
000010 00 00 00 00 00 00 00 00 00 00 00 00 ad 56 14 3e
       0.0 0.0 0.0 0.14486189
000020 00 00 00 00 56 fa 0d 3e ff 97 0a 3e 6b d3 20 bc
       0.0 0.13865027 0.13534544 -0.009816031
000030 00 00 00 00 ea e9 0d bc e3 29 0b 3e 00 00 00 00
       0.0 -0.0086617265 0.13590197 0.0
000040 00 00 00 00 00 00 00 00 00 00 00 00 00 00 00 00
       0.0 0.0 0.0 0.0
000050 ce 1e f4 3d fd 72 07 3e 00 00 00 00 00 00 00 00
       0.11919938 0.13227458 0.0 0.0
000060 00 00 00 00 00 00 00 00 00 d7 ee bb 00 00 00 00
       0.0 0.0 -0.0072888136 0.0
000070 cf be 0a 3e a4 be f0 bb 00 00 00 00 00 00 00 00
       0.1354935 -0.007346945 0.0 0.0
000080 00 00 00 00 ca 46 42 bc 96 fd 09 3e da 65 0a 3e
       0.0 -0.011857698 0.13475642 0.13515416
000090 c6 c7 01 3e e0 99 27 bc 00 00 00 00 19 08 02 3e
       0.12673864 -0.010229558 0.0 0.12698402
0000a0 5b c4 c4 bb 00 00 00 00 00 00 00 00 00 00 00 00
       -0.0060048527 0.0 0.0 0.0
0000b0 42 45 04 3e 9c 0d d2 bb fc 76 01 3e d5 12 08 3e
       0.12917045 -0.006410314 0.12643045 0.13288434
0000c0 00 00 00 00 63 6b 29 bc bd c5 c4 bb 00 00 00 00
       0.0 -0.010340544 -0.0060050176 0.0
0000d0 00 00 00 00 00 00 00 00 87 01 04 3e 00 00 00 00
       0.0 0.0 0.12891208 0.0
0000e0 aa 18 06 3e 00 00 00 00 37 63 fa bb 7d a9 0a 3e
       0.13095346 0.0 -0.007641222 0.13541217

K f4 [8, 60]
000000 cd 21 8f bc 1a 78 23 bd 1d 55 48 3b 03 b0 31 bc
       -0.017472172 -0.03990946 0.003056831 -0.010845187
000010 33 c4 ba bc 9a bd 11 bc 8b 48 96 3c 8c ec e9 bc
       -0.022798633 -0.008895302 0.018345138 -0.028555177
000020 11 eb 22 bd 17 79 5b b9 27 c8 86 3a 47 0b cf ba
       -0.039774958 -0.00020930577 0.0010283039 -0.0015796208
000030 a1 ca a3 bb a3 72 23 3e fa 08 00 bc 97 d4 24 3e
       -0.0049985205 0.15961699 -0.00781464 0.16096722
000040 3c 3e a0 bb 69 a4 6f bc b6 d3 15 3e c6 fa 82 3c
       -0.0048902314 -0.014626601 0.14631543 0.015988719
000050 a9 5e 11 bc 15 36 bf 3c c2 35 85 3b 28 c9 c0 bc
       -0.008872666 0.023341218 0.0040652463 -0.023533419
000060 b5 3d b8 3b 28 58 64 bd d2 77 24 3e 87 75 56 3e
       0.0056225904 -0.055748135 0.16061333 0.2094327
000070 60 b8 00 bd 9e 29 25 3e d4 1e 28 3e 3b 0b 08 bc
       -0.031425834 0.16129157 0.1641801 -0.008303459
000080 9e d6 54 bc 96 27 2d bc cb 22 36 bc f2 84 a8 3b
       -0.012990622 -0.01056852 -0.011116694 0.0051428014
000090 71 21 25 3e 38 76 68 bc a3 21 27 3e f6 ec 6a bc
       0.16126038 -0.014188342 0.16321425 -0.014338722
0000a0 49 ef 76 bc e8 89 2d 3e 99 13 ed bc de a4 be 3b
       -0.015071698 0.16947138 -0.028940009 0.0058179935
0000b0 0e 9f 69 bc 20 7a 5c 3b ae 84 1f 3e b2 cb 4c bd
       -0.014259113 0.0033642128 0.15577957 -0.049998946
0000c0 1a d2 dd bc 05 14 37 bd 0c f6 5e bc 93 72 8e 3c
       -0.027077723 -0.044696826 -0.013608467 0.017388618
0000d0 6c 3d a6 bd e4 62 05 bc 9a 5e 89 3c da 5c 3c bc
       -0.08117184 -0.008141253 0.016768742 -0.011496747
0000e0 97 cf ae bb 2a 75 18 bb e7 4c cb bc e5 a3 42 bd
       -0.005334805 -0.0023263195 -0.024816943 -0.047519583
0000f0 6e 1f 44 bc bb f6 40 bd 4e e8 8f bb 57 bc aa bc
       -0.011970384 -0.0471103 -0.0043917065 -0.02084176
000100 10 ca dc bc 59 a7 08 3c 5a 3f 92 3c 34 36 e5 bc
       -0.02695182 0.00834068 0.017852474 -0.027979948
000110 b2 01 26 bd cf 89 b8 bb 09 9b ff bb de 22 a5 bc
       -0.04052896 -0.0056316624 -0.007800464 -0.020158228
000120 97 08 ff 3b 99 fd a3 3e 3d f5 4b bc 28 4d aa 3e
       0.0077830064 0.32029417 -0.012448606 0.3326199
000130 b7 ac 27 bc 8e b7 8b 3c 36 5e a6 3e f0 31 46 3c
       -0.0102340495 0.0170553 0.32493752 0.012096867
000140 77 40 a0 3b 3d a4 b2 3b 21 bd 6c 3a f1 55 aa bc
       0.0048904973 0.0054517076 0.0009030868 -0.020792933
000150 b8 7d 4f 3c 93 91 65 bd 3e fe a8 3e 8c 9c 05 3e
       0.012664251 -0.056047034 0.3300647 0.13047999
000160 2f bc 06 bd 5d bd 9d 3e 04 8d a1 3e ab 28 96 ba
       -0.03289431 0.30808535 0.315529 -0.0011456212
000170 b3 14 84 3b 69 10 5b 3c cb 0b 85 3c 85 76 0b bd
       0.004030788 0.013370612 0.016240975 -0.034048576
000180 f6 b3 a2 3e a6 84 eb 3b 96 a8 9f 3e 6a 50 5d bb
       0.31777924 0.007187444 0.31183308 -0.0033769854
000190 05 9a 9e ba 25 05 99 3e 59 a9 99 bc 59 af f5 3b
       -0.0012100345 0.29886737 -0.018757509 0.0074977097
0001a0 98 d2 c9 38 7d 10 2b bb e1 f7 a5 3e a7 d6 a7 bc
       9.623653e-05 -0.0026102357 0.3241568 -0.020488096
0001b0 49 f8 eb bc ab ce 9f bc 60 cf 4e bb 5c 5b 34 3c
       -0.028804915 -0.019507727 -0.003155671 0.01100811
0001c0 07 7b d1 bd 53 4d 32 bb e4 cc 04 3c 98 1f d6 bb
       -0.10228544 -0.0027206733 0.00810549 -0.006534528
0001d0 60 ff 80 bc d7 ef 35 3c 29 e4 e3 bb f8 6b dc bc
       -0.015746772 0.011104546 -0.006954689 -0.026906952
0001e0 82 4a 4a bb 3c e1 e2 bc 60 fa 5a bc 86 5e 80 bb
       -0.0030867164 -0.02769529 -0.013365358 -0.003917518
0001f0 97 66 97 bc af f1 f5 bb 3d ce 22 bc 39 9a f1 bb
       -0.018481536 -0.0075056176 -0.009936866 -0.007373121
000200 b7 cb 3f bc e7 dc d5 ba 93 77 03 bb 0c 95 fe bb
       -0.011706284 -0.0016316444 -0.0020060285 -0.0077692326
000210 ad ca 1e bb ea 4f d8 3d 52 05 1d 3c 81 da e5 3d
       -0.002422969 0.105621174 0.009583788 0.11223317
000220 2e d7 d9 b8 95 65 26 bc d2 14 f6 3d e3 98 b8 bc
       -0.00010387447 -0.010156055 0.1201569 -0.02253384
000230 30 77 fc bb c8 42 ae bc b9 b4 d0 bc ba e5 fd bc
       -0.007704638 -0.021272078 -0.0254768 -0.030993331
000240 5a f6 8b bc 9b 81 a2 bc ee 7d cf 3d d4 9f a6 3e
       -0.017085243 -0.019837191 0.10131441 0.32543814
000250 1b fc 44 bc f9 0f d8 3d ea 6d e1 3d a0 42 dd bc
       -0.012022997 0.105499215 0.110072926 -0.027009308
000260 9a 50 97 bb 35 a7 39 bc be 93 af 3b 42 9d 0a bc
       -0.0046177628 -0.011331369 0.0053581884 -0.008460345
000270 78 7c c8 3d 49 0f 10 3c 09 38 fc 3d 25 cf 0b bc
       0.097893655 0.008792707 0.12315375 -0.008533274
000280 fe 4d 06 bc fc f5 d3 3d de e4 15 bd 93 f8 b2 bc
       -0.008197306 0.10349652 -0.036595218 -0.021847045
000290 20 e5 9f bc 49 fc d4 bb a7 09 ec 3d f7 11 9d bc
       -0.019518435 -0.0064998013 0.115252785 -0.019173605
0002a0 a2 7c 03 bd 3d 02 d7 bc 3d 43 21 bc a4 65 54 bc
       -0.03210128 -0.026246184 -0.009842691 -0.012963686
0002b0 a4 18 5d 3d 09 cd 36 3c b6 75 c7 bc 63 e6 ca bb
       0.053978577 0.011157283 -0.024348121 -0.006192015
0002c0 d9 26 5f b9 05 8a 64 3b 64 ed 74 bc ff 3c 01 bd
       -0.00021281409 0.0034872305 -0.014949176 -0.03155231
0002d0 9d e5 23 3c 4a 6d f7 bc e9 f8 34 3c c2 12 25 3a
       0.010003475 -0.03020348 0.011045673 0.00062970456
0002e0 54 77 4b bc 1b 15 9f 3b e0 d6 40 3c 9c 05 1b bd
       -0.012418587 0.004854811 0.01176998 -0.037847146
0002f0 72 6e 80 bc de b8 a4 bb dd 45 72 bc 8e 8a 0a 3c
       -0.015677664 -0.0050269207 -0.0147871645 0.008455886
000300 65 05 52 3c a9 a7 93 3e d4 8f 9e bb 61 9c 89 3e
       0.012818669 0.28838852 -0.004838923 0.2687712
000310 05 49 82 3b 59 64 2e bc 45 b7 8f 3e a4 8f 15 3d
       0.0039759898 -0.010644042 0.2806951 0.03651394
000320 fe 4a 42 bc 36 b2 a3 3c bf 1b fc 3c e0 01 7d bc
       -0.0118587 0.019982439 0.03077495 -0.015442342
000330 cb 36 f5 3c 28 cb 51 bc 44 c1 8c 3e 18 a8 b3 3e
       0.029933354 -0.012804784 0.274912 0.35089183
000340 a4 43 53 bc c2 87 91 3e 0e ce 8f 3e 37 23 c5 bb
       -0.012894545 0.28423887 0.28086895 -0.006016161
000350 fd cb 18 bc 33 95 20 3c 70 78 0a 3b 99 e0 55 bc
       -0.009325978 0.009801197 0.0021128915 -0.013054037
000360 01 1e 8d 3e 93 d9 4f bc 91 2e 8f 3e 19 ae a7 3b
       0.27561954 -0.012686151 0.27965215 0.0051171896
000370 2e 77 43 bc b4 c7 91 3e 5b dc c9 bc 34 37 08 3d
       -0.01193027 0.28472674 -0.024641206 0.03325577
000380 57 ba de 3b 39 03 ad bb af 01 91 3e a8 9c 06 bd
       0.006797116 -0.005279925 0.28321597 -0.032864243
000390 06 0c de bc 3c 28 26 bd 83 04 6e 3b c4 12 58 3c
       -0.027105343 -0.040565714 0.0036318607 0.013188068
0003a0 19 18 9b bd 91 b8 95 bc da 89 9d 3c 2b c0 ac 39
       -0.07572956 -0.018276485 0.019230772 0.00032949573
0003b0 b7 db 69 bc a5 ed d0 bb 4c 4e 58 bc e7 52 ec bc
       -0.0142735755 -0.0063759857 -0.013202261 -0.028848125
0003c0 3b 5f 0e bc d3 63 22 bd d2 30 16 bc 41 8a 40 bc
       -0.008689697 -0.03964598 -0.009166913 -0.011751712
0003d0 eb 14 41 bb 57 d6 3a ba c3 d1 29 bd 44 b6 64 bc
       -0.002946193 -0.0007127276 -0.04145981 -0.013959471
0003e0 55 83 33 bb c1 56 5d 3b 78 2b 3e bc 25 46 80 bc
       -0.0027391512 0.0033773633 -0.011607043 -0.015658448
0003f0 c0 55 63 3b 32 b3 7c 3e 91 40 04 bc 50 63 82 3e
       0.0034688562 0.24677733 -0.008072034 0.25466394

a f4 [60]
000000 ad 2d 4b bb f4 54 23 3d cc 75 f6 3a 13 3d 5b 3b
       -0.0031002567 0.03987594 0.0018803417 0.003345315
000010 99 c4 93 3c fd 7a a7 bc 98 d3 19 bd b2 05 38 3d
       0.018038081 -0.020444388 -0.037555307 0.044927306
000020 fc 31 96 3c 72 d0 19 bc 04 97 9a 3b af 8a cb bb
       0.018334381 -0.009388076 0.0047177095 -0.0062116007
000030 00 d3 40 3a 3f 83 94 3e 37 37 b7 3b fa 20 99 3e
       0.000735566 0.29006383 0.005591299 0.29907972
000040 ab 0f 6f ba 9a 9b ed b8 c3 08 9b 3e 36 4e 2b bd
       -0.0009119461 -0.00011330024 0.30280122 -0.041822635
000050 ae 24 66 3c 9e 6d 3c bd 8a ee 25 bd 3c 40 b6 bc
       0.014046831 -0.046002977 -0.04051069 -0.022247426
000060 66 b9 63 bd e7 61 6b 3c 4f 14 97 3e 6d 81 23 bf
       -0.05559673 0.014366603 0.29507682 -0.63869363
000070 7d bf cf 3c 65 d8 94 3e 2e b0 90 3e 78 b9 87 3c
       0.025359863 0.29071346 0.28259414 0.01656793
000080 f2 07 29 ba 10 be 7c bc cf b2 88 bc 28 45 e9 bb
       -0.00064480223 -0.015426174 -0.016686825 -0.00711884
000090 b6 13 90 3e b5 e1 0e bc a6 ba 92 3e 72 dd c1 bb
       0.28140038 -0.008720805 0.28658026 -0.005916291
0000a0 99 45 15 bb f3 92 8e 3e 7f d7 08 3d b9 00 16 bd
       -0.002277708 0.27846488 0.033408638 -0.036621783
0000b0 86 9e 19 b7 f0 33 b9 3b 3b c0 90 3e 0c 0c c6 3c
       -9.15642e-06 0.0056519434 0.2827166 0.024175666
0000c0 b8 ff 17 3d 27 6c bf 3a 5c c5 a3 3b 6f 65 22 bd
       0.037109107 0.0014604375 0.0049978923 -0.039647516
0000d0 86 4d a8 bc 34 52 54 bb 57 d5 22 bd 06 8a c7 bb
       -0.020544779 -0.003239763 -0.039754238 -0.0060894517
0000e0 c1 56 82 bc 66 7c 7b bc 17 c2 79 bc a1 7e 7f 3c
       -0.015910508 -0.015349483 -0.0152440285 0.0155941555

b f4 [60]
000000 8d e4 b1 bb bb 04 02 bd 00 00 00 00 34 3f 5c bc
       -0.0054288567 -0.031742793 0.0 -0.013442803
000010 b7 a2 7a bc 00 00 00 00 c2 8c 03 bd ff 43 b7 bc
       -0.015297583 0.0 -0.03211666 -0.02237129
000020 37 b6 b4 bc 00 00 00 00 61 c0 6e 3a 33 ef 6e bc
       -0.022059543 0.0 0.0009107646 -0.014583397
000030 00 00 00 00 2b 21 ff be 00 00 00 00 bd e3 01 bf
       0.0 -0.49829993 0.0 -0.50738126
000040 09 07 07 bc 9e c4 ea bb 0f 43 ff be 34 fa 04 bd
       -0.008241423 -0.007164552 -0.4985585 -0.032465175
000050 00 00 00 00 20 33 00 bd f9 b2 c2 bc ab 29 be bc
       0.0 -0.031298757 -0.023766981 -0.023213228
000060 79 bc 0a bd 4f 48 f2 bc 90 2a ff be 70 e7 26 3f
       -0.033871148 -0.029575495 -0.4983716 0.65196896
000070 fd cb b6 bc 2b f9 00 bf 47 27 00 bf 00 00 00 00
       -0.022314066 -0.503802 -0.5005993 0.0
000080 00 00 00 00 7a ec 56 bc 00 00 00 00 8c ab 9e bc
       0.0 -0.013117904 0.0 -0.01936891
000090 61 12 fb be 00 00 00 00 44 e0 01 bf 24 dc 12 bc
       -0.4903746 0.0 -0.5073283 -0.008963618
0000a0 e8 92 2b bb c8 ce fd be 27 e1 2b bc c7 9b fb bc
       -0.0026180092 -0.49571824 -0.010490692 -0.030713929
0000b0 00 00 00 00 00 00 00 00 0e 91 00 bf f6 9a b6 bc
       0.0 0.0 -0.50221336 -0.022290688
0000c0 61 c4 b6 bc a2 08 ff bc 00 00 00 00 24 48 06 bd
       -0.022310438 -0.031132046 0.0 -0.032783642
0000d0 94 4d e7 3c 11 b2 bf bb 76 50 04 bd 87 d3 bc bb
       0.028235234 -0.0058500846 -0.032303296 -0.0057625207
0000e0 03 f7 cb bc 00 00 00 00 c0 23 9d bc 2b b7 cd bc
       -0.024898058 0.0 -0.019182086 -0.025111755

K f4 [8, 60]
000000 c9 80 7f 3b 9f 3c b0 3d 0b 4b db 3a e4 df db bc
       0.0038986674 0.086053126 0.0016730739 -0.026840158
000010 dc e5 6f bb 10 31 93 ba dd 95 b7 3a d3 63 8d bc
       -0.0036605513 -0.0011229832 0.0014006455 -0.017259514
000020 c7 17 07 bd 85 58 ed bb c8 67 82 bc 80 63 e3 bc
       -0.03298166 -0.0072432184 -0.015918627 -0.027757406
000030 af 79 96 3b fb 7d 66 3a 16 b6 1a 3c 13 fd f8 bb
       0.0045921425 0.0008792576 0.009442827 -0.007598528
000040 4b 5a a3 3d 83 6f 00 3b ca 9a 25 bc 7a db 4d ba
       0.079762064 0.0019597716 -0.010107705 -0.0007852834
000050 d1 22 9a 3d a5 3b 8b 3c 60 46 d1 3b c0 cf 33 bc
       0.07526172 0.016996214 0.006386563 -0.010974824
000060 d3 a7 cb ba ea 7c 72 bc 28 b9 01 3c 9d ab b2 bc
       -0.0015537686 -0.01480029 0.00791768 -0.021810347
000070 d4 fd d7 38 67 c1 63 bc 95 72 1a ba 57 a0 ce 3a
       0.00010299278 -0.013901091 -0.0005891708 0.0015764338
000080 54 62 c5 3b b5 d2 9e 3d 84 0c 79 bc a6 b0 31 3a
       0.0060236845 0.07755033 -0.015200738 0.0006778337
000090 f7 10 ae 3d ad 06 1c bc db 05 ab bb 9c 1b 89 bc
       0.084993295 -0.009523076 -0.005219204 -0.016736798
0000a0 c8 ad a0 bc 87 64 1f 3c ae 1e bf bb 3d 99 02 3c
       -0.019614115 0.009728557 -0.0058325147 0.007971105
0000b0 33 1e 2a bb 35 7d a3 3d 1f dc 90 3b 11 ea a9 3d
       -0.0025957942 0.07982866 0.0044207717 0.08296598
0000c0 9e 6e 9f 3d 8d 70 b2 3d d0 31 5c bd 04 3b c7 3a
       0.077847704 0.087128736 -0.053758442 0.0015200083
0000d0 e8 7e 3b bc 74 ec 70 bc c6 5a 91 3d db 86 a4 bb
       -0.011443831 -0.014704812 0.07097392 -0.005020959
0000e0 3e 50 1e 3b 34 ca ba 3b e6 a8 e5 b8 44 13 cd bc
       0.0024156715 0.005700374 -0.00010951031 -0.0250336
0000f0 2d 11 0d bc 0c 12 0a 3e 01 79 f2 bb 4f 9c b3 3b
       -0.008610052 0.13483447 -0.0073996787 0.00548128
000100 4e 65 5c bc 3b 26 17 39 82 83 97 bb 18 71 dc bb
       -0.013451887 0.00014414724 -0.0046238312 -0.006727349
000110 a4 93 e4 bc 27 a7 cd bc 87 49 cb 3b 14 9a bf 3b
       -0.027902432 -0.025104119 0.0062038335 0.005847225
000120 57 94 02 bc 04 94 d2 bc 46 c6 1a bc cb 72 d5 bb
       -0.007969937 -0.025705345 -0.009446686 -0.0065139285
000130 74 35 e4 3d fd 64 44 bc a9 c9 d9 bb de 87 b1 bc
       0.11143008 -0.011986968 -0.006646354 -0.021671232
000140 ac 2d dd 3d f2 62 02 3c 6e 75 12 ba 30 84 39 bc
       0.10799727 0.007958161 -0.00055869564 -0.01132302
000150 27 b3 61 bc 46 33 07 3c f0 47 40 bc db d2 6f bc
       -0.013775623 0.008251971 -0.011735901 -0.014637674
000160 52 b4 2e bc a9 b0 9d ba dc 04 4a bc fd bc 90 bc
       -0.010663109 -0.0012030798 -0.01233026 -0.017668242
000170 32 65 48 bc fe 92 ee 3d 9e b0 b9 39 09 a1 a5 bb
       -0.012231158 0.1164913 0.0003541754 -0.0050545973
000180 06 5d f5 3d 8d ab 10 bc 42 d2 17 bc 4a 68 87 3b
       0.119806334 -0.008829963 -0.009266438 0.0041323053
000190 33 e1 11 bd 0a c6 a6 3b 0b 9d a9 bc ca 48 79 3b
       -0.035615157 0.005089526 -0.020704767 0.003803777
0001a0 27 d0 ca ba 03 e3 ef 3d 46 d6 99 bc 57 8e f4 3d
       -0.0015473411 0.11713221 -0.018778931 0.11941212
0001b0 5f d8 ea 3d 21 f9 f6 3d e5 20 ac bc 99 e4 8c bc
       0.11467051 0.12059236 -0.02101178 -0.017198848
0001c0 5e 55 f5 3a f6 26 94 3a b7 2f f8 3d 4b 5d 42 bc
       0.0018717458 0.0011303115 0.12118476 -0.011863063
0001d0 38 bc d0 bb 61 93 9b bb 2f ae a2 bc ef 70 11 bd
       -0.0063700937 -0.0047477935 -0.019858448 -0.035508092
0001e0 bf 26 07 bc b5 6c ef 3d a5 da 6b bc d7 12 9c b9
       -0.008248984 0.11690656 -0.014395391 -0.00029768675
0001f0 4f dd bd 3b c0 9c af 3b 92 5e 48 3b 31 71 4d 3c
       0.0057942043 0.005359262 0.0030573946 0.012539194
000200 b9 fa 44 3c 8f 7f 6a 3a fe 6f e0 3b e6 d5 23 bb
       0.012022668 0.00089453993 0.006849288 -0.002499932
000210 4d 4e a0 3b 4e 37 8b 3b 22 3c 3e bb 16 40 03 3c
       0.0048921467 0.004248536 -0.0029027541 0.008010885
000220 d2 25 f5 3d ce e3 ca 3b 09 06 a6 bb 3f ce 28 bc
       0.11970104 0.006191707 -0.0050666374 -0.010303079
000230 31 9e d5 3d 85 b7 7a 3b 09 4a 9a bc e3 7c 8f bc
       0.10430563 0.0038256359 -0.01883413 -0.017515605
000240 92 46 21 3c 40 d1 34 bc 1c 73 36 3c d5 0c 44 3c
       0.009843485 -0.011036217 0.011135843 0.01196595
000250 04 60 87 3a 6f f0 3c bc 2d bc bc bb bb d5 d6 bb
       0.0010328298 -0.011531933 -0.005759737 -0.0065562404
000260 c2 aa 86 b8 67 31 ea 3d 8b 18 80 bc 52 f5 fb bb
       -6.421424e-05 0.11435204 -0.015636703 -0.0076891566
000270 d8 f5 00 3e 15 07 25 bc a7 f7 07 b8 29 bd fc bb
       0.12593782 -0.010072489 -3.2417152e-05 -0.0077129793
000280 e0 3f 4c bd d2 8f 8d bc d4 94 44 bc b8 d5 f5 bb
       -0.049865603 -0.017280493 -0.011998374 -0.007502284
000290 f6 5a ae 39 a7 76 e1 3d 90 7d 3f 3c 22 38 db 3d
       0.00033255637 0.11008959 0.011687651 0.10704066
0002a0 b8 15 de 3d bf 95 e7 3d b0 e7 09 bd 0f cf b6 3a
       0.10843986 0.11307859 -0.03366822 0.0013947206
0002b0 a4 5a 93 bc 9b 28 d9 ba e9 42 c9 3d d3 52 25 bc
       -0.017987557 -0.0016567888 0.09827215 -0.010090548
0002c0 9c 3b 3c 3c 27 bb 4a bc 0a 59 95 3c 4a c5 01 bd
       0.011488821 -0.012373722 0.018230934 -0.03168229
0002d0 18 0c 86 bc e1 09 0d 3e f5 5d 58 bc 44 3a 8b bc
       -0.016363189 0.137733 -0.013205995 -0.016995557
0002e0 d9 9f 05 3b 6f 67 83 bb 34 b9 a6 bb 52 66 da 3b
       0.0020389466 -0.004010133 -0.005087996 0.0066650296
0002f0 05 0c 85 bc 00 5c 07 3b bc c9 94 bc 80 c8 aa bc
       -0.016241083 0.0020654202 -0.0181626 -0.020847559
000300 40 2e 5c bc 81 6f 81 3a 84 51 05 bc 82 da 80 bc
       -0.013438761 0.000987515 -0.008137111 -0.015729193
000310 06 57 0e 3e a9 d0 e7 3a 04 5d 14 bc 04 0e 5b bb
       0.13900384 0.0017686087 -0.00905538 -0.0033425102
000320 5f 5a 13 3e ab c0 7c bc 8d fc 83 3a 9d 3d 28 ba
       0.14389943 -0.015426795 0.0010069773 -0.00064178725
000330 d9 60 d5 b8 8d 97 95 bc eb 24 22 bc 12 4f a9 3a
       -0.00010174671 -0.018260742 -0.009896497 0.0012917242
000340 c2 c4 ae bb 2d 7f a3 3b 72 6f dd bb 6e 38 d4 bc
       -0.005333514 0.004989526 -0.00675767 -0.025905814
000350 ff 1c 13 3c a9 db 24 3e 55 00 f3 bb 41 a3 da 3a
       0.008979081 0.16099419 -0.007415811 0.0016680734
000360 66 17 1a 3e 5e 1a 6f 3b 54 6c 37 3b 5d df 90 bc
       0.15047988 0.0036484222 0.0027988153 -0.017684633
000370 73 f0 dd bc 55 19 8d bc a5 ae 0f bb c4 1b c4 ba
       -0.027092194 -0.017223993 -0.0021924165 -0.0014961888
000380 a5 a8 1a 3b dd a5 1c 3e 65 ee 7e 39 46 c6 08 3e
       0.0023599055 0.15297647 0.00024312137 0.13356885
000390 7e 92 10 3e dd d0 fe 3d 97 55 fb bc 24 0d 32 bb
       0.14118382 0.12442181 -0.03068046 -0.0027168477
0003a0 16 f6 00 3b 03 a7 16 3c e5 e8 1c 3e 7d 09 00 bb
       0.0019677929 0.009195092 0.15323217 -0.0019536905
0003b0 e2 3a c3 ba db d4 40 bc fd 2f 85 bb 81 ed b8 bc
       -0.0014894868 -0.011769499 -0.0040645585 -0.022574188
0003c0 a1 6a b6 bb ce 35 73 3e aa 4c 32 bc b2 db be ba
       -0.0055669104 0.23750994 -0.010882536 -0.0014561324
0003d0 50 08 84 3b 3d 7c 6e bc a2 ee b6 3b 23 05 8c bb
       0.0040293112 -0.014555988 0.0055826465 -0.0042730733
0003e0 c7 26 21 bc 99 80 05 bc b6 ef 96 3c 3d 8e 04 bc
       -0.009835905 -0.008148336 0.01842485 -0.008090553
0003f0 02 0e 00 ba 39 8d 7a 3c 59 52 51 bc 7c f4 56 bc
       -0.00048849 0.015292459 -0.012775981 -0.013119813

a f4 [60]
000000 45 2f 45 bc 79 31 e2 bd fe 1b 8f bb 7a 4c 9d 39
       -0.012035196 -0.110445924 -0.0043673506 0.00030002353
000010 8a e0 50 3c 93 ce cc 3a 4a 2b cb 3c 32 b8 de b8
       0.012748847 0.0015625529 0.024800915 -0.00010620094
000020 04 da f7 bc 39 80 fe b9 cc 9c 1c 3a ab 00 e3 bb
       -0.030255325 -0.0004854219 0.0005974292 -0.00692757
000030 3f 44 91 bc 2f c1 4d 3c d0 6d 1f bc c9 5e a7 ba
       -0.017732738 0.012558266 -0.009730771 -0.0012769337
000040 f0 82 cc bd d4 9d ed 3b 10 66 00 bd 3d b4 1e b9
       -0.09985912 0.0072514806 -0.031347334 -0.00015135198
000050 3c 7e cc bd 53 cb b9 bb 77 0e 08 bc b5 0d b4 ba
       -0.09985015 -0.00566999 -0.00830423 -0.0013736995
000060 0e ec d6 bb e0 dd 11 bc 78 67 28 3c 15 04 07 37
       -0.0065589016 -0.008902997 0.010278575 8.0475775e-06
000070 f0 30 d2 ba 54 54 b8 3a f4 c4 93 bc 52 f2 56 bc
       -0.0016036313 0.0014063218 -0.01803825 -0.013119297
000080 f0 88 f1 bb b5 a2 de bd f8 67 2e 3c f0 a2 38 bc
       -0.0073710606 -0.10870878 0.010644905 -0.011269316
000090 bf 05 e1 bd 4d e3 b0 3b 10 f6 24 3c 22 38 09 bb
       -0.10987424 0.00539819 0.0100684315 -0.0020937999
0000a0 91 a8 e9 3c 72 c0 24 bb a0 86 84 bb db 49 11 bc
       0.028522762 -0.002513912 -0.004044369 -0.008867706
0000b0 81 20 b6 3c 43 5c d1 bd d5 8c 87 3c 9b 35 c8 bd
       0.022232296 -0.10222676 0.016546646 -0.097758494
0000c0 72 0c df bd 89 02 b7 bd ea 70 dc bc 13 89 3a bc
       -0.10891046 -0.089360304 -0.02690931 -0.01138522
0000d0 da a5 13 3a 46 20 09 bc ef b8 d5 bd 7f 64 fa 39
       0.0005632319 -0.008369511 -0.10435664 0.0004775859
0000e0 6c 0c f7 b9 53 a9 27 bb ce e8 7e 3b 17 e7 ec bc
       -0.00047120766 -0.0025583103 0.0038896087 -0.028918786

b f4 [60]
000000 00 00 00 00 09 3b 4a 3b 79 86 f0 bb f3 db 0a bc
       0.0 0.0030857942 -0.007340249 -0.008475292
000010 00 00 00 00 00 00 00 00 00 00 00 00 58 7f c9 bb
       0.0 0.0 0.0 -0.0061492138
000020 a7 c2 0c bd 00 00 00 00 92 98 fd bb 00 00 00 00
       -0.034365322 0.0 -0.007739135 0.0
000030 00 00 00 00 00 00 00 00 00 00 00 00 00 00 00 00
       0.0 0.0 0.0 0.0
000040 2f 60 ab bb 00 00 00 00 00 00 00 00 fd 55 e3 bb
       -0.005229972 0.0 0.0 -0.006937741
000050 51 6d f1 bb 00 00 00 00 00 00 00 00 00 00 00 00
       -0.007367768 0.0 0.0 0.0
000060 00 00 00 00 00 00 00 00 23 2c 01 bc 00 00 00 00
       0.0 0.0 -0.007884058 0.0
000070 00 00 00 00 00 00 00 00 00 00 00 00 00 00 00 00
       0.0 0.0 0.0 0.0
000080 00 00 00 00 f1 e9 5d 3b 22 e2 12 bc 00 00 00 00
       0.0 0.0033861364 -0.008965047 0.0
000090 6e fa 28 bc 9d 5c f8 bb cc c9 c4 bb ce c2 04 bc
       -0.010313613 -0.0075793997 -0.0060055014 -0.008103086
0000a0 e5 66 fe bc 00 00 00 00 4b c9 c4 bb 00 00 00 00
       -0.031054923 0.0 -0.0060054413 0.0
0000b0 00 00 00 00 62 87 42 3b 00 00 00 00 6e ee af bb
       0.0 0.0029682745 0.0 -0.005368999
0000c0 53 b3 5a bb ae 04 9b bc 07 d4 f4 bc 00 00 00 00
       -0.0033371046 -0.01892313 -0.029886259 0.0
0000d0 1e f3 54 bc 00 00 00 00 a7 c5 a2 3b a3 c9 c4 bb
       -0.012997417 0.0 0.0049674097 -0.0060054823
0000e0 00 00 00 00 00 00 00 00 00 00 00 00 a2 11 02 bd
       0.0 0.0 0.0 -0.031755097

K f4 [8, 60]
000000 a4 d6 a0 3b 13 5e 97 3e 75 e1 af 3c b1 d4 a3 3c
       0.0049083997 0.2956396 0.021469811 0.01999888
000010 30 ea f5 bd 2a 4a db bc 92 bb 1f 3d e9 6a 47 bd
       -0.12007558 -0.026768763 0.03899724 -0.04868594
000020 ac 71 00 bd 00 4d 3d 3b 80 64 7f bc ea cb e7 ba
       -0.031358406 0.0028885007 -0.015587926 -0.0017684672
000030 1b 6d 46 3d 62 5f 74 ba 38 83 4b 3c 0e 91 4e 3d
       0.048443895 -0.00093220745 0.012421422 0.050431304
000040 c6 de 85 3d 02 1d 64 bc df be 00 bc ee 99 4c bd
       0.06536631 -0.013922932 -0.007858007 -0.049951486
000050 f0 8b 35 bd 9f 36 52 3c 7f cc b7 3c bb bc 2f 3d
       -0.044322908 0.0128304055 0.022436379 0.042904597
000060 94 63 73 bf 50 ec d7 3c 91 9a a9 3c c3 e5 f7 3c
       -0.9507382 0.0263578 0.020703586 0.030260926
000070 51 e9 e9 3b 35 5c 01 bc f3 2c 92 3d 4e c3 2a be
       0.007138409 -0.007895519 0.0713748 -0.16676065
000080 e9 ce 2d bc 44 64 b8 3c 9a 9d 1c bc 13 a3 4b bd
       -0.010608413 0.022508748 -0.0095590595 -0.049716067
000090 21 3c 2b 3d 64 31 20 bd 0b 3b 91 3d df 7d ac bd
       0.04180539 -0.039109603 0.0709134 -0.084224455
0000a0 86 3e 45 bf 0c 35 43 3d 91 a2 59 3c 71 63 66 3d
       -0.7704853 0.04765801 0.013283388 0.05624718
0000b0 74 59 d1 bc 99 f8 29 3c d4 70 87 3d ba 88 6a 3d
       -0.02555535 0.010374212 0.06613317 0.0572593
0000c0 50 dc 59 be db 04 f1 3e 3f 9b 73 bd 62 38 44 bd
       -0.21275449 0.47074017 -0.059474226 -0.047905333
0000d0 0d d9 19 bc 41 c8 10 3d 11 4e b1 3c 3f 30 a0 3d
       -0.009390128 0.035347227 0.02164367 0.07821702
0000e0 1a 89 5a 3c bd 23 e2 bc 42 b6 1e bb 73 73 7a 3c
       0.013338352 -0.027604932 -0.002421752 0.015286314
0000f0 2b 7b 23 bc 9a 85 24 3f 75 6d d9 3e b3 e5 e3 3c
       -0.009978096 0.6426636 0.42466322 0.02781949
000100 ff 5f fa bd 3c 2d 66 3b df 9b 97 3e 0b 9c 27 3e
       -0.12225341 0.0035122177 0.29611108 0.1636812
000110 ef 9d 05 bc d7 5c ac 3b cf cb 31 3b bf 63 4f bb
       -0.00815533 0.005260091 0.0027129536 -0.0031645147
000120 b4 2e 8f 3e f5 2e 73 39 71 c7 ef 3c bb 9c 85 3e
       0.2796532 0.00023191779 0.029269906 0.26096138
000130 65 57 ab 3e 51 ed a9 bc be 67 69 bb 5c c2 47 bd
       0.33465114 -0.020743044 -0.0035614814 -0.04876934
000140 9b 92 87 bb 00 65 91 bb 03 96 34 3c fc 29 a0 3e
       -0.00413735 -0.004437089 0.011022094 0.31282032
000150 c7 be 5a bf f8 47 95 3c 0b 5a 3e 3c dd 88 73 3c
       -0.85447353 0.018222794 0.011618148 0.014864174
000160 b9 5e 36 3c 39 e2 90 bc 16 75 b1 3e 16 81 1a be
       0.011130982 -0.017685996 0.34659642 -0.15088305
000170 1e 8a 52 bc cb 8a c3 3c ec 03 20 3c 96 72 fc bc
       -0.0128503125 0.023869893 0.00976656 -0.030816358
000180 d3 62 88 3e 01 d0 f7 bc 86 68 8d 3e b1 7e f2 be
       0.26637897 -0.030250551 0.27618808 -0.47362283
000190 8c 60 52 bf 57 0c 93 3e c3 4b c9 3c fe 72 83 3e
       -0.8217857 0.28720352 0.024572259 0.2567367
0001a0 68 f8 63 bc e8 09 c7 3e bf 86 9b 3e c1 24 96 3e
       -0.013914205 0.38874745 0.3037624 0.29324916
0001b0 87 d3 67 be 61 6d 4f 3e 2a cb 68 bd 13 3a 2b bd
       -0.22639285 0.20256568 -0.056834377 -0.04180343
0001c0 76 b5 ea 3b 1d 26 58 3c ff f6 db 3c 76 e6 91 3e
       0.007162745 0.013192681 0.026851175 0.2849614
0001d0 5d 14 b8 3c 26 a3 d4 bb c0 f6 8e bc a2 23 5a bc
       0.022470647 -0.0064891754 -0.017451644 -0.01331416
0001e0 92 1e 76 bc 0d 20 7f 3e 08 e3 04 3d 72 da 34 bd
       -0.015021937 0.2491457 0.032443076 -0.04415364
0001f0 52 6f 96 bd bd ac 3d bd 20 67 e4 3b 57 df 49 bc
       -0.073454514 -0.046307314 0.0069703013 -0.012321315
000200 ff eb a2 bd fa bc e8 bc 9d 74 1a bd 71 de 62 bc
       -0.07955169 -0.028410424 -0.037708867 -0.0138469795
000210 0f 1a b3 bc 3b 16 45 bc 4d d6 d8 bc f8 ba 17 bc
       -0.021863012 -0.012029226 -0.026469374 -0.009260885
000220 8b 08 10 bc c3 29 bc bd fe e7 ff bc b5 a2 10 bd
       -0.008791099 -0.09187653 -0.031238552 -0.03531142
000230 d5 67 7b bd d7 6e 82 bc 4b b7 ad bc 2a ed 86 bc
       -0.06137832 -0.015921993 -0.021205565 -0.01647051
000240 a5 7a 11 3f 90 f4 ca bc 3e c8 95 bc f9 36 00 bd
       0.56827766 -0.02477482 -0.01828396 -0.031302426
000250 67 56 3d bd e4 1b bc bd eb 28 03 3d 1b 8e 14 be
       -0.046224978 -0.09185007 0.032021444 -0.14507334
000260 29 0d 3d bc d9 e4 ed bc 30 46 8d 3b c5 38 b0 bd
       -0.011538782 -0.029039787 0.0043113455 -0.08604578
000270 e4 e2 20 bc 13 42 05 bd e8 0c 80 ba fe a6 55 bf
       -0.00981972 -0.032533716 -0.0009769471 -0.83457935
000280 14 fd 05 3f 76 b3 1c bb 33 87 de bc 8a fb 54 bb
       0.5233929 -0.0023910678 -0.027164077 -0.0032498562
000290 0b 23 91 bd 97 24 0e 3d b2 a7 90 bc 27 b8 17 3c
       -0.07086762 0.034702864 -0.017658088 0.009260214
0002a0 05 67 81 be 85 ad 0b 3f 3e c1 85 bd c4 a4 bb bd
       -0.2527391 0.54561645 -0.06530999 -0.09162286
0002b0 42 c3 e9 bc ff c0 7d bc e1 2f e2 bc 0f 56 78 bb
       -0.028535489 -0.015487908 -0.027610721 -0.0037893092
0002c0 dc 42 95 bc 4b 32 a2 39 f9 e1 4c bd 57 a0 33 be
       -0.018220358 0.0003093652 -0.05002019 -0.17541634
0002d0 d9 d5 38 ba 5f 53 03 3f 13 9b b5 3e bf a9 c5 3c
       -0.0007050909 0.5129909 0.35469875 0.024128793
0002e0 57 1d 00 be b3 a5 07 bd 61 00 6f 3e 46 3b 25 3e
       -0.12511192 -0.033117007 0.23339988 0.16135892
0002f0 e3 b6 a2 bc b7 dc 82 3c 1a 8e 25 bb 94 26 b8 bb
       -0.019862598 0.015974386 -0.00252617 -0.0056198332
000300 10 de 6f 3e f5 53 cf 3b 88 c5 b2 3c f5 ac 55 3e
       0.23424554 0.006327147 0.021822706 0.20866759
000310 56 97 70 3e 3b 5a 10 bd 54 52 07 bc 13 89 4d bd
       0.2349523 -0.0352423 -0.008259375 -0.050179552
000320 45 36 de bc 1e ac c8 3c f1 69 85 3c bd f9 7f 3e
       -0.027125487 0.024496134 0.016285868 0.24997611
000330 8c 36 21 bf 8f 10 5d 3c f9 6d ad 3c 1e 96 5f 3c
       -0.62973857 0.013492717 0.021170603 0.013646631
000340 9a 4c 32 3c e0 be d9 bc 98 7d 93 3e de ff 15 be
       0.010882521 -0.026580274 0.28806758 -0.14648387
000350 91 4b 78 3c aa 90 b6 3b ef e7 e8 bb 59 b7 e3 bc
       0.015154735 0.0055714445 -0.0071077268 -0.027797388
000360 31 86 72 3e 51 dc 67 bd 56 ca 4a 3e 0e 8a d0 be
       0.23684002 -0.056606594 0.19803748 -0.40730327
000370 17 63 06 bf dc 99 61 3e 3e 6d 9f 3c b1 00 53 3e
       -0.5249495 0.22031349 0.01946127 0.20605733
000380 b9 72 c4 bc 1b 71 9f 3e bd 04 61 3e 9e 49 6c 3e
       -0.023980485 0.3114098 0.21974464 0.23074958
000390 96 41 a8 be f0 62 a4 3e 28 68 23 bd c4 ca 4d bd
       -0.32862538 0.32106733 -0.039894253 -0.0502422
0003a0 de 25 6a 3b a4 6f 8c 3b a6 53 83 3c f5 c6 4a 3e
       0.0035728137 0.0042857695 0.016031098 0.19802459
0003b0 b8 c8 ed 3c 48 1b ba bc cb b3 06 bc 02 22 87 bd
       0.029026374 -0.022718087 -0.008221577 -0.06598283
0003c0 12 c7 48 3b df fc 14 3f e0 09 d8 3e b5 1a 3d bd
       0.0030636233 0.5819835 0.42195034 -0.046168048
0003d0 f9 0d dd bd 75 9c b5 bb 03 dd b1 3e a5 dc bd 3e
       -0.10793681 -0.005542333 0.3473893 0.370824
0003e0 bf ff 96 bd 22 1a 03 bd 25 91 da bc 27 46 53 bc
       -0.073729984 -0.032007344 -0.026680538 -0.012895144
0003f0 3e eb ba 3e 1e 0f da 3b b3 48 cf bc bc 84 b1 3e
       0.365076 0.006654634 -0.02530322 0.3467158

a f4 [60]
000000 bb 6f 7f 3c e2 f6 92 3e b9 b8 8f 3e f4 ab 10 3d
       0.015590603 0.28703982 0.2807062 0.035320237
000010 38 83 4a be ba 4a 04 be db ed 2b 3e de 7f 77 3e
       -0.19776618 -0.12919131 0.16789953 0.24169871
000020 a4 29 fb bd be 0b fc bc 56 6b f6 bc c0 7d 19 3b
       -0.12263802 -0.030767318 -0.030080479 0.00234209
000030 be ac 35 3e db d7 b4 3a 30 40 4e 3d c6 58 1a 3e
       0.17741677 0.001379724 0.050354183 0.15072927
000040 9d dd 27 3e e6 ef fa bd 76 2a e0 bd 3d 1c 14 bd
       0.16393133 -0.12252788 -0.10945599 -0.036159743
000050 7b 23 01 be 8a 72 b6 3c db 10 26 bd 47 8f 43 3e
       -0.12611191 0.022271413 -0.04054342 0.19097625
000060 b3 e1 ce 3e e6 87 31 3d a8 3e 20 bd 24 56 4d bd
       0.4040657 0.043342493 -0.039122254 -0.05013098
000070 e5 09 c8 3c 91 4c fa bd 71 68 64 3e a5 19 5d be
       0.02441878 -0.12221635 0.22305466 -0.21591814
000080 34 e7 be bd 75 54 15 bd 87 99 48 bb 40 4e 05 be
       -0.09321442 -0.036457498 -0.0030609088 -0.13018131
000090 ca 33 1f 3e 72 ff 2a bd 81 a1 03 3e 68 76 4d bf
       0.155471 -0.041747518 0.12854578 -0.802588
0000a0 9a 30 88 3e 5d a1 08 3e a8 93 04 bd 18 80 03 3e
       0.2659958 0.13342805 -0.03236738 0.12841833
0000b0 df e7 0b be d3 39 7b 3e 59 fb 1b 3e 53 29 16 3e
       -0.1366267 0.24533777 0.152326 0.14664201
0000c0 10 a7 b5 bd 5b c9 b9 be 29 a5 28 be 2a d7 15 be
       -0.08869755 -0.36286435 -0.16469254 -0.1463286
0000d0 d2 cf 71 bd ca fd e5 bc 52 5e db 3c 59 ae d5 3d
       -0.059036084 -0.028075118 0.026778374 0.10433645
0000e0 0d ea 2d 3d c6 03 26 bd b4 9b 1c bc 74 c2 2d 3e
       0.042459536 -0.040530942 -0.009558607 0.16968709

b f4 [60]
000000 00 00 00 00 2c 76 f0 be f6 22 1a be 36 53 b0 bc
       0.0 -0.46965158 -0.15052399 -0.021524053
000010 5b a8 2c be 85 90 e4 bd 14 e1 c3 bd d5 1c 04 bd
       -0.16861098 -0.111603774 -0.095644146 -0.03225406
000020 e9 0e ee bd fc ac 1e bd 4d 7e b5 bc 8f ab f2 bb
       -0.11623938 -0.03873919 -0.022154951 -0.0074057053
000030 ee f5 ac bd 00 00 00 00 32 2d b7 bc 5a 80 bd bd
       -0.08445345 0.0 -0.022360418 -0.09252997
000040 a3 eb f5 bd 9e 0d e5 bd 41 eb c5 bd cc a7 63 bd
       -0.12007835 -0.11184238 -0.09664012 -0.055579945
000050 03 e0 f0 bd 8a 4b 72 bc a2 96 1c bd ad 16 bc bd
       -0.11761477 -0.014788518 -0.038229592 -0.091840126
000060 1b e8 8b 3f 8a 7d b6 bc dd 76 04 bd 95 67 1a bd
       1.0930208 -0.022276659 -0.03233992 -0.03769644
000070 a6 1a 99 bc 5b aa e7 bd 5b ce 29 be a5 3e 3e be
       -0.018689465 -0.113117896 -0.16582625 -0.18578584
000080 55 7c a9 bd 8c df 09 bd 02 cd b3 bc 2f b5 eb bd
       -0.082756676 -0.033660457 -0.021948341 -0.115091674
000090 cc b5 a8 bd a3 24 1b bd 06 03 e2 bd 87 83 84 3f
       -0.082378 -0.037876736 -0.11035733 1.0352639
0000a0 e2 e3 72 3f 83 98 c8 bd e0 a6 b5 bc 57 ae ca bd
       0.9487897 -0.09794714 -0.022174299 -0.09896534
0000b0 73 f5 ed bd 61 92 0a be 6d 86 db bd b3 b5 fc bd
       -0.11619081 -0.13532402 -0.10718999 -0.12339344
0000c0 d3 65 64 3d e8 75 ef bc 9c 47 11 be db a6 0a be
       0.05576117 -0.029231027 -0.14187473 -0.13540213
0000d0 a4 d3 29 bd d5 5f b5 bc fd e1 9f bc c6 fb 02 be
       -0.0414616 -0.022140423 -0.01951694 -0.12791356
0000e0 80 fb b6 bc ca fd b2 bd 38 54 5d bd 17 84 29 bd
       -0.022336721 -0.08739813 -0.054035395 -0.041385736

K f4 [8, 60]
000000 2d a7 c5 3a 7e 62 a1 3c dc d3 b3 39 17 2f a9 be
       0.001507973 0.019700285 0.00034299388 -0.3304374
000010 54 f2 53 3c 93 30 e1 3c bd 13 a9 3c 1f 71 9f 3c
       0.0129361935 0.027488982 0.020639295 0.01946312
000020 09 4f 6d 3c b7 3e 80 bb 82 e3 0e 3d 60 fb 1b be
       0.0144841755 -0.003913726 0.034884937 -0.1523261
000030 2a ff 89 3b 14 d8 e8 3c a2 ea 97 3c 8e 68 17 3b
       0.004211326 0.028423347 0.018544499 0.002310309
000040 9c eb d8 3b a3 84 8c 3c 02 ad 8a 3b 15 2a b4 3c
       0.0066198837 0.01715309 0.00423205 0.021992723
000050 e6 15 ca bc 85 4a 83 3f 6c 88 ae bc 97 ec 03 3e
       -0.024668645 1.0257117 -0.021305285 0.1288322
000060 0c 30 bb bc b5 9c 6e 3c 7f ad 9f 3e 34 0c c3 bd
       -0.022850059 0.014563729 0.31187055 -0.09523812
000070 8b e0 89 3c d6 a8 e3 3c 76 bf 8d 3c 4f b5 f0 bd
       0.016830703 0.027790468 0.01730321 -0.11753332
000080 bc 8d b1 bc 0a 89 d4 3c 37 68 9a bc ae 6a 44 bc
       -0.02167403 0.025944252 -0.018848522 -0.011988325
000090 d3 95 85 be e5 bd 13 bc 62 e8 31 bc 0b 43 9c 3c
       -0.2609087 -0.009017442 -0.010858627 0.019074937
0000a0 36 d8 14 3f 7e 89 42 bf 36 7a 96 3e 46 b8 42 3c
       0.5814241 -0.75991046 0.29390115 0.0118847545
0000b0 e0 d1 a1 3e 35 65 25 3d 25 c5 56 bb 60 9a 98 bc
       0.31605434 0.04037972 -0.0032771316 -0.0186283
0000c0 7d c0 c8 3e 26 78 c7 bb 61 a0 2e bd 53 c4 bb 3d
       0.39209357 -0.006087321 -0.042633418 0.09168305
0000d0 34 84 05 3c f7 20 a6 3b 98 55 11 bf 54 15 6c ba
       0.008149195 0.0050698477 -0.5677123 -0.00090058637
0000e0 13 0c c3 39 77 75 f5 3c 5d 34 90 3c 76 f9 49 bc
       0.00037202294 0.029963238 0.017603094 -0.0123275425
0000f0 2e df ae 3b f3 27 78 bc 38 35 0c 3c 1a 32 f9 be
       0.0053366637 -0.015146243 0.00855761 -0.48671037
000100 62 71 b6 bb 16 41 dd 3d 5f a9 33 bc ab a9 e6 3d
       -0.0055677155 0.1080343 -0.010965674 0.1126283
000110 c5 a4 95 3a 06 06 5f bc d2 8c e2 3d 0b 30 dd 3d
       0.0011416903 -0.013612276 0.110620156 0.10800179
000120 e3 42 f0 3d b2 de e6 3d 46 e4 e2 bb 57 98 73 3a
       0.11731508 0.112729445 -0.006924185 0.0009292415
000130 8e af 89 bc 33 58 d2 3d 3b 34 6e bb 82 c5 db 3d
       -0.016807344 0.10270729 -0.003634705 0.10731031
000140 43 b7 b3 bc 30 d6 d3 be 9e 52 7e 3c 7d fa ca 3e
       -0.021937972 -0.4137435 0.015522627 0.39644232
000150 a7 86 cd bc 1b 61 41 bc 02 38 eb 3e 2b b0 df 3c
       -0.025088621 -0.011802937 0.45941168 0.027305683
000160 ee f2 f0 3d 05 37 00 3e 08 de ce bc c2 c3 a2 bd
       0.11765085 0.12520988 -0.025252357 -0.07947494
000170 3f 2e 81 bb 13 0e d0 3d a4 45 72 3e d6 c0 2d bc
       -0.0039422805 0.101589344 0.23659378 -0.010605058
000180 e8 23 52 bf 19 96 49 3b d3 12 21 3b 31 d7 dc 3d
       -0.8208604 0.0030759631 0.002457787 0.10783232
000190 20 48 20 3f c0 96 af be 0f ea 93 3e fd ad d0 3d
       0.62610054 -0.342947 0.2888951 0.10189436
0001a0 d5 b3 00 3f 85 7e 9b 3e e3 93 8f 3a 78 54 1d bc
       0.502744 0.30369964 0.0010954108 -0.009602658
0001b0 e7 b6 89 3e 5c 12 89 3c 4a 1b bd bc 6e a9 33 3d
       0.26897356 0.016732387 -0.023084302 0.043862753
0001c0 bf 17 0c 3c f8 22 b1 3b 3c 24 0b bf 64 8a 31 3c
       0.008550583 0.00540578 -0.54352164 0.010836218
0001d0 26 f4 79 ba 7d 66 eb 3d d9 09 aa bb 1d 1c 2c bb
       -0.0009534977 0.114941575 -0.005189162 -0.0026261874
0001e0 90 86 5e bc a8 73 75 bd 4b 8b ea ba af 5d d3 3e
       -0.013581887 -0.05992475 -0.0017894296 0.41282412
0001f0 c9 38 1d bd dd dd 3b 3e b4 df 11 bc 40 3b 35 3e
       -0.038384233 0.18346353 -0.008903433 0.17698383
000200 ac 53 5d 3b fb 49 30 bd a4 3d 36 3e 32 42 87 bc
       0.0033771796 -0.043039303 0.17796952 -0.016511057
000210 4e 1a 2a 3e e0 a9 32 3e cf 61 0e bc cf 36 25 bc
       0.16611597 0.17447615 -0.008690312 -0.010083868
000220 56 68 17 bd 1a 2f 24 3e 95 2d bf bc 33 6f 34 3e
       -0.036964737 0.16033593 -0.023337165 0.17620544
000230 f6 87 23 bd 2e 33 62 be 9c f6 22 be 94 c8 f7 be
       -0.039924584 -0.22089836 -0.15914387 -0.48395216
000240 8d 5f 69 bd c0 86 09 bc ee 93 9d 3d 65 c6 86 3e
       -0.05697589 -0.008393943 0.07694231 0.26323238
000250 af ac 36 3e ab ea 39 3e 64 9c 85 bc 57 a5 10 bf
       0.17839311 0.18155925 -0.016309924 -0.5650229
000260 c2 30 35 bd 9a f6 31 3e 68 fa cb 3c 9b 6a 1b bd
       -0.044235952 0.17379227 0.024899676 -0.037943464
000270 06 9f 40 3f 83 1d fc 3a fc 76 7d 3b e7 46 35 3e
       0.7524265 0.0019234869 0.0038675657 0.17702828
000280 41 3c 50 3d 77 b8 98 3e 5b 90 ec 3e 1d 58 31 3e
       0.050838713 0.29828236 0.46203884 0.17318769
000290 e4 75 a1 bd 3b 27 93 be 0e 59 35 3c 05 fa 01 bd
       -0.07883814 -0.28740868 0.011068596 -0.031732578
0002a0 66 b7 62 3e 70 da fe bc 67 be 66 bd 65 03 64 3e
       0.22140273 -0.031110018 -0.056333926 0.2226692
0002b0 2e 0c 29 bc c1 ca a9 bd 1d 92 06 3f 41 c3 36 bd
       -0.010317845 -0.08290625 0.525667 -0.044619802
0002c0 22 84 c8 bb e3 b9 3b 3e ee 37 2e bc 11 b2 df bc
       -0.006119267 0.18332629 -0.010633452 -0.027306588
0002d0 16 4a a0 3b 41 ce 85 3c 8b a4 f5 3a 34 ae a9 be
       0.004891644 0.016333701 0.0018741054 -0.3314072
0002e0 e5 fc 80 3b 9b 48 8e 3e c9 d3 84 bc c1 b4 86 3e
       0.0039363974 0.2778977 -0.016214268 0.2630978
0002f0 5e 9b 90 3c 75 77 55 bb 21 0c 7f 3e e4 36 aa 3d
       0.01765221 -0.0032572423 0.2490697 0.08311251
000300 68 c3 89 3e 8e 34 8d 3e cf bf cf 3a 82 d2 ce bb
       0.26906896 0.2757916 0.001585001 -0.0063117156
000310 79 71 a3 bc 95 c6 82 3e 4f 54 8d bb e4 90 76 3e
       -0.019951569 0.2554213 -0.004313029 0.24078709
000320 1b 05 c0 bc d0 67 7c bf 66 bc ee ba ee 4b 5e 3f
       -0.023439934 -0.98595905 -0.0018214106 0.8683461
000330 9f 65 2c bd d1 61 57 bc 99 07 0e 3f 8f 7f c8 be
       -0.0420891 -0.01314588 0.55480343 -0.3915982
000340 bd 51 97 3e 48 bb 8d 3e f3 a8 da 3a 44 ac ac bd
       0.2955455 0.27681947 0.0016682431 -0.084312946
000350 a0 d5 2c bc 10 ef 88 3e 81 04 ea 3e da 94 10 ba
       -0.010548979 0.2674489 0.4570656 -0.00055153447
000360 be fe 22 3f 36 fe 40 bc 37 cd e0 3b 85 00 72 3e
       0.63669956 -0.011779359 0.006860401 0.2363301
000370 c1 d2 c9 3e f8 a2 59 bd e0 e0 60 3e 68 5d 82 3e
       0.39418605 -0.053133935 0.21960783 0.25461888
000380 6f 86 cd 3c 44 33 36 3d d6 21 37 bb c2 a5 9e bc
       0.025088517 0.044482484 -0.0027943752 -0.019366149
000390 ae fe 90 be 4a 64 b3 3c 63 06 0e bd 6a 2c 08 be
       -0.28319305 0.021898407 -0.03467406 -0.13298193
0003a0 b0 f4 79 bc 5d 94 45 bb 42 0b 2e be 3b e8 37 3b
       -0.015256092 -0.0030148246 -0.16996482 0.0028062004
0003b0 89 31 7d 3b 4e 35 94 3e d4 db 40 3b d2 8e 11 bd
       0.0038634262 0.28946918 0.0029427903 -0.035536595
0003c0 e2 39 f8 bb 35 72 41 bd 79 8d c5 bb 7c d1 0a 3f
       -0.0075752595 -0.047228057 -0.0060288277 0.542259
0003d0 20 63 ed bc 34 dd ae 3e a9 f2 af bb a0 fb aa 3e
       -0.02897793 0.3415314 -0.0053695035 0.333951
0003e0 f3 6a b4 bc 42 d5 45 3b 4d e6 b0 3e 47 6d 9f be
       -0.022023654 0.0030186926 0.34550706 -0.3113806
0003f0 62 9a ad 3e c2 61 ac 3e 50 b3 ea 3a 4b 4a b5 bb
       0.33906847 0.33668333 0.0017906222 -0.005532538
