learner_tingwei/model/testcase_1_distsquare_eps_0.0004_l_0.004_auglag_lbfgsiters_100addloss_0_adddim_0__seed_1/model94000.pkl (torch, 24480 bytes, 22 tensors)

Qincpt f4 [1, 1, 8]
0	0x3f837223	1.0269207
1	0x3f6343c9	0.88775307
2	0x3f86bc19	1.0526153
3	0x3f4db88b	0.80359715
4	0x3f8067f0	1.0031719
5	0x3f43740e	0.7634896
6	0x3f1ff876	0.62488496
7	0x3f48f130	0.7849302

Qslope f4 [1, 1, 8]
0	0x3f0a03ff	0.5391235
1	0x3f90ddbc	1.1317668
2	0x3e1777d9	0.14791812
3	0x3f80b614	1.0055566
4	0x3ec882a2	0.39162165
5	0x3f4ec62f	0.80771154
6	0x3fdfe4e5	1.7491728
7	0x3f55f488	0.8357625

Pincpt f4 [1, 1, 8]
0	0x3f99996d	1.1999947
1	0x3f5fb3f6	0.87383974
2	0x3fa4804e	1.2851655
3	0x3f35984b	0.70935506
4	0x3f65c2a8	0.89750147
5	0x3f9588f2	1.1682417
6	0x3eae5fe0	0.34057522
7	0x3f705f64	0.93895555

K f4 [8, 60]
0	0x3db4b8d3	0.08824315
1	0xbbf5d601	-0.007502318
2	0xbbd64be5	-0.006539809
3	0xbc9eb171	-0.01937172
4	0xba834a87	-0.0010016718
5	0xbbc79e78	-0.006091889
6	0xbc2086a0	-0.009797722
7	0x3dbc61a9	0.09198315
8	0xbbe95b05	-0.007121446
9	0x3dde0d81	0.108424194
10	0x3dc28ab5	0.094991125
11	0xbc510395	-0.012757202
12	0xbb11aacd	-0.002222705
13	0x3c08d491	0.008351461
14	0x3dd7f972	0.10545625
15	0x3b993c1c	0.004676355
16	0xbbe46244	-0.006969722
17	0xbc3e2ddd	-0.011607614
18	0x3be539de	0.0069954237
19	0x3b827118	0.003980767
20	0x3dcb4b7a	0.099265054
21	0x3dd45679	0.10368056
22	0xbd1cee97	-0.038313475
23	0x3c0444f6	0.008073082
24	0x3c347fd7	0.0110168075
25	0xbae69a57	-0.0017593604
26	0xbcf70386	-0.030153047
27	0xbc6cfcd8	-0.0144645795
28	0x3dd51521	0.10404421
29	0xbc6255f2	-0.013814436
30	0xbc02c176	-0.007980695
31	0xbaac856b	-0.001316232
32	0x3c99f4bc	0.018793456
33	0xbc493344	-0.012280289
34	0x3dd31e09	0.10308463
35	0x3dc1f82c	0.09471163
36	0x3dcb4cb4	0.09926739
37	0xbc1e37b4	-0.009656835
38	0x3ac87bd3	0.0015295692
39	0x3dbf4877	0.093399934
40	0xbbe92838	-0.00711539
41	0x3b3fd8d3	0.0029273524
42	0xbacee40b	-0.0015784515
43	0xb996ed72	-0.0002878714
44	0x3dfa473e	0.122206196
45	0xbc89e8e4	-0.016834684
46	0x3de96910	0.11396992
47	0x3dc1dce6	0.09465961
48	0xbc17f1a0	-0.0092739165
49	0xbb96b7df	-0.004599556
50	0xbbaf0fc0	-0.0053424537
51	0xbb8f3595	-0.004370401
52	0x3bf9e395	0.007626007
53	0x3b90ac9f	0.0044151093
54	0x3de2bbd0	0.11070979
55	0x3ca519d4	0.020153917
56	0x3dd0d03b	0.10195967
57	0x3c19c99d	0.009386447
58	0xbc1b957f	-0.009496092
59	0x3dc5b504	0.096536666
60	0x3e3625fc	0.17787927
61	0xbc0e7925	-0.008695875
62	0xbd0871ad	-0.033311535
63	0xbbe198ac	-0.006884655
64	0xb985b546	-0.00025502796
65	0xbc27a998	-0.010233305
66	0xbbc35bae	-0.005961857
67	0x3e219eeb	0.15783279
68	0xbb0a05e0	-0.002106063
69	0x3e26911c	0.16266292
70	0x3e357d06	0.17723474
71	0xbc261468	-0.010136701
72	0xbbe6ac2a	-0.0070395665
73	0xbc29f05d	-0.0103722485
74	0x3e1a4d4b	0.15068547
75	0xbc083160	-0.008312553
76	0xbb971154	-0.00461022
77	0xbbb7871e	-0.005600824
78	0x3b819f56	0.003955762
79	0xbc2d01b1	-0.010559485
80	0x3e13c0fd	0.14429088
81	0x3e22654c	0.15858954
82	0xbd1c6105	-0.038178463
83	0x3befc2ea	0.0073169367
84	0xbc6b0282	-0.01434386
85	0xbba41b3e	-0.0050081303
86	0xbbc3f997	-0.005980681
87	0xbad1b4c9	-0.0015999313
88	0x3e274aa4	0.16337067
89	0xbc4f5bbc	-0.0126561485
90	0xbc2a9714	-0.010411996
91	0x3beff306	0.007322672
92	0xbc2bc28e	-0.010483397
93	0xbc853fad	-0.016265715
94	0x3e260c72	0.16215685
95	0x3e3771bc	0.1791448
96	0x3e25aa7f	0.1617832
97	0x3aea2dfe	0.001786649
98	0x3c05c7e9	0.008165338
99	0x3e1a69d6	0.15079436
100	0x3c008da1	0.007846267
101	0xbc055730	-0.008138463
102	0xbc17f961	-0.009275765
103	0x3c362f19	0.011119627
104	0x3e2cb58d	0.16866131
105	0xb9db6d45	-0.00041852347
106	0x3e1fc4b7	0.15602385
107	0x3e236a16	0.15958437
108	0xbcac33e4	-0.021020837
109	0xbc852020	-0.01625067
110	0xbcaa4ab0	-0.020787567
111	0xbc39b300	-0.011334181
112	0x3c0f29ab	0.008737962
113	0xbbb795f8	-0.0056025945
114	0x3e2c80c5	0.16845997
115	0x3c05d412	0.008168237
116	0x3e22f337	0.15913092
117	0x3b47f486	0.0030510738
118	0xbb155f75	-0.0022792493
119	0x3e211665	0.15731199
120	0x3d33403f	0.04376244
121	0xbb18eff7	-0.002333639
122	0xb90d43f9	-0.0001347213
123	0xbc6946b7	-0.014238051
124	0xbca23c22	-0.019804064
125	0x3c935704	0.017985828
126	0x3a85724d	0.0010181159
127	0x3cf055bc	0.029337756
128	0x3be96d79	0.007123646
129	0x3b47042c	0.0030367477
130	0x3c9ef531	0.019404026
131	0x3b00d87a	0.001966028
132	0xbb469287	-0.003029974
133	0xbcd513ff	-0.026010511
134	0x3ce98ba7	0.028508974
135	0xbc03c944	-0.008043591
136	0xbc83fb76	-0.016111117
137	0xbc995291	-0.018716129
138	0x3bb1f529	0.0054308367
139	0xb9ce91d3	-0.0003940003
140	0x3cf75e30	0.03019628
141	0x3cbe86f8	0.023257717
142	0xbc6ebc57	-0.014571271
143	0xbc92fca4	-0.017942734
144	0xbc5f5b90	-0.01363267
145	0xbc211738	-0.009832196
146	0x3bf77756	0.0075520677
147	0x3bd25407	0.0064187082
148	0x3cc001d7	0.023438377
149	0xbc4138e4	-0.011793349
150	0x3bb4ac4e	0.0055137044
151	0xbc7d8570	-0.0154737085
152	0x3ba9c66b	0.005181124
153	0xbc290ff4	-0.010318745
154	0x3cb80e9e	0.022467908
155	0x3cecedbf	0.02892196
156	0x3cfc0afe	0.03076696
157	0x3c0d1ef1	0.008613334
158	0xbbe7768e	-0.0070636934
159	0x3d18b8c1	0.03728557
160	0xbaefd72d	-0.001829838
161	0xbb0b683b	-0.0021271843
162	0xbc099e60	-0.008399576
163	0xbb89a1a7	-0.0042001787
164	0x3bfb3f98	0.007667493
165	0xbc84aa67	-0.016194535
166	0x3cb39e0d	0.02192595
167	0x3ce25c31	0.02763185
168	0x3b4ae24a	0.0030957633
169	0x3badc5e6	0.0053031323
170	0x3bc6269a	0.006047082
171	0xbc94bbb4	-0.01815591
172	0xbb8434d0	-0.004034616
173	0xbc1d2574	-0.009591449
174	0x3c522b94	0.012827773
175	0xba4ebc77	-0.000788636
176	0x3cc1306b	0.023582658
177	0x3c3efd0e	0.011657013
178	0xbb14d42c	-0.0022709472
179	0x3d0e5140	0.034745455
180	0x3e61d01c	0.22052044
181	0x3ab97e67	0.0014152051
182	0xbad68380	-0.0016366094
183	0xbb661859	-0.0035109727
184	0x3c8d16d0	0.017222792
185	0xbb46f389	-0.003035756
186	0x3b1c8c70	0.0023887418
187	0x3e806b9d	0.25082102
188	0x3a874ccc	0.001032257
189	0x3e7737bd	0.24142356
190	0x3e6537be	0.22384545
191	0xba3be9ba	-0.0007168312
192	0xbbba4a92	-0.005685159
193	0xb849d313	-4.8118713e-05
194	0x3e7c16d7	0.24618088
195	0xbb0012d1	-0.0019542465
196	0x3ba8ba3b	0.0051491535
197	0xbc975869	-0.018474774
198	0xbceef086	-0.029167425
199	0xbb6b6667	-0.003591919
200	0x3e58610e	0.21130773
201	0x3e6eab1d	0.23307462
202	0xbd25c238	-0.040468425
203	0x3bae438f	0.005318112
204	0xbc7d429b	-0.0154577745
205	0xbae325c4	-0.0017329981
206	0xb998e8c7	-0.00029165132
207	0x3a159518	0.00057061156
208	0x3e72e8e1	0.23721649
209	0x3b407fc3	0.0029373027
210	0xbbaa96d8	-0.0052059703
211	0x3c5df7c0	0.013547838
212	0x3b1a22dc	0.0023519313
213	0x3bf91064	0.007600831
214	0x3e7ace80	0.24492836
215	0x3e74cd51	0.23906447
216	0x3e58a92e	0.21158287
217	0x3b217df7	0.0024641731
218	0x3c464cad	0.012103242
219	0x3e640661	0.22268058
220	0xbb7a50e1	-0.003819518
221	0xbbbc3062	-0.0057430724
222	0x3c6ebc41	0.01457125
223	0x3c9113a1	0.017709555
224	0x3e73dca7	0.23814641
225	0xbc2fff6d	-0.010742051
226	0x3e62e992	0.22159413
227	0x3e5baefe	0.21453473
228	0x3c4c50aa	0.012470404
229	0x3b34762a	0.0027536252
230	0xbb09592e	-0.0020957696
231	0x3b7dc323	0.0038721047
232	0xba5144ac	-0.000798295
233	0x3b5ff3d2	0.0034172428
234	0x3e6ca1ca	0.23108593
235	0xbc62be78	-0.013839357
236	0x3e767ba1	0.24070598
237	0xbcc1b8bb	-0.023647657
238	0xbc89ec03	-0.016836172
239	0x3e6e02e1	0.23243286
240	0x3e07e3d7	0.13270508
241	0x3c19c202	0.009384634
242	0x3c70243c	0.014657076
243	0xbd0f8b34	-0.035044864
244	0xbbf411c6	-0.007448408
245	0xbb047c5a	-0.002021572
246	0xbb1683e1	-0.002296679
247	0x3e0c4968	0.13699877
248	0x3b75f0d9	0.003752759
249	0x3e0e63eb	0.13905303
250	0x3e04117a	0.12897292
251	0x388d2d9c	6.731899e-05
252	0xba8a79fe	-0.0010564921
253	0xbca56931	-0.02019176
254	0x3e0c2ff2	0.13690165
255	0x3bb88574	0.005631143

a f4 [60]
0	0xbe578d9d	-0.21050115
1	0xb9a5900e	-0.00031578582
2	0xbbb7b18f	-0.0056058834
3	0x3c24cfe9	0.010059335
4	0x3bedf1e7	0.007261503
5	0x3bde77fe	0.0067892065
6	0xbb8cf5a2	-0.0043017427
7	0xbe65ab8f	-0.22428726
8	0xbc771e5b	-0.015082921
9	0xbe5f486d	-0.21804972
10	0xbe5bf3cc	-0.2147972
11	0x3b8c7474	0.004286343
12	0xbcb4180d	-0.021984125
13	0xbbba5fa9	-0.005687673
14	0xbe571ab6	-0.21006283
15	0xbccfa84b	-0.025348803
16	0xbc81d445	-0.015848288
17	0x3b0e1414	0.0021679448
18	0xbabb1f6d	-0.0014276333
19	0xbc0a80f2	-0.0084535945
20	0xbe42752f	-0.18990014
21	0xbe4e1a94	-0.20127326
22	0xbc1c30b8	-0.0095331
23	0xbbace69c	-0.005276514
24	0x3c31832d	0.010834497
25	0x3bee6014	0.007274637
26	0xba8098f7	-0.0009811212
27	0x3bafecdd	0.0053688125
28	0xbe57bca8	-0.2106806
29	0xbb8eb93d	-0.004355578
30	0x3b4110d2	0.0029459489
31	0xbbb8885c	-0.0056314897
32	0x3baa1047	0.0051899287
33	0x3b52657c	0.0032103946
34	0xbe525407	-0.20539866
35	0xbe5159dc	-0.20444435
36	0xbe441f03	-0.19152455
37	0xbb8bbe7b	-0.0042646504
38	0xbb0aa6a2	-0.002115645
39	0xbe4fc0d7	-0.20288406
40	0xbbbed4f6	-0.0058237268
41	0x3c67b38e	0.01414193
42	0xbc8ed942	-0.017437581
43	0x3a93f8ad	0.0011289321
44	0xbe4bf116	-0.19916186
45	0xbbaae0a5	-0.005214768
46	0xbe4d11cc	-0.2002632
47	0xbe4fc311	-0.20289256
48	0x3b632e53	0.0034665063
49	0x3b56bbbd	0.003276571
50	0xbbb4285a	-0.0054979743
51	0xbcc4feb5	-0.024047235
52	0x3c890d7f	0.016730068
53	0xbb95b127	-0.0045682373
54	0xbe48b405	-0.19599922
55	0x3c0ff969	0.008787491
56	0xbe4ef883	-0.20211987
57	0x3c348914	0.01101901
58	0xbab5cd03	-0.0013870302
59	0xbe5b820d	-0.21436329

b f4 [60]
0	0x3e41f442	0.18940833
1	0x00000000	0.0
2	0x00000000	0.0
3	0xbd0334d1	-0.03203279
4	0x00000000	0.0
5	0x00000000	0.0
6	0x00000000	0.0
7	0x3e513ee6	0.2043415
8	0x00000000	0.0
9	0x3e486831	0.19570996
10	0x3e3fec6f	0.18742536
11	0xbc20d36b	-0.009816031
12	0x00000000	0.0
13	0xbc0de9ea	-0.0086617265
14	0x3e43ce5c	0.19121689
15	0x00000000	0.0
16	0x00000000	0.0
17	0x00000000	0.0
18	0x00000000	0.0
19	0xbc108e5d	-0.008823005
20	0x3e279f37	0.1636933
21	0x3e39732e	0.18110344
22	0xbd01c390	-0.031680644
23	0x00000000	0.0
24	0x00000000	0.0
25	0x00000000	0.0
26	0xbbeed700	-0.0072888136
27	0x00000000	0.0
28	0x3e42654e	0.18983957
29	0xbbf0bea4	-0.007346945
30	0x00000000	0.0
31	0x00000000	0.0
32	0x00000000	0.0
33	0xbc4246ca	-0.011857698
34	0x3e3e4b50	0.18583417
35	0x3e3e57ab	0.1858813
36	0x3e2fff13	0.17187147
37	0xbc2799e0	-0.010229558
38	0x00000000	0.0
39	0x3e30b6d2	0.1725724
40	0xbbc4c45b	-0.0060048527
41	0x00000000	0.0
42	0x00000000	0.0
43	0x00000000	0.0
44	0x3e35cad1	0.1775315
45	0xbbd20d9c	-0.006410314
46	0x3e333066	0.17498931
47	0x3e3c3be1	0.18382217
48	0x00000000	0.0
49	0xbc296b63	-0.010340544
50	0xbbc4c5bd	-0.0060050176
51	0x00000000	0.0
52	0x00000000	0.0
53	0x00000000	0.0
54	0x3e359812	0.17733791
55	0x00000000	0.0
56	0x3e37843f	0.17921542
57	0x00000000	0.0
58	0xbbfa6337	-0.007641222
59	0x3e40d27b	0.18830292

K f4 [8, 60]
0	0xbc8f21cd	-0.017472172
1	0xbe679748	-0.22616303
2	0x3b48551d	0.003056831
3	0xbc31b003	-0.010845187
4	0xbd5e7537	-0.054311004
5	0xbd045fa4	-0.032317773
6	0xbc996000	-0.018722534
7	0xbd7704fe	-0.060307495
8	0xbd9280da	-0.07153483
9	0xbd02ace3	-0.03190316
10	0xbe0ce169	-0.13757862
11	0xbacf0b47	-0.0015796208
12	0xbbeeb895	-0.0072851875
13	0x3d4bd19b	0.049760442
14	0xbd2203f7	-0.039554562
15	0x3d4e8474	0.050419286
16	0xbd13f019	-0.036117647
17	0xbd39063d	-0.045171965
18	0x3d155da4	0.036466256
19	0x3c82fac6	0.015988719
20	0xbd264cb8	-0.04060051
21	0xbdd5b7fb	-0.10435482
22	0x3b8535c2	0.0040652463
23	0xbd627e44	-0.055296198
24	0x3bb83db5	0.0056225904
25	0xbd645828	-0.055748135
26	0x3d57d6ec	0.0526952
27	0x3e389431	0.1802528
28	0xbd8165b7	-0.06318229
29	0x3d7e45c8	0.062078267
30	0x3d489577	0.048970666
31	0xbc080b3b	-0.008303459
32	0xbc54d69e	-0.012990622
33	0xbc2d2796	-0.01056852
34	0xbd2f89bf	-0.042855974
35	0x3ba884f2	0.0051428014
36	0x3d59fca9	0.05321947
37	0xbd3c0989	-0.04590753
38	0x3d5c3406	0.05376055
39	0xbc6aecf6	-0.014338722
40	0xbc76ef49	-0.015071698
41	0x3d7a1ef3	0.06106467
42	0x3da3ccf3	0.07998075
43	0x3bbea4de	0.0058179935
44	0xbc699f0e	-0.014259113
45	0x3e87e3d3	0.26541004
46	0x3d336b96	0.043803774
47	0xbda763c4	-0.08173326
48	0xbcddd21a	-0.027077723
49	0xbd9c86ae	-0.076428756
50	0x3e0a4e95	0.13506539
51	0xbc6b84d7	-0.014374933
52	0xbddab4d8	-0.106790245
53	0xbd91452c	-0.070932716
54	0x3c895e9a	0.016768742
55	0xbc3c5cda	-0.011496747
56	0xbd17efce	-0.03709393
57	0xbd0b9ec9	-0.034086976
58	0xbccb4ce7	-0.024816943
59	0xbd42a3e5	-0.047519583
60	0xbc441f6e	-0.011970384
61	0xbe800602	-0.25004584
62	0xbb8fe84e	-0.0043917065
63	0xbcaabc57	-0.02084176
64	0xbd6fd299	-0.05855045
65	0xbc4fb6d2	-0.012677865
66	0x3e21f352	0.15815476
67	0xbd74ab25	-0.05973353
68	0xbd9404e9	-0.07227499
69	0xbd18bbc2	-0.037288435
70	0xbec7e9f5	-0.39045683
71	0xbca522de	-0.020158228
72	0xbc121d1f	-0.008918076
73	0x3ea292fb	0.31752762
74	0xbd34db07	-0.044154193
75	0x3ea6a8b0	0.32550573
76	0xbd28ce33	-0.041212272
77	0xbc52b7f3	-0.01286124
78	0x3ea25a47	0.317095
79	0x3c4631f0	0.012096867
80	0xbcdac1d3	-0.02670375
81	0x3d10580a	0.03524021
82	0x3a6cbd21	0.0009030868
83	0xbd5740e7	-0.05255213
84	0x3c4f7db8	0.012664251
85	0xbd659193	-0.056047034
86	0x3ea4a856	0.3215968
87	0xbb8f903f	-0.004381209
88	0xbd8464e0	-0.06464553
89	0x3e990bd9	0.29891852
90	0x3e9f7adc	0.31148422
91	0xba9628ab	-0.0011456212
92	0x3b8414b3	0.004030788
93	0x3c5b1069	0.013370612
94	0xbc7d5de9	-0.015464284
95	0xbd0b7685	-0.034048576
96	0x3e9d6347	0.30739805
97	0xbcc86d0b	-0.024466058
98	0x3e9d6340	0.30739784
99	0xbb5d506a	-0.0033769854
100	0xba9e9a05	-0.0012100345
101	0x3e935c8b	0.28781542
102	0xbd613327	-0.054980423
103	0x3bf5af59	0.0074977097
104	0x38c9d298	9.623653e-05
105	0xbe010754	-0.12600452
106	0x3ea44972	0.32087284
107	0xbd55ab0f	-0.052165087
108	0xbcebf849	-0.028804915
109	0xbd5193cd	-0.051166344
110	0xbd94cc00	-0.072654724
111	0xbcaa0832	-0.020755861
112	0xbdf1e6dd	-0.11811612
113	0xbd7dc8ee	-0.0619592
114	0x3c04cce4	0.00810549
115	0xbbd61f98	-0.006534528
116	0xbd428478	-0.047489613
117	0xbca9298d	-0.020649696
118	0xbbe3e429	-0.006954689
119	0xbcdc6bf8	-0.026906952
120	0xbb4a4a82	-0.0030867164
121	0xbd843484	-0.06455329
122	0xbc5afa60	-0.013365358
123	0xbb805e86	-0.003917518
124	0xbd4d8ea4	-0.05018486
125	0xbd0f6262	-0.035005935
126	0xbe27d278	-0.16388881
127	0xbd204c8d	-0.039135505
128	0xbd320cfe	-0.04346942
129	0xbd08a94a	-0.03336457
130	0xbe216215	-0.15760072
131	0xbbfe950c	-0.0077692326
132	0xbca2ed99	-0.019888686
133	0x3e8a30d1	0.2699037
134	0xbcb59238	-0.02216445
135	0x3e8c7125	0.27430072
136	0xbd015346	-0.031573556
137	0xbd298755	-0.04138883
138	0x3e8ac6cb	0.27104792
139	0xbcb898e3	-0.02253384
140	0xbd219b90	-0.039454997
141	0xbd3b67ae	-0.045753174
142	0xbcd0b4b9	-0.0254768
143	0xbd80874c	-0.06275806
144	0xbc8bf65a	-0.017085243
145	0xbca2819b	-0.019837191
146	0x3e869176	0.26282853
147	0x3eaf3f48	0.34227967
148	0xbd33582b	-0.043785255
149	0x3e7f8890	0.24954438
150	0x3e8990f0	0.2686839
151	0xbcdd42a0	-0.027009308
152	0xbb97509a	-0.0046177628
153	0xbc39a735	-0.011331369
154	0xbcd8328f	-0.026391296
155	0xbc0a9d42	-0.008460345
156	0x3e81f3fe	0.25381464
157	0xbcbbf610	-0.02294448
158	0x3e8e9741	0.27849773
159	0xbc0bcf25	-0.008533274
160	0xbc064dfe	-0.008197306
161	0x3e8156b5	0.25261465
162	0xbd8fc4bf	-0.07019948
163	0xbcb2f893	-0.021847045
164	0xbc9fe520	-0.019518435
165	0x3eb19f4c	0.34691846
166	0x3e8a1d74	0.26975596
167	0xbd5097a7	-0.050925877
168	0xbd037ca2	-0.03210128
169	0xbd6d8d62	-0.05799616
170	0x3e82fbdd	0.2558278
171	0xbd37337d	-0.044726837
172	0x3cb5a7c3	0.022174722
173	0xbd24c128	-0.04022327
174	0xbcc775b6	-0.024348121
175	0xbbcae663	-0.006192015
176	0xbd02f846	-0.031975053
177	0xbce79f31	-0.02827415
178	0xbc74ed64	-0.014949176
179	0xbd013cff	-0.03155231
180	0x3c23e59d	0.010003475
181	0xbdc44d7d	-0.09585092
182	0x3c34f8e9	0.011045673
183	0x3a2512c2	0.00062970456
184	0x3c9d4626	0.019198488
185	0xbc9beb3f	-0.019033073
186	0x3da9222e	0.082584724
187	0xbbc7e598	-0.0061003678
188	0x3c83bb4d	0.016080523
189	0x3cd94244	0.026520856
190	0xbe490a12	-0.19632748
191	0x3c0a8a8e	0.008455886
192	0xbc86574b	-0.016399046
193	0x3eba7a0c	0.3642124
194	0xbd14fea6	-0.036375664
195	0x3ead3266	0.33827513
196	0x3cf9b833	0.03048334
197	0x3c960182	0.018311266
198	0x3eb38085	0.3505899
199	0x3d158fa4	0.03651394
200	0x3ca2c344	0.0198685
201	0xbdd4eb62	-0.10396458
202	0x3cfc1bbf	0.03077495
203	0x3c85b23e	0.016320344
204	0x3cf536cb	0.029933354
205	0xbc51cb28	-0.012804784
206	0x3eaef51d	0.34171382
207	0x3ea1e979	0.31623438
208	0x3c9a799f	0.018856822
209	0x3eb5812b	0.3545011
210	0x3eb76003	0.3581544
211	0xbbc52337	-0.006016161
212	0xbc18cbfd	-0.009325978
213	0x3c209533	0.009801197
214	0x3cbff82f	0.023433773
215	0xbc55e099	-0.013054037
216	0x3eae130c	0.33998907
217	0x3c961ba9	0.018323736
218	0x3eb5c3a2	0.35500818
219	0x3ba7ae19	0.0051171896
220	0xbc43772e	-0.01193027
221	0x3eb73446	0.3578207
222	0xbd1ab78f	-0.03777271
223	0x3d083734	0.03325577
224	0x3bdeba57	0.006797116
225	0xbe54e75c	-0.20791382
226	0x3eb78b72	0.35848576
227	0xba951612	-0.0011374375
228	0xbcde0c06	-0.027105343
229	0xbc10fbc1	-0.008849085
230	0xbe6f8df3	-0.23393993
231	0xbc9829ae	-0.018574562
232	0xbdae8da7	-0.08523112
233	0xbc0db4c7	-0.008649058
234	0x3c9d89da	0.019230772
235	0x39acc02b	0.00032949573
236	0x3c8f2756	0.017474812
237	0xbd1c2b4d	-0.038127232
238	0xbc584e4c	-0.013202261
239	0xbcec52e7	-0.028848125
240	0xbc0e5f3b	-0.008689697
241	0xbe17bb64	-0.14817578
242	0xbc1630d2	-0.009166913
243	0xbc408a41	-0.011751712
244	0x3cda0d49	0.026617663
245	0xbc25f059	-0.010128104
246	0xbe1a1c62	-0.1504989
247	0xbd3b4258	-0.045717567
248	0xbd0d4c42	-0.034496553
249	0xbce7d9d7	-0.028302116
250	0xbe5a833f	-0.21339129
251	0xbc804625	-0.015658448
252	0xbd11a97a	-0.035562016
253	0x3ea1e097	0.3161666
254	0xbd22f7e8	-0.039787203
255	0x3ea23620	0.3168192

a f4 [60]
0	0xbb4b2dad	-0.0031002567
1	0x3e13d2d9	0.14435901
2	0x3af675cc	0.0018803417
3	0x3b5b3d13	0.003345315
4	0x3d4baa13	0.049722742
5	0x3ce78886	0.028263342
6	0xbef7dbd2	-0.48409897
7	0x3c58336b	0.013195853
8	0x3d4d0f1d	0.05006324
9	0xbd199fbe	-0.037505858
10	0x3e8b7024	0.27233994
11	0xbbcb8aaf	-0.0062116007
12	0xbca97a1e	-0.020688113
13	0x3e6348cb	0.22195737
14	0x3d170795	0.036872465
15	0x3e5f20df	0.21789883
16	0xbd02e6dc	-0.031958446
17	0xbd0101d7	-0.031495895
18	0x3e60a178	0.21936595
19	0xbd2b4e36	-0.041822635
20	0xbc8d61a7	-0.017258478
21	0xbefd0d0e	-0.49424022
22	0xbd25ee8a	-0.04051069
23	0x3c1b0c0e	0.009463323
24	0xbd63b966	-0.05559673
25	0x3c6b61e7	0.014366603
26	0x3e55f72f	0.20895074
27	0xbf2bb7ff	-0.6707763
28	0xbbcaacbf	-0.0061851437
29	0x3e541ceb	0.20714156
30	0x3e588b60	0.21146917
31	0x3c87b978	0.01656793
32	0xba2907f2	-0.00064480223
33	0xbc7cbe10	-0.015426174
34	0xbd411860	-0.047142386
35	0xbbe94528	-0.00711884
36	0x3e46501c	0.19366497
37	0xbd06e0ef	-0.032929357
38	0x3e54af4a	0.20769992
39	0xbbc1dd72	-0.005916291
40	0xbb154599	-0.002277708
41	0x3e431f66	0.19054946
42	0x3d9438cf	0.07237398
43	0xbd1600b9	-0.036621783
44	0xb7199e86	-9.15642e-06
45	0x3f7f73f1	0.9978629
46	0x3e56d020	0.20977831
47	0x3d64cb6a	0.055858053
48	0x3d17ffb8	0.037109107
49	0x3d0801d8	0.033204883
50	0x3f065f84	0.52489495
51	0xbc04f276	-0.008114448
52	0x3cf318ac	0.02967485
53	0xbb0ab52d	-0.0021165118
54	0xbd22d557	-0.039754238
55	0xbbc78a06	-0.0060894517
56	0x3c7f978d	0.015600097
57	0x3c78d1a6	0.015186703
58	0xbc79c217	-0.0152440285
59	0x3c7f7ea1	0.0155941555

b f4 [60]
0	0xbbb1e48d	-0.0054288567
1	0xbdaf68e7	-0.085649304
2	0x00000000	0.0
3	0xbc5c3f34	-0.013442803
4	0xbd407564	-0.046986952
5	0xbcda39a0	-0.026638806
6	0xbed40b29	-0.41414765
7	0xbd5dbae7	-0.054133322
8	0xbd5c7586	-0.053823017
9	0xbd01f8c7	-0.031731393
10	0xbd852717	-0.065015964
11	0xbc6eef33	-0.014583397
12	0xbd2e0f75	-0.04249521
13	0xbeb33698	-0.3500259
14	0xbd020a6e	-0.031748228
15	0xbeb702f9	-0.35744455
16	0xbd2292b0	-0.039690673
17	0xbd1d3184	-0.0383773
18	0xbeadba1f	-0.33931062
19	0xbd04fa34	-0.032465175
20	0xbd020e9d	-0.031752218
21	0xbece1654	-0.4025141
22	0xbcc2b2f9	-0.023766981
23	0xbd61308f	-0.05497795
24	0xbd0abc79	-0.033871148
25	0xbcf2484f	-0.029575495
26	0xbea878a9	-0.32904556
27	0x3f3fe9f9	0.7496639
28	0xbd5d7f0a	-0.054076232
29	0xbeb004be	-0.34378618
30	0xbeb92e95	-0.36168352
31	0x00000000	0.0
32	0x00000000	0.0
33	0xbc56ec7a	-0.013117904
34	0xbd020b94	-0.031749323
35	0xbc9eab8c	-0.01936891
36	0xbea4af85	-0.3216516
37	0xbd01ff7b	-0.031737786
38	0xbeb35d18	-0.35031962
39	0xbc12dc24	-0.008963618
40	0xbb2b92e8	-0.0026180092
41	0xbeaa8af5	-0.3330914
42	0x3d23fb87	0.040034797
43	0xbcfb9bc7	-0.030713929
44	0x00000000	0.0
45	0x3eb90c38	0.36142135
46	0xbeb7fe29	-0.35936096
47	0xbd5d5e6a	-0.05404512
48	0xbcb6c461	-0.022310438
49	0xbd80c955	-0.06288401
50	0x3e8ba19f	0.27271745
51	0xbd8430db	-0.06454631
52	0xbbab2f0e	-0.005224115
53	0xbd6a9548	-0.057271272
54	0xbd045076	-0.032303296
55	0xbbbcd387	-0.0057625207
56	0xbd6814a8	-0.056660324
57	0xbd021908	-0.031762153
58	0xbc9d23c0	-0.019182086
59	0xbccdb72b	-0.025111755

K f4 [8, 60]
0	0x3b7f80c9	0.0038986674
1	0x3e1518be	0.1456022
2	0xbce39119	-0.027779149
3	0xbcdbdfe4	-0.026840158
4	0xbce20d79	-0.027594315
5	0xba933110	-0.0011229832
6	0x3ab795dd	0.0014006455
7	0xbc8d63d3	-0.017259514
8	0xbd0717c7	-0.03298166
9	0xbbed5885	-0.0072432184
10	0xbd423d07	-0.04742148
11	0xbce36380	-0.027757406
12	0xbc2d55da	-0.010579551
13	0x3a667dfb	0.0008792576
14	0xbca11aae	-0.019666042
15	0xbbf8fd13	-0.007598528
16	0x3e0eacc7	0.13933097
17	0xbcdd2b7e	-0.026998278
18	0xbc259aca	-0.010107705
19	0xba4ddb7a	-0.0007852834
20	0x3e0be285	0.13660629
21	0x3e031309	0.1280023
22	0x3bd14660	0.006386563
23	0xbc33cfc0	-0.010974824
24	0xbcf1ecf6	-0.029531937
25	0xbc727cea	-0.01480029
26	0xbcc1b226	-0.023644518
27	0xbcb2ab9d	-0.021810347
28	0x38d7fdd4	0.00010299278
29	0xbc63c167	-0.013901091
30	0xba1a7295	-0.0005891708
31	0x3acea057	0.0015764338
32	0xbca6f76b	-0.02038165
33	0x3e0d464e	0.1379635
34	0xbc790c84	-0.015200738
35	0x3a31b0a6	0.0006778337
36	0x3e178f72	0.14800814
37	0xbc1c06ad	-0.009523076
38	0xbbab05db	-0.005219204
39	0xbc891b9c	-0.016736798
40	0xbca0adc8	-0.019614115
41	0xbc6378c2	-0.013883771
42	0xbbbf1eae	-0.0058325147
43	0xbcc2dda7	-0.023787333
44	0xbd0cb939	-0.03435633
45	0x3e0f8c40	0.14018345
46	0xbcc0f33a	-0.02355348
47	0x3e1026da	0.1407732
48	0x3e0c0328	0.13673079
49	0x3e14763f	0.14498232
50	0xbd5c31d0	-0.053758442
51	0x3ac73b04	0.0015200083
52	0xbc3b7ee8	-0.011443831
53	0xbd17305a	-0.036911346
54	0x3e04fc58	0.12986887
55	0xbba486db	-0.005020959
56	0xbc04987c	-0.008092996
57	0xbd3009fa	-0.042978264
58	0xbcb8b2e2	-0.022546235
59	0xbccd1344	-0.0250336
60	0xbc0d112d	-0.008610052
61	0x3e278d62	0.16362527
62	0xbd3d2039	-0.046173308
63	0x3bb39c4f	0.00548128
64	0xbd2b91cc	-0.04188709
65	0x3917263b	0.00014414724
66	0xbb978382	-0.0046238312
67	0xbbdc7118	-0.006727349
68	0xbce493a4	-0.027902432
69	0xbccda727	-0.025104119
70	0xbccc7670	-0.02495882
71	0x3bbf9a14	0.005847225
72	0xbd167c32	-0.036739536
73	0xbcd29404	-0.025705345
74	0xbd1b580e	-0.037925772
75	0xbbd572cb	-0.0065139285
76	0x3e0b42c3	0.13599686
77	0xbd29d8d8	-0.041466564
78	0xbbd9c9a9	-0.006646354
79	0xbcb187de	-0.021671232
80	0x3e0a597a	0.13510695
81	0xbec7b145	-0.39002433
82	0xba12756e	-0.00055869564
83	0xbc398430	-0.01132302
84	0xbbb060d1	-0.005382635
85	0x3c073346	0.008251971
86	0xbd30b262	-0.04313887
87	0xbc6fd2db	-0.014637674
88	0xbc2eb452	-0.010663109
89	0xba9db0a9	-0.0012030798
90	0xbc4a04dc	-0.01233026
91	0xbc90bcfd	-0.017668242
92	0x3e328788	0.17434514
93	0x3e14f225	0.14545496
94	0x39b9b09e	0.0003541754
95	0xbba5a109	-0.0050545973
96	0x3e1a1572	0.15047243
97	0xbc10ab8d	-0.008829963
98	0xbc17d242	-0.009266438
99	0x3b87684a	0.0041323053
100	0xbd11e133	-0.035615157
101	0xbc975059	-0.01847093
102	0xbca99d0b	-0.020704767
103	0xbce4edef	-0.027945487
104	0xbd086637	-0.033300605
105	0x3e146d0d	0.14494725
106	0xbcd8f395	-0.026483336
107	0x3e15dcd6	0.14635023
108	0x3e10f399	0.14155425
109	0x3e15c587	0.14626132
110	0xbcac20e5	-0.02101178
111	0xbc8ce499	-0.017198848
112	0x3af5555e	0.0018717458
113	0xbcc700df	-0.024292408
114	0x3e1522f1	0.1456411
115	0xbc425d4b	-0.011863063
116	0xbc440fe1	-0.011966676
117	0xbc8ebf8b	-0.01742532
118	0xbe28cd33	-0.16484527
119	0xbd1170ef	-0.035508092
120	0xbc0726bf	-0.008248984
121	0x3e7fafac	0.24969357
122	0xbd4722fc	-0.048617348
123	0xb99c12d7	-0.00029768675
124	0xbca9620a	-0.020676631
125	0x3baf9cc0	0.005359262
126	0x3b485e92	0.0030573946
127	0x3c4d7131	0.012539194
128	0x3c44fab9	0.012022668
129	0x3a6a7f8f	0.00089453993
130	0xbcca3e82	-0.02468801
131	0xbb23d5e6	-0.002499932
132	0xbc5b7736	-0.013395121
133	0x3b8b374e	0.004248536
134	0xbd01e8ff	-0.031716343
135	0x3c034016	0.008010885
136	0x3e7c2b12	0.24625805
137	0x3c88e5e3	0.016711181
138	0xbba60609	-0.0050666374
139	0xbc28ce3f	-0.010303079
140	0x3e76f7e4	0.24118
141	0x3ea19846	0.31561488
142	0xbc9a4a09	-0.01883413
143	0xbc8f7ce3	-0.017515605
144	0xbb528395	-0.0032121886
145	0xbc34d140	-0.011036217
146	0xbca7bfd2	-0.02047721
147	0x3c440cd5	0.01196595
148	0x3a876004	0.0010328298
149	0xbc3cf06f	-0.011531933
150	0xbbbcbc2d	-0.005759737
151	0xbbd6d5bb	-0.0065562404
152	0xbe2f17b0	-0.1709888
153	0x3e7d7156	0.24750265
154	0xbc80188b	-0.015636703
155	0xbbfbf552	-0.0076891566
156	0x3e8354e4	0.25650704
157	0xbc250715	-0.010072489
158	0xb807f7a7	-3.2417152e-05
159	0xbbfcbd29	-0.0077129793
160	0xbd4c3fe0	-0.049865603
161	0xbd278320	-0.040896535
162	0xbc4494d4	-0.011998374
163	0xbd20d20d	-0.03926282
164	0xbd00bb50	-0.031428635
165	0x3e7daa76	0.24772057
166	0xbd138b62	-0.036021598
167	0x3e7b78e5	0.24557836
168	0x3e7532de	0.23945186
169	0x3e7ce9c8	0.24698555
170	0xbd09e7b0	-0.03366822
171	0x3ab6cf0f	0.0013947206
172	0xbc935aa4	-0.017987557
173	0xbcbfad47	-0.023398055
174	0x3e6aae38	0.22918022
175	0xbc2552d3	-0.010090548
176	0xba5d02b0	-0.00084308814
177	0xbcca0043	-0.024658328
178	0x3dc377c2	0.09544326
179	0xbd01c54a	-0.03168229
180	0xbc860c18	-0.016363189
181	0x3e1a0357	0.15040337
182	0xbcf2a1ea	-0.029618222
183	0xbc8b3a44	-0.016995557
184	0xbcc2c096	-0.023773473
185	0xbb83676f	-0.004010133
186	0xbba6b934	-0.005087996
187	0x3bda6652	0.0066650296
188	0xbc850c05	-0.016241083
189	0x3b075c00	0.0020654202
190	0xbd419525	-0.047261376
191	0xbcaac880	-0.020847559
192	0xbd1b96ed	-0.03798573
193	0x3a816f81	0.000987515
194	0xbd194192	-0.03741605
195	0xbc80da82	-0.015729193
196	0x3e140d43	0.14458184
197	0xbcd71c80	-0.026258707
198	0xbc145d04	-0.00905538
199	0xbb5b0e04	-0.0033425102
200	0x3e1c19c3	0.15244202
201	0xbf12b7b3	-0.5731155
202	0x3a83fc8d	0.0010069773
203	0xba283d9d	-0.00064178725
204	0x3b207deb	0.0024489115
205	0xbc95978d	-0.018260742
206	0xbd24c524	-0.04022707
207	0x3aa94f12	0.0012917242
208	0xbbaec4c2	-0.005333514
209	0x3ba37f2d	0.004989526
210	0xbbdd6f72	-0.00675767
211	0xbcd4386e	-0.025905814
212	0x3e81f0a5	0.2537891
213	0x3e2fac79	0.17155637
214	0xbbf30055	-0.007415811
215	0x3adaa341	0.0016680734
216	0x3e290aee	0.16508076
217	0x3b6f1a5e	0.0036484222
218	0x3b376c54	0.0027988153
219	0xbc90df5d	-0.017684633
220	0xbcddf073	-0.027092194
221	0xbd19e211	-0.03756911
222	0xbb0faea5	-0.0021924165
223	0xbd082986	-0.033242725
224	0xbceffa10	-0.029294044
225	0x3e2605e6	0.16213188
226	0xbced3492	-0.028955732
227	0x3e135c4e	0.1439068
228	0x3e195722	0.14974645
229	0x3e0ab137	0.13544165
230	0xbcfb5597	-0.03068046
231	0xbb320d24	-0.0027168477
232	0x3b00f616	0.0019677929
233	0xbc92cdb9	-0.017920362
234	0x3e213254	0.15741855
235	0xbb00097d	-0.0019536905
236	0xbc119691	-0.0088859955
237	0x3c413b18	0.011793874
238	0x3d02989f	0.031883832
239	0xbcb8ed81	-0.022574188
240	0xbbb66aa1	-0.0055669104
241	0x3de21840	0.110397816
242	0xbd510859	-0.05103335
243	0xbabedbb2	-0.0014561324
244	0xbcb7d8d7	-0.022442264
245	0xbc6e7c3d	-0.014555988
246	0x3bb6eea2	0.0055826465
247	0xbb8c0523	-0.0042730733
248	0xbc2126c7	-0.009835905
249	0xbc058099	-0.008148336
250	0xbc5220df	-0.01282522
251	0xbc048e3d	-0.008090553
252	0xbca32619	-0.019915627
253	0x3c7a8d39	0.015292459
254	0xbd2b51c4	-0.041826025
255	0xbc56f47c	-0.013119813

a f4 [60]
0	0xbc452f45	-0.012035196
1	0xbdeb3268	-0.114842236
2	0xbc3ba653	-0.011453229
3	0x399d4c7a	0.00030002353
4	0x3d066ba8	0.032817513
5	0x3accce93	0.0015625529
6	0x3ccb2b4a	0.024800915
7	0xb8deb832	-0.00010620094
8	0xbcf7da04	-0.030255325
9	0xb9fe8039	-0.0004854219
10	0x3cfcff63	0.030883497
11	0xbbe300ab	-0.00692757
12	0xbc8a3651	-0.016871603
13	0x3c4dc12f	0.012558266
14	0x3cd16cd5	0.02556459
15	0xbaa75ec9	-0.0012769337
16	0xbdbd2846	-0.09236197
17	0x3d19d283	0.037554275
18	0xbd006610	-0.031347334
19	0xb91eb43d	-0.00015135198
20	0xbdca7c7b	-0.09887024
21	0xbf62dd46	-0.88618886
22	0xbc080e77	-0.00830423
23	0xbab40db5	-0.0013736995
24	0x3d14ea69	0.036356363
25	0xbc11dde0	-0.008902997
26	0xbc78c74c	-0.015184235
27	0x37070415	8.0475775e-06
28	0xbad230f0	-0.0016036313
29	0x3ab85454	0.0014063218
30	0xbc93c4f4	-0.01803825
31	0xbc56f252	-0.013119297
32	0x3ef65680	0.4811287
33	0xbde3807e	-0.11108492
34	0x3c2e67f8	0.010644905
35	0xbc38a2f0	-0.011269316
36	0xbdeccd94	-0.115626484
37	0x3bb0e34d	0.00539819
38	0x3c24f610	0.0100684315
39	0xbb093822	-0.0020937999
40	0x3ce9a891	0.028522762
41	0xbca80cd7	-0.020513935
42	0xbb8486a0	-0.004044369
43	0x3c958373	0.018251156
44	0xbb948b3e	-0.0045332005
45	0xbdd7722a	-0.10519822
46	0xbc45c73b	-0.012071426
47	0xbdd16094	-0.10223499
48	0xbdd606f9	-0.10450549
49	0xbdc13191	-0.09433282
50	0xbcdc70ea	-0.02690931
51	0xbc3a8913	-0.01138522
52	0x3a13a5da	0.0005632319
53	0x3ce182d5	0.027528206
54	0xbdc198a0	-0.09452939
55	0x39fa647f	0.0004775859
56	0xbcaa5f16	-0.020797294
57	0xbc9a1a62	-0.018811408
58	0xbe4417e3	-0.19149737
59	0xbcece717	-0.028918786

b f4 [60]
0	0x00000000	0.0
1	0x3ccc4fe3	0.024940437
2	0xbd2fdb39	-0.042933676
3	0xbc0adbf3	-0.008475292
4	0xbcceeb8b	-0.0252588
5	0x00000000	0.0
6	0x00000000	0.0
7	0xbbc97f58	-0.0061492138
8	0xbd0cc2a7	-0.034365322
9	0x00000000	0.0
10	0xbd206a9e	-0.039164178
11	0x00000000	0.0
12	0xbcb45aa7	-0.022015883
13	0x00000000	0.0
14	0xbceb1c7a	-0.028700102
15	0x00000000	0.0
16	0x3c2de2c1	0.010613144
17	0xbcd5f77c	-0.026118986
18	0x00000000	0.0
19	0xbbe355fd	-0.006937741
20	0x3c7eab2a	0.015543738
21	0xbd3c1870	-0.045921743
22	0x00000000	0.0
23	0x00000000	0.0
24	0xbce9b688	-0.02852942
25	0x00000000	0.0
26	0xbd2176d7	-0.039419975
27	0x00000000	0.0
28	0x00000000	0.0
29	0x00000000	0.0
30	0x00000000	0.0
31	0x00000000	0.0
32	0xbd3a835e	-0.045535438
33	0x3d06509f	0.03279173
34	0xbc12e222	-0.008965047
35	0x00000000	0.0
36	0x3c45e68c	0.012078892
37	0xbbf85c9d	-0.0075793997
38	0xbbc4c9cc	-0.0060055014
39	0xbc04c2ce	-0.008103086
40	0xbcfe66e5	-0.031054923
41	0xbcc145c4	-0.023592837
42	0xbbc4c94b	-0.0060054413
43	0xbd0213e2	-0.031757243
44	0xbd02140b	-0.031757396
45	0x3d13ce08	0.03608516
46	0xbd362cfc	-0.044476494
47	0x3c7360e7	0.014854646
48	0x3c817eaa	0.015807468
49	0xbc7a709b	-0.015285636
50	0xbcf4d407	-0.029886259
51	0x00000000	0.0
52	0xbc54f31e	-0.012997417
53	0xbcb5f6b1	-0.022212358
54	0x3ce606de	0.028079446
55	0xbbc4c9a3	-0.0060054823
56	0xbbe764d0	-0.0070615783
57	0xbca8e29d	-0.02061587
58	0xbd149cc3	-0.036282312
59	0xbd0211a2	-0.031755097

K f4 [8, 60]
0	0x3ba0d6a4	0.0049083997
1	0x3de7e4b2	0.11322917
2	0xbe16521b	-0.14679758
3	0x3ca3d4b1	0.01999888
4	0x3e775af6	0.24155793
5	0xbcdb4a2a	-0.026768763
6	0xbdd8b9e9	-0.105823345
7	0xbdf4a944	-0.11946347
8	0xbd0071ac	-0.031358406
9	0x3b3d4d00	0.0028885007
10	0xbc7f6480	-0.015587926
11	0xbae7cbea	-0.0017684672
12	0xbdc56956	-0.09639232
13	0xbd6870cb	-0.056748193
14	0xbc9e75a1	-0.0193432
15	0xbdb107f1	-0.08644093
16	0xbdc4cdc1	-0.09609557
17	0xbc641d02	-0.013922932
18	0xbc00bedf	-0.007858007
19	0xbd4c99ee	-0.049951486
20	0xbd358bf0	-0.044322908
21	0x3c52369f	0.0128304055
22	0x3cb7cc7f	0.022436379
23	0xbde41c53	-0.11138215
24	0xbf50df20	-0.8159046
25	0xbbb130b2	-0.0054074163
26	0x3dd2bb8d	0.10289679
27	0x3abe15bf	0.001450233
28	0x3c369537	0.011143974
29	0xbc015c35	-0.007895519
30	0xbdcab45c	-0.09897682
31	0xbe4b4a64	-0.19852597
32	0xbc2dcee9	-0.010608413
33	0xbdde7e5d	-0.10863946
34	0xbe94ef31	-0.2908874
35	0xbd4ba313	-0.049716067
36	0xbdca7d38	-0.09887165
37	0x3e3810fc	0.17975229
38	0xbda4e16d	-0.08050809
39	0x3e146bcb	0.14494245
40	0xbf186e92	-0.59543717
41	0xbdd96c31	-0.10616339
42	0xbc928f2a	-0.017890532
43	0xbda19e25	-0.07891492
44	0xbcd15974	-0.02555535
45	0xbe1a5742	-0.15072349
46	0xbdba9487	-0.091103606
47	0xbdd61347	-0.104528956
48	0x3e3519c2	0.17685607
49	0x3f063fb0	0.5244093
50	0xbd739b3f	-0.059474226
51	0xbd443862	-0.047905333
52	0xbc19d90d	-0.009390128
53	0x3b6ac7bf	0.0035824624
54	0xbc25cf9c	-0.010120299
55	0xbd5b2a85	-0.053507347
56	0xbc96f3fb	-0.018426886
57	0xbce223bd	-0.027604932
58	0xbb1eb642	-0.002421752
59	0x3ea97cf7	0.33103153
60	0xbc237b2b	-0.009978096
61	0x3f0e75d1	0.55648524
62	0x3eb0ef2f	0.34557483
63	0x3ce3e5b3	0.02781949
64	0x3e928c26	0.2862255
65	0x3b662d3c	0.0035122177
66	0x3e87859b	0.2646912
67	0x3f2c998f	0.6742181
68	0xbc059def	-0.00815533
69	0x3bac5cd7	0.005260091
70	0x3b31cbcf	0.0027129536
71	0xbb4f63bf	-0.0031645147
72	0x3e81870c	0.25298345
73	0xbd1be306	-0.038058303
74	0xbb2381af	-0.0024949124
75	0x3e78f0eb	0.24310653
76	0x3e91329f	0.28358933
77	0xbca9ed51	-0.020743044
78	0xbb6967be	-0.0035614814
79	0xbd47c25c	-0.04876934
80	0xbb87929b	-0.00413735
81	0xbb916500	-0.004437089
82	0x3c349603	0.011022094
83	0x3e89faa5	0.2694904
84	0xbf416d16	-0.75557077
85	0xbc5de185	-0.013542538
86	0x3c27a90f	0.010233178
87	0x3cfa5bd6	0.030561369
88	0x3c6d056c	0.014466625
89	0xbc90e239	-0.017685996
90	0x3e8caee3	0.27477178
91	0xbe3b0767	-0.18264543
92	0xbc528a1e	-0.0128503125
93	0x3d02551b	0.031819444
94	0xbc4d49e8	-0.012529828
95	0xbcfc7296	-0.030816358
96	0x3e75a1ea	0.23987547
97	0x3e8ee607	0.27909872
98	0x3e70e7f9	0.2352599
99	0xbead6a6b	-0.33870253
100	0xbf3862b7	-0.72025627
101	0x3e7766d3	0.24160318
102	0xbbd85405	-0.006601813
103	0x3e701bd0	0.2344811
104	0xbc63f868	-0.013914205
105	0x3ea0135a	0.31264764
106	0x3e8516f0	0.25994062
107	0x3e7cf7f7	0.24703966
108	0x3e7d9993	0.24765615
109	0x3e068457	0.13136421
110	0xbd68cb2a	-0.056834377
111	0xbd2b3a13	-0.04180343
112	0x3beab576	0.007162745
113	0xbc982369	-0.018571572
114	0xbba0fe15	-0.0049131014
115	0x3e865540	0.26236916
116	0xbc1848c6	-0.009294694
117	0xbbd4a326	-0.0064891754
118	0xbc8ef6c0	-0.017451644
119	0x3e18a37e	0.14906117
120	0xbc761e92	-0.015021937
121	0x3ea4182a	0.32049686
122	0x3dba068b	0.09083279
123	0xbd34da72	-0.04415364
124	0x3d4a4376	0.049380742
125	0xbd3dacbd	-0.046307314
126	0x3dd9830e	0.106207
127	0x3d49991e	0.04921829
128	0xbda2ebff	-0.07955169
129	0xbce8bcfa	-0.028410424
130	0xbd1a749d	-0.037708867
131	0xbc62de71	-0.0138469795
132	0x3d9f69f4	0.07783881
133	0xbd7a9c52	-0.061184235
134	0xbd6e866a	-0.058233656
135	0x3db35201	0.087558754
136	0x3dc7b490	0.097512364
137	0xbdbc29c3	-0.09187653
138	0xbcffe7fe	-0.031238552
139	0xbd10a2b5	-0.03531142
140	0xbd7b67d5	-0.06137832
141	0xbc826ed7	-0.015921993
142	0xbcadb74b	-0.021205565
143	0x3da5e3d5	0.08100096
144	0x3ebf864f	0.37407157
145	0xbd679655	-0.056539852
146	0x3e1c863b	0.1528558
147	0xbd3a34c2	-0.04546047
148	0xbdb30f3c	-0.0874314
149	0xbdbc1be4	-0.09185007
150	0x3de85cc0	0.11345816
151	0xbe35154a	-0.17683902
152	0xbc3d0d29	-0.011538782
153	0xbd992d9c	-0.074794024
154	0x3d225d24	0.039639607
155	0xbdb038c5	-0.08604578
156	0x3dc062b0	0.09393823
157	0x3d7a2542	0.061070688
158	0x3db795a0	0.089640856
159	0xbf4fa400	-0.8110962
160	0x3ed955f5	0.42448393
161	0x3db8b176	0.09018223
162	0xbd6ef435	-0.058338363
163	0x3dc698bb	0.096971
164	0xbd91230b	-0.07086762
165	0x3dbcf610	0.0922662
166	0x3d97fd07	0.07421308
167	0x3dc08fcc	0.09402427
168	0xbd91a648	-0.07111794
169	0x3f037394	0.51348233
170	0xbd85c13e	-0.06530999
171	0xbdbba4c4	-0.09162286
172	0xbce9c342	-0.028535489
173	0xbd418c92	-0.0472532
174	0xbd73326e	-0.059374265
175	0x3dc83084	0.097748786
176	0xbd4cbd88	-0.04998544
177	0x39a2324b	0.0003093652
178	0xbd4ce1f9	-0.05002019
179	0xbd3bbb43	-0.045832884
180	0xba38d5d9	-0.0007050909
181	0x3f003796	0.5008482
182	0x3eaa13f4	0.33218348
183	0x3cc5a9bf	0.024128793
184	0xbf0bb3af	-0.5457105
185	0xbd07a5b3	-0.033117007
186	0x3e69fd7c	0.22850603
187	0x3e39590e	0.18100378
188	0xbca2b6e3	-0.019862598
189	0x3c82dcb7	0.015974386
190	0xbb258e1a	-0.00252617
191	0xbbb82694	-0.0056198332
192	0x3e698aeb	0.22806899
193	0xbcfa2a31	-0.030537697
194	0xbc22df70	-0.009940967
195	0x3e4efa4b	0.20212667
196	0x3e4ea381	0.2017956
197	0xbd105a3b	-0.0352423
198	0xbc075254	-0.008259375
199	0xbd4d8913	-0.050179552
200	0xbcde3645	-0.027125487
201	0x3cc8ac1e	0.024496134
202	0x3c8569f1	0.016285868
203	0x3e70ba70	0.2350862
204	0x3ec87ec8	0.39159226
205	0xbc95af54	-0.01827208
206	0x3d42ac79	0.047527764
207	0x3d2e45ca	0.042547025
208	0x3d055294	0.032549456
209	0xbcd9bee0	-0.026580274
210	0x3e8323af	0.25613162
211	0xbdeaf170	-0.11471832
212	0x3c784b91	0.015154735
213	0xbd9546de	-0.072889075
214	0xbe110750	-0.14162946
215	0xbce3b759	-0.027797388
216	0x3e6aac4a	0.22917286
217	0xbf0dfd65	-0.55464774
218	0x3e27a2ef	0.16370748
219	0xbe6b8286	-0.2299901
220	0x3eb2641c	0.34842002
221	0x3e3f1999	0.18662108
222	0xbc3fcc4c	-0.011706423
223	0x3e417de1	0.18895675
224	0xbcc472b9	-0.023980485
225	0x3e91dfdb	0.284911
226	0x3e449fc9	0.19201578
227	0x3e5128b8	0.20425689
228	0xbf1d3ed1	-0.61423975
229	0x3ebac1d0	0.36475992
230	0xbd236828	-0.039894253
231	0xbd4dcac4	-0.0502422
232	0x3b6a25de	0.0035728137
233	0x3d13a862	0.036049254
234	0xbc80dfaf	-0.01573166
235	0x3e1f56a7	0.15560399
236	0xbb33782b	-0.0027384858
237	0xbcba1b48	-0.022718087
238	0xbc06b3cb	-0.008221577
239	0x398a8496	0.00026420195
240	0x3b48c712	0.0030636233
241	0x3f0dc6b2	0.5538131
242	0x3ee402be	0.44533342
243	0xbd3d1ab5	-0.046168048
244	0x3c7d269f	0.0154511025
245	0xbbb59c75	-0.005542333
246	0x3ea68135	0.32520452
247	0x3ee5dcdf	0.44895074
248	0xbd96ffbf	-0.073729984
249	0xbd031a22	-0.032007344
250	0xbcda9125	-0.026680538
251	0xbc534627	-0.012895144
252	0x3eb1dd5a	0.3473919
253	0xbb824874	-0.0039759222
254	0xbd69bee0	-0.0570668
255	0x3ea6da8c	0.32588613

a f4 [60]
0	0x3c7f6fbb	0.015590603
1	0x3e6d9636	0.23201832
2	0x3e90fbe1	0.28317168
3	0x3d10abf4	0.035320237
4	0xbf354e6d	-0.70822793
5	0xbe044aba	-0.12919131
6	0x3e2dbac8	0.16965783
7	0x3f3eb516	0.74495065
8	0xbdfb29a4	-0.12263802
9	0xbcfc0bbe	-0.030767318
10	0xbcf66b56	-0.030080479
11	0x3b197dc0	0.00234209
12	0x3e34bcba	0.17650118
13	0xbd3f0e6a	-0.046644606
14	0x3da79d8e	0.08184348
15	0x3e1d07d8	0.15335023
16	0x3e0e269f	0.1388192
17	0xbdfaefe6	-0.12252788
18	0xbde02a76	-0.10945599
19	0xbd141c3d	-0.036159743
20	0xbe01237b	-0.12611191
21	0x3cb6728a	0.022271413
22	0xbd2610db	-0.04054342
23	0x3e3c944b	0.18415944
24	0x3d8daf3a	0.069181874
25	0x3d99221b	0.07477208
26	0xbdd3967c	-0.10331437
27	0xbe387e4e	-0.18016931
28	0x3dce10d0	0.100618005
29	0xbdfa4c91	-0.12221635
30	0x3e52ca97	0.20585094
31	0xbe3c9462	-0.18415979
32	0xbdbee734	-0.09321442
33	0xbed899d2	-0.42304856
34	0xbf24e0d0	-0.64405537
35	0xbe054e40	-0.13018131
36	0x3e249b5d	0.16074891
37	0xbf34b148	-0.7058301
38	0x3de8bffe	0.113647446
39	0xbf40d5cb	-0.7532622
40	0xbd0b1abc	-0.033961043
41	0x3e027f31	0.12743832
42	0xbaaec1b9	-0.001333288
43	0x3dff6080	0.12469578
44	0xbe0be7df	-0.1366267
45	0x3e80fc48	0.25192475
46	0x3e09dfde	0.13464305
47	0x3e16a8fa	0.14712897
48	0xbf0dbcc9	-0.5536619
49	0xbeb2bcdf	-0.34909722
50	0xbe28a529	-0.16469254
51	0xbe15d72a	-0.1463286
52	0xbd71cfd2	-0.059036084
53	0x3b65f913	0.0035091087
54	0x3d6e66c4	0.058203474
55	0x3db4c5cf	0.088267915
56	0x3d972697	0.07380407
57	0xbd2603c6	-0.040530942
58	0xbc1c9bb4	-0.009558607
59	0x3ebd958d	0.3702816

b f4 [60]
0	0x00000000	0.0
1	0xbf134cd4	-0.57539105
2	0xbe52eb10	-0.20597482
3	0xbcb05336	-0.021524053
4	0x3daa0731	0.08302153
5	0xbde49085	-0.111603774
6	0xbdfa7d50	-0.12230933
7	0x3d968589	0.073496886
8	0xbdee0ee9	-0.11623938
9	0xbd1eacfc	-0.03873919
10	0xbcb57e4d	-0.022154951
11	0xbbf2ab8f	-0.0074057053
12	0xbde17484	-0.11008552
13	0xbd501da5	-0.05080952
14	0xbd5db1f3	-0.054124784
15	0xbdfc974f	-0.12333547
16	0xbe1a60e7	-0.15076028
17	0xbde50d9e	-0.11184238
18	0xbdc5eb41	-0.09664012
19	0xbd63a7cc	-0.055579945
20	0xbdf0e003	-0.11761477
21	0xbc724b8a	-0.014788518
22	0xbd1c96a2	-0.038229592
23	0xbdf4a507	-0.11945539
24	0x3f759500	0.9593048
25	0xbd5d5adb	-0.054041725
26	0x3dccda71	0.10002602
27	0xbdcdc397	-0.100470714
28	0xbbbaa619	-0.00569607
29	0xbde7aa5b	-0.113117896
30	0xbe51ecbe	-0.20500466
31	0xbe5ec5d4	-0.21755153
32	0xbda97c55	-0.082756676
33	0xbed38312	-0.41310936
34	0xbf2938b2	-0.66102135
35	0xbdebb52f	-0.115091674
36	0xbdd8e945	-0.10591368
37	0x3e3026f6	0.17202362
38	0xbe102080	-0.14074898
39	0x3f8965fd	1.0734249
40	0x3f660312	0.89848435
41	0xbe01d0d5	-0.1267732
42	0xbd5a847c	-0.053349003
43	0xbe054c65	-0.13017423
44	0xbdedf573	-0.11619081
45	0xbe451496	-0.19246134
46	0xbe104eb7	-0.14092527
47	0xbe239dd3	-0.15978174
48	0x3ef77a55	0.4833552
49	0xbe137007	-0.14398204
50	0xbe11479c	-0.14187473
51	0xbe0aa6db	-0.13540213
52	0xbd29d3a4	-0.0414616
53	0xbd5ccc4a	-0.053905763
54	0xbd520b59	-0.051280353
55	0xbe2feda4	-0.17180496
56	0xbd5d99ce	-0.054101758
57	0xbdb2fdca	-0.08739813
58	0xbd5d5438	-0.054035395
59	0x3e4f0218	0.20215642

K f4 [8, 60]
0	0x3ac5a72d	0.001507973
1	0x3ca1627e	0.019700285
2	0xbba6dcf7	-0.005092259
3	0xbd7435da	-0.05962167
4	0x3c53f254	0.0129361935
5	0xbcf253e4	-0.029581018
6	0x3ca913bd	0.020639295
7	0xbd2adbf1	-0.04171366
8	0xbcb1738d	-0.021661544
9	0xbb803eb7	-0.003913726
10	0xbd2df8a8	-0.042473465
11	0xbe1bfb60	-0.1523261
12	0xbd593b36	-0.053034984
13	0xbcde7100	-0.027153492
14	0x3c37c57a	0.011216516
15	0x3b17688e	0.002310309
16	0x3bd8eb9c	0.0066198837
17	0xbd805210	-0.06265652
18	0x3b8aad02	0.00423205
19	0xbd6ebbc6	-0.058284543
20	0xbcca15e6	-0.024668645
21	0x3f755b33	0.95842284
22	0xbcae886c	-0.021305285
23	0x3edbb8a1	0.42914298
24	0xbcbb300c	-0.022850059
25	0x3c6e9cb5	0.014563729
26	0x3e28c7b0	0.16482425
27	0xbe7f7ff6	-0.24951157
28	0xbcd36608	-0.025805488
29	0xbcd73590	-0.026270658
30	0x3c8dbf76	0.01730321
31	0xbdf0b54f	-0.11753332
32	0xbcb18dbc	-0.02167403
33	0xbd0fbc3c	-0.035091624
34	0x3d9b0497	0.07569235
35	0xbc446aae	-0.011988325
36	0xbf806b37	-1.0032719
37	0xbc13bde5	-0.009017442
38	0xbc31e862	-0.010858627
39	0xbd6487a7	-0.05579343
40	0x3f0ba0c3	0.5454218
41	0xbe4d2619	-0.20034064
42	0x3db9ed67	0.09078484
43	0xbd5769e6	-0.052591227
44	0x3e4b03b9	0.19825639
45	0x3d256535	0.04037972
46	0xbb56c525	-0.0032771316
47	0xbc989a60	-0.0186283
48	0xbe236f5d	-0.1596045
49	0xbbc77826	-0.006087321
50	0xbd2ea061	-0.042633418
51	0x3dbbc453	0.09168305
52	0x3c058434	0.008149195
53	0x3ba620f7	0.0050698477
54	0xbf1a2ca3	-0.6022436
55	0xba6c1554	-0.00090058637
56	0xbce7392b	-0.028225502
57	0xbca1eb82	-0.01976562
58	0x3c90345d	0.017603094
59	0xbc49f976	-0.0123275425
60	0x3baedf2e	0.0053366637
61	0xbc7827f3	-0.015146243
62	0xbd187609	-0.037221942
63	0xbef6fb21	-0.4823847
64	0xbbb67162	-0.0055677155
65	0x3b64836a	0.0034868368
66	0xbc33a95f	-0.010965674
67	0x3c4976af	0.012296363
68	0xbcba9dba	-0.022780288
69	0xbc5f0606	-0.013612276
70	0x3a5cbf36	0.00084208266
71	0x3ddd300b	0.10800179
72	0x3c9152f9	0.01773976
73	0x3c878cc2	0.01654661
74	0xbdcd23ce	-0.10016595
75	0x3a739857	0.0009292415
76	0xbc89af8e	-0.016807344
77	0xbb9c4f9c	-0.0047702324
78	0xbb6e343b	-0.003634705
79	0xbac72c96	-0.0015195783
80	0xbcb3b743	-0.021937972
81	0xbea663e1	-0.32498077
82	0x3c7e529e	0.015522627
83	0x3eb7ee57	0.35924026
84	0xbccd86a7	-0.025088621
85	0xbc41611b	-0.011802937
86	0x3ecf5c75	0.40500227
87	0x3cca4d9e	0.024695214
88	0x3cdaceac	0.026709877
89	0x3cc9c784	0.02463127
90	0xbccede08	-0.025252357
91	0xbda2c3c2	-0.07947494
92	0xbb812e3f	-0.0039422805
93	0x3ba2748e	0.004957742
94	0x3e564ed9	0.20928515
95	0xbc2dc0d6	-0.010605058
96	0x3ebcca40	0.36873055
97	0x3b499619	0.0030759631
98	0x3b2112d3	0.002457787
99	0x3bc2f019	0.005949032
100	0x3f3af071	0.73023134
101	0xbeb96c0c	-0.36215246
102	0x3dc60fbd	0.096709706
103	0x3ba69b67	0.0050844434
104	0x3ecdb47c	0.4017676
105	0x3e9b7e85	0.30369964
106	0x3a8f93e3	0.0010954108
107	0xbc1d5478	-0.009602658
108	0xbef68a54	-0.4815241
109	0x3c89125c	0.016732387
110	0xbcbd1b4a	-0.023084302
111	0x3d33a96e	0.043862753
112	0x3c0c17bf	0.008550583
113	0x3bb122f8	0.00540578
114	0xbf029579	-0.5100933
115	0x3c318a64	0.010836218
116	0xbcf4cad9	-0.029881882
117	0x3c5cbf39	0.013473325
118	0xbbaa09d9	-0.005189162
119	0xbb2c1c1d	-0.0026261874
120	0xbc5e8690	-0.013581887
121	0xbd7573a8	-0.05992475
122	0xbc402187	-0.011726744
123	0x3e64ba0d	0.22336598
124	0xbd1d38c9	-0.038384233
125	0x3e8fab21	0.28060248
126	0xbc11dfb4	-0.008903433
127	0x3e8b644b	0.27224955
128	0xbccb3a68	-0.024808124
129	0xbd3049fb	-0.043039303
130	0x3e8bfd40	0.27341652
131	0xbc874232	-0.016511057
132	0x3e8600aa	0.26172382
133	0x3e8b2313	0.27175197
134	0xbd1620df	-0.036652442
135	0xbc2536cf	-0.010083868
136	0xbd176856	-0.036964737
137	0x3e832799	0.25616148
138	0xbcbf2d95	-0.023337165
139	0x3e8ad0fc	0.27112567
140	0xbd2387f6	-0.039924584
141	0xbe67eb3a	-0.22648326
142	0xbe22f69c	-0.15914387
143	0xbebe5f48	-0.3718207
144	0xbd695f8d	-0.05697589
145	0xbc0986c0	-0.008393943
146	0xbdb6c6ce	-0.08924638
147	0x3ea21998	0.3166015
148	0x3e8ca486	0.2746927
149	0x3e8ed68d	0.27898064
150	0xbc859c64	-0.016309924
151	0xbf10a557	-0.5650229
152	0xbd3530c2	-0.044235952
153	0x3e89c06a	0.26904613
154	0x3dd61bae	0.10454498
155	0xbd1b6a9b	-0.037943464
156	0x3ee019ba	0.43769628
157	0x3afc1d83	0.0019234869
158	0x3b7d76fc	0.0038675657
159	0x3e8a553f	0.27018163
160	0xbd8f849a	-0.070077136
161	0x3d372d8b	0.044721168
162	0x3f33d1b2	0.70241845
163	0x3e880a88	0.26570535
164	0xbde6c553	-0.11268105
165	0xbe93273b	-0.28740868
166	0x3c35590e	0.011068596
167	0xbd01fa05	-0.031732578
168	0x3e10b36c	0.14130944
169	0xbcfeda70	-0.031110018
170	0xbd66be67	-0.056333926
171	0x3e640365	0.2226692
172	0xbc290c2e	-0.010317845
173	0xbda9cac1	-0.08290625
174	0x3ec5fa26	0.3866741
175	0xbd36c341	-0.044619802
176	0xbd0e280e	-0.034706168
177	0x3e90484f	0.28180167
178	0xbc2e37ee	-0.010633452
179	0xbcdfb211	-0.027306588
180	0x3ba04a16	0.004891644
181	0x3c85ce41	0.016333701
182	0xbcda0c64	-0.026617236
183	0xbe5f62d0	-0.21815038
184	0x3b80fce5	0.0039363974
185	0x3e4b6afb	0.19865029
186	0xbc84d3c9	-0.016214268
187	0x3e3f1efc	0.18664163
188	0xbc2de1fc	-0.010612961
189	0xbb557775	-0.0032572423
190	0x3e2ddec4	0.1697951
191	0x3daa36e4	0.08311251
192	0x3e4530cf	0.192569
193	0x3e4fa379	0.20277204
194	0xbdcc7dbf	-0.09984922
195	0xbbced282	-0.0063117156
196	0xbca37179	-0.019951569
197	0x3e32e5f7	0.17470537
198	0xbb8d544f	-0.004313029
199	0x3e250864	0.16116482
200	0xbcc0051b	-0.023439934
201	0xbf873b16	-1.0564907
202	0xbaeebc66	-0.0018214106
203	0x3f8c7955	1.0974528
204	0xbd2c659f	-0.0420891
205	0xbc5761d1	-0.01314588
206	0x3edc38cc	0.43012083
207	0xbe944041	-0.28955272
208	0x3e6458a5	0.2229944
209	0x3e4e8384	0.20167357
210	0x3adaa8f3	0.0016682431
211	0xbdacac44	-0.084312946
212	0xbc2cd5a0	-0.010548979
213	0x3e44b67d	0.19210239
214	0x3eda57a1	0.4264498
215	0xba1094da	-0.00055153447
216	0x3cc61e38	0.024184331
217	0xbc40fe36	-0.011779359
218	0x3be0cd37	0.006860401
219	0x3e24f935	0.1611069
220	0x3eb564ae	0.35428375
221	0x3e3c19c5	0.18369205
222	0xbde908fa	-0.11378665
223	0x3e354438	0.17701805
224	0x3f25138c	0.6448295
225	0x3d363344	0.044482484
226	0xbb3721d6	-0.0027943752
227	0xbc9ea5c2	-0.019366149
228	0x3e8ac037	0.27099773
229	0x3cb3644a	0.021898407
230	0xbd0e0663	-0.03467406
231	0xbe082c6a	-0.13298193
232	0xbc79f4b0	-0.015256092
233	0xbb45945d	-0.0030148246
234	0xbd2d6086	-0.04232838
235	0x3b37e83b	0.0028062004
236	0xbccbbc70	-0.024870127
237	0x3e594ace	0.21219942
238	0x3b40dbd4	0.0029427903
239	0xbd118ed2	-0.035536595
240	0xbbf839e2	-0.0075752595
241	0xbd417235	-0.047228057
242	0xbcdd54cd	-0.027017975
243	0x3ed90768	0.42388463
244	0xbced6320	-0.02897793
245	0x3edad686	0.42741793
246	0xbbaff2a9	-0.0053695035
247	0x3edbd55f	0.42936227
248	0xbd47b4fe	-0.048756592
249	0x3b45d542	0.0030186926
250	0x3ee804bd	0.45316115
251	0xbe9f6d47	-0.3113806
252	0x3edca229	0.43092468
253	0x3ed87d55	0.4228312
254	0xbd52fa40	-0.05150819
255	0xbbb54a4b	-0.005532538

a f4 [60]
0	0xbc497ba7	-0.012297547
1	0xbcdfab70	-0.027303427
2	0x3cf0ab7f	0.02937865
3	0x3f4a86d4	0.7911198
4	0x3cc003e3	0.023439353
5	0xbe6b049d	-0.22950979
6	0x3c75e340	0.015007794
7	0xbe6b9c31	-0.23008801
8	0x3d44312f	0.047898468
9	0xb9a66222	-0.00031735102
10	0xbe7a08ef	-0.2441747
11	0xbee279ce	-0.44233555
12	0xbe7467bb	-0.23867695
13	0xbe7c3bdb	-0.24632208
14	0x3d41cdeb	0.04731552
15	0xbc063d17	-0.008193276
16	0x3c96064b	0.018313548
17	0xbe828257	-0.25490066
18	0x3bc29ddc	0.0059392285
19	0xbe8120e2	-0.252204
20	0xbd430ecf	-0.047621544
21	0xbfb4df23	-1.4130596
22	0xbdd60197	-0.10449522
23	0x3f623e60	0.88376427
24	0xbcc5e354	-0.02415625
25	0x3c5ad1cd	0.0133556845
26	0x3f5c85e5	0.86141807
27	0xbf6d78e0	-0.92762566
28	0xbe60c94b	-0.21951787
29	0xbe6fcba0	-0.2341752
30	0x3c634c51	0.013873176
31	0xbec2608f	-0.37964293
32	0xb8c79faa	-9.518799e-05
33	0xbe6d0ad0	-0.23148656
34	0xbeb85fe6	-0.36010665
35	0x3c710379	0.014710301
36	0xbf5bfa10	-0.8592844
37	0x3b9c5922	0.0047713676
38	0xbb152a36	-0.0022760755
39	0xbe74736d	-0.23872156
40	0xbe86643a	-0.26248342
41	0x3f3d550c	0.73957896
42	0x3f5a7c8d	0.853463
43	0xbe61dc57	-0.22056709
44	0x3f1cafa0	0.6120548
45	0xbf2fba6e	-0.68643844
46	0x3a87197c	0.0010307278
47	0xbc1dd163	-0.009632441
48	0xbf180e61	-0.5939694
49	0xbd031d9b	-0.032010656
50	0x3cd0ac7b	0.02547287
51	0xbf250ad8	-0.6446967
52	0x3cbc6054	0.022995152
53	0x3c856e56	0.016287964
54	0x3f71e4b8	0.9448962
55	0x3d197944	0.037469164
56	0xbcabd7e2	-0.020976964
57	0xbe6f6cc2	-0.23381332
58	0xbbc9f54a	-0.006163274
59	0x3c8094b9	0.015695916
