learner_tingwei/model/testcase_1_distsquare_eps_0.0004_l_0.004_auglag_lbfgsiters_100addloss_0_adddim_0__seed_1/model37000.pkl (torch, 24480 bytes, 22 tensors)

Qincpt f4 [1, 1, 8]
00000000: f8e6 733f 2167 653f 1e4c 763f 480f 623f
00000010: a4fc 6b3f e62b 633f 19a9 5a3f ee38 623f
0.95274305 0.8961049 0.96209896 0.8830457 0.92182374 0.8873886 0.8541427 0.8836812

Qslope f4 [1, 1, 8]
00000000: 638b 643f b85d 753f dadc 533f 8625 653f
00000010: 0835 583f 8dd1 613f 6759 773f c1cc 703f
0.8927519 0.9584613 0.8275887 0.8951038 0.8445592 0.88210374 0.9662079 0.9406243

Pincpt f4 [1, 1, 8]
00000000: 14eb 993f 7929 813f 4ad7 8e3f 4ddd 843f
00000010: 0b13 843f 47c6 8b3f ecde 7a3f 9fb5 7c3f
1.2024865 1.0090781 1.1159451 1.0380036 1.0318311 1.0919884 0.979964 0.9871463

K f4 [8, 60]
00000000: 72ae c43d 01d6 f5bb e54b d6bb 58d9 83bc
00000010: 874a 83ba 789e c7bb a086 20bc e224 c43d
00000020: 055b e9bb 6af3 ec3d 1aaa d43d 9503 51bc
00000030: cdaa 11bb 91d4 083c 64fa e93d 1c3c 993b
00000040: 4462 e4bb dd2d 3ebc de39 e53b 5b78 023b
00000050: d625 e33d be76 ea3d 0f39 d9bb f644 043c
00000060: d77f 343c 579a e6ba 8603 f7bc d8fc 6cbc
00000070: d0ba e63d f255 62bc 76c1 02bc 6b85 acba
00000080: bcf4 993c 4433 49bc 0e0f e83d fe7e d53d
00000090: b71b e73d b437 1ebc d37b c83a 757a d53d
000000a0: 3828 e9bb d3d8 3f3b 0be4 ceba 72ed 96b9
000000b0: ec54 0a3e e4e8 89bc b4e4 003e e365 d53d
000000c0: a0f1 17bc dfb7 96bb c00f afbb 9535 8fbb
000000d0: 95e3 f93b 9fac 903b 4bd8 fc3d d419 a53c
000000e0: 20c4 e73d 9dc9 193c 7f95 1bbc c70d d63d
000000f0: 7189 2a3e 2579 0ebc ad71 08bd 1210 f5bb
00000100: 46b5 85b9 98a9 27bc ae5b c3bb 0ef5 103e
00000110: e005 0abb 7996 1a3e 6e57 2b3e 6814 26bc
00000120: 2aac e6bb 5df0 29bc d04a 103e 6031 08bc
00000130: 5411 97bb 1e87 b7bb 569f 813b b0ef 20bc
00000140: 0b53 0c3e de80 1b3e 4e4b d6bb eac2 ef3b
00000150: 8202 6bbc 3e1b a4bb 97f9 c3bb c9b4 d1ba
00000160: c0e5 1c3e bc5b 4fbc 1497 2abc 06f3 ef3b
00000170: 8ec2 2bbc ad3f 85bc e46f 1d3e 078a 2e3e
00000180: 1066 203e fe2d ea3a e9c7 053c 703b 103e
00000190: a18d 003c 3057 05bc 61f9 17bc 192f 363c
000001a0: 11d4 263e 456d dbb9 9cac 173e 0f3d 183e
000001b0: e433 acbc 2020 85bc b04a aabc 00b3 39bc
000001c0: ab29 0f3c f895 b7bb a88e 263e 12d4 053c
000001d0: e362 1c3e 86f4 473b 755f 15bb 36e5 153e
000001e0: dc4a cb3d f7ef 18bb f943 0db9 576c 983c
000001f0: 223c a2bc 0457 933c 4d72 853a 38fc a03d
00000200: 796d e93b 53cb 543d f7ae 953d 7ad8 003b
00000210: 8792 46bb ff13 d5bc db04 a33d 44c9 03bc
00000220: 76fb 83bc 9152 99bc 29f5 b13b bd7d d83b
00000230: 5795 b23d 703c a03d f55a 8c3c a4fc 92bc
00000240: 905b 5fbc 3817 21bc 5677 f73b 0754 d23b
00000250: aa3e 9b3d e438 41bc 4eac b43b 7085 7dbc
00000260: 6bc6 a93b f40f 29bc bcd5 9b3d eb8d ac3d
00000270: bf5e b53d f11e 0d3c 8e76 e7bb 58c5 c53d
00000280: 2dd7 efba 3b68 0bbb 609e 09bc a7a1 89bb
00000290: dd8a 803d 67aa 84bc 440b a13d 96f9 a73d
000002a0: 4ae2 4a3b e6c5 ad3b 9a26 c63b b4bb 94bc
000002b0: d034 84bb 7425 1dbc 9943 8c3d 77bc 4eba
000002c0: 4bd9 a23d 0efd 3e3c 2cd4 14bb 2f4f b53d
000002d0: 10ee 193e 677e b93a 8083 d6ba c6c3 6abb
000002e0: d016 8d3c 89f3 46bb 708c 1c3b c12a 323e
000002f0: cc4c 873a 96b1 2e3e 0689 1f3e bae9 3bba
00000300: 924a babb 13d3 49b8 c5a2 353e d112 00bb
00000310: 3bba a83b 6958 97bc 86f0 eebc 14e7 b9bb
00000320: 8a1f 153e 3367 2c3e 0797 10bc 8f43 ae3b
00000330: 9b42 7dbc c425 e3ba c7e8 98b9 1895 153a
00000340: 4267 2c3e c37f 403b d896 aabb c0f7 5d3c
00000350: dc22 1a3b 6410 f93b 3e27 363e 0c80 303e
00000360: 7493 183e f77d 213b ad4c 463c 3895 1d3e
00000370: e150 7abb 6230 bcbb 41bc 6e3c a113 913c
00000380: 77cb 323e 6dff 2fbc 5f00 1f3e 6521 143e
00000390: aa50 4c3c 2a76 343b 2e59 09bb 23c3 7d3b
000003a0: ac44 51ba d2f3 5f3b 73cf 2b3e 78be 62bc
000003b0: 51be 343e bbb8 c1bc 03ec 89bc f95b 263e
000003c0: 9eec 223e 02c2 193c 3c24 703c 7458 b6bb
000003d0: c611 f4bb 5a7c 04bb e183 16bb b128 233e
000003e0: d9f0 753b d206 253e 28f1 1d3e 9c2d 8d38
000003f0: fe79 8aba 3169 a5bc 36db 253e 7485 b83b
0.09603585 -0.007502318 -0.006539809 -0.016094849 -0.0010016718 -0.006091889 -0.009797722 0.09577347
-0.007121446 0.11569865 0.10384007 -0.012757202 -0.002222705 0.008351461 0.11424711 0.004676355
-0.006969722 -0.011607614 0.0069954237 0.0019908163 0.11091201 0.114484295 -0.0066291164 0.008073082
0.0110168075 -0.0017593604 -0.030153047 -0.0144645795 0.112661004 -0.013814436 -0.007980695 -0.001316232
0.018793456 -0.012280289 0.113309965 0.104246125 0.11284583 -0.009656835 0.0015295692 0.104237475
-0.00711539 0.0029273524 -0.0015784515 -0.0002878714 0.13508958 -0.016834684 0.12587243 0.10419824
-0.0092739165 -0.004599556 -0.0053424537 -0.004370401 0.007626007 0.0044151093 0.12345942 0.020153917
0.11316705 0.009386447 -0.009496092 0.104518466 0.16653992 -0.008695875 -0.033311535 -0.0074787224
-0.00025502796 -0.010233305 -0.005961857 0.14155981 -0.002106063 0.15096463 0.1673257 -0.010136701
-0.0070395665 -0.0103722485 0.14091039 -0.008312553 -0.00461022 -0.005600824 0.003955762 -0.009822771
0.13703553 0.15185878 -0.0065397387 0.0073169367 -0.01434386 -0.0050081303 -0.005980681 -0.0015999313
0.15322018 -0.0126561485 -0.010411996 0.007322672 -0.010483397 -0.016265715 0.15374714 0.17044841
0.15663934 0.001786649 0.008165338 0.14085174 0.007846267 -0.008138463 -0.009275765 0.011119627
0.16291834 -0.00041852347 0.14811939 0.14867042 -0.021020837 -0.01625067 -0.020787567 -0.011334181
0.008737962 -0.0056025945 0.16265357 0.008168237 0.15272097 0.0030510738 -0.0022792493 0.14638218
0.09926388 -0.002333639 -0.0001347213 0.018606348 -0.019804064 0.017985828 0.0010181159 0.07860607
0.007123646 0.051951718 0.073087625 0.001966028 -0.003029974 -0.026010511 0.079599105 -0.008043591
-0.016111117 -0.018716129 0.0054308367 0.006606786 0.087198906 0.078240275 0.017133215 -0.017942734
-0.01363267 -0.009832196 0.0075520677 0.0064187082 0.075803116 -0.011793349 0.0055137044 -0.0154737085
0.005181124 -0.010318745 0.07609126 0.08425506 0.08855962 0.008613334 -0.0070636934 0.09656781
-0.001829838 -0.0021271843 -0.008399576 -0.0042001787 0.06276486 -0.016194535 0.07863477 0.082019016
0.0030957633 0.0053031323 0.006047082 -0.01815591 -0.004034616 -0.009591449 0.06848831 -0.000788636
0.079516016 0.011657013 -0.0022709472 0.08852994 0.1503222 0.0014152051 -0.0016366094 -0.0035822256
0.017222792 -0.003035756 0.0023887418 0.17399122 0.001032257 0.17059931 0.15579614 -0.0007168312
-0.005685159 -4.8118713e-05 0.17737873 -0.0019542465 0.0051491535 -0.018474774 -0.029167425 -0.0056732986
0.14562812 0.16836242 -0.00882507 0.005318112 -0.0154577745 -0.0017329981 -0.00029165132 0.00057061156
0.16836265 0.0029373027 -0.0052059703 0.013547838 0.0023519313 0.007600831 0.17788407 0.17236346
0.14899999 0.0024641731 0.012103242 0.15388954 -0.003819518 -0.0057430724 0.01457125 0.017709555
0.17460428 -0.010742051 0.15527485 0.14465864 0.012470404 0.0027536252 -0.0020957696 0.0038721047
-0.000798295 0.0034172428 0.16778354 -0.013839357 0.17650725 -0.023647657 -0.016836172 0.16246022
0.15910575 0.009384634 0.014657076 -0.0055647437 -0.007448408 -0.002021572 -0.002296679 0.15933491
0.003752759 0.16115883 0.15424025 6.731899e-05 -0.0010564921 -0.02019176 0.16196904 0.005631143

a f4 [60]
00000000: 18f0 10be 0e90 a5b9 8fb1 b7bb 53cd d6bb
00000010: e7f1 ed3b fe77 de3b a2f5 8cbb 34dd 12be
00000020: 5b1e 77bc 3b0c 16be 95f6 18be 7474 8c3b
00000030: 0d18 b4bc a95f babb e7f0 0fbe 4ba8 cfbc
00000040: 45d4 81bc 1414 0e3b 6d1f bbba 23de 693c
00000050: 997f 07be fc46 10be 1875 a83a 9ce6 acbb
00000060: 2d83 313c 1460 ee3b f798 80ba ddec af3b
00000070: 49b0 11be 3db9 8ebb d210 413b 5c88 b8bb
00000080: 4710 aa3b 7c65 523b 0bb3 0fbe bf96 0ebe
00000090: d4eb 0abe 7bbe 8bbb a2a6 0abb 255e 13be
000000a0: f6d4 bebb 8eb3 673c 42d9 8ebc adf8 933a
000000b0: eafc 0fbe a5e0 aabb 5de0 0fbe c5fd 0abe
000000c0: 532e 633b bdbb 563b 5a28 b4bb b5fe c4bc
000000d0: 7f0d 893c 27b1 95bb b78a 0cbe 69f9 0f3c
000000e0: c69b 12be 1489 343c 03cd b5ba 9819 16be
-0.14154088 -0.00031578582 -0.0056058834 -0.0065552383 0.007261503 0.0067892065 -0.0043017427 -0.14342195
-0.015082921 -0.14653103 -0.14937814 0.004286343 -0.021984125 -0.005687673 -0.1405674 -0.025348803
-0.015848288 0.0021679448 -0.0014276333 0.014274153 -0.13232268 -0.14089578 0.001285228 -0.005276514
0.010834497 0.007274637 -0.0009811212 0.0053688125 -0.14227404 -0.004355578 0.0029459489 -0.0056314897
0.0051899287 0.0032103946 -0.14033143 -0.13924693 -0.13566524 -0.0042646504 -0.002115645 -0.14391382
-0.0058237268 0.01414193 -0.017437581 0.0011289321 -0.14061323 -0.005214768 -0.14050432 -0.13573368
0.0034665063 0.003276571 -0.0054979743 -0.024047235 0.016730068 -0.0045682373 -0.1372479 0.008787491
-0.14317235 0.01101901 -0.0013870302 -0.146582

b f4 [60]
00000000: b0f8 053e 0000 0000 0000 0000 0000 0000
00000010: 0000 0000 0000 0000 0000 0000 581c 083e
00000020: 0000 0000 4ae1 073e c091 053e 6bd3 20bc
00000030: 0000 0000 eae9 0dbc d7f2 063e 0000 0000
00000040: 0000 0000 0000 0000 0000 0000 0000 0000
00000050: fe4b f23d c009 063e 0000 0000 0000 0000
00000060: 0000 0000 0000 0000 00d7 eebb 0000 0000
00000070: af33 063e a4be f0bb 0000 0000 0000 0000
00000080: 0000 0000 ca46 42bc 2c66 063e 3940 063e
00000090: 9d40 023e e099 27bc 0000 0000 58d2 fe3d
000000a0: 5bc4 c4bb 0000 0000 0000 0000 0000 0000
000000b0: 4145 043e 9c0d d2bb 88be 003e c188 023e
000000c0: 0000 0000 636b 29bc bdc5 c4bb 0000 0000
000000d0: 0000 0000 0000 0000 921c 043e 0000 0000
000000e0: f159 053e 0000 0000 3763 fabb 0e27 053e
0.13083148 0.0 0.0 0.0 0.0 0.0 0.0 0.13292062
0.0 0.13269535 0.1304388 -0.009816031 0.0 -0.0086617265 0.13178574 0.0
0.0 0.0 0.0 0.0 0.118309006 0.13089657 0.0 0.0
0.0 0.0 -0.0072888136 0.0 0.13105653 -0.007346945 0.0 0.0
0.0 -0.011857698 0.13124913 0.13110436 0.1271996 -0.010229558 0.0 0.12442464
-0.0060048527 0.0 0.0 0.0 0.12917043 -0.006410314 0.12572682 0.1274748
0.0 -0.010340544 -0.0060050176 0.0 0.0 0.0 0.12901524 0.0
0.13022591 0.0 -0.007641222 0.1300318

K f4 [8, 60]
00000000: cd21 8fbc 2b60 06bc 1d55 483b 03b0 31bc
00000010: 33c4 babc 9abd 11bc 8b48 963c 8cec e9bc
00000020: 11eb 22bd 1779 5bb9 27c8 863a 15ce c93b
00000030: a1ca a3bb 5e49 693e fa08 00bc 097f 6a3e
00000040: 3c3e a0bb 69a4 6fbc a28a 5b3e c6fa 823c
00000050: a95e 11bc 1536 bf3c c235 853b 28c9 c0bc
00000060: b53d b83b a9a7 64bb 492d 693e b842 0a3e
00000070: 60b8 00bd 9115 6e3e 929c 6f3e 3b0b 08bc
00000080: 9ed6 54bc 9627 2dbc cb22 36bc f284 a83b
00000090: bb8b 6a3e 3876 68bc 7eb0 6f3e f6ec 6abc
000000a0: 49ef 76bc 37e2 753e 9913 edbc dea4 be3b
000000b0: 0e9f 69bc 207a 5c3b f949 663e b2cb 4cbd
000000c0: 1ad2 ddbc 0514 37bd 0cf6 5ebc 9372 8e3c
000000d0: 603b 41bd e462 05bc 9a5e 893c da5c 3cbc
000000e0: 97cf aebb 2a75 18bb e74c cbbc e5a3 42bd
000000f0: 6e1f 44bc 7596 7dbc 4ee8 8fbb 57bc aabc
00000100: 10ca dcbc 59a7 083c 5a3f 923c 3436 e5bc
00000110: b201 26bd cf89 b8bb 099b ffbb 3dd4 80bc
00000120: 9708 ff3b 1c8f 9b3e 3df5 4bbc 5bab a13e
00000130: b7ac 27bc 8eb7 8b3c 8b24 9e3e f031 463c
00000140: 7740 a03b 3da4 b23b 21bd 6c3a f155 aabc
00000150: b87d 4f3c 562b 99bb 2144 a03e 4045 bb3d
00000160: 2fbc 06bd bb74 963e 9849 9a3e ab28 96ba
00000170: b314 843b 6910 5b3c cb0b 853c 8576 0bbd
00000180: 8e4b 9b3e a684 eb3b 2df8 973e 6a50 5dbb
00000190: 059a 9eba f284 923e 59a9 99bc 59af f53b
000001a0: 98d2 c938 7d10 2bbb 1dc6 9e3e a7d6 a7bc
000001b0: 49f8 ebbc abce 9fbc 60cf 4ebb 5c5b 343c
000001c0: 9417 6dbd 534d 32bb e4cc 043c 981f d6bb
000001d0: 60ff 80bc d7ef 353c 29e4 e3bb f86b dcbc
000001e0: 824a 4abb 942b 843b 60fa 5abc 865e 80bb
000001f0: 9766 97bc aff1 f5bb 3dce 22bc 399a f1bb
00000200: b7cb 3fbc e7dc d5ba 9377 03bb d68b 073c
00000210: adca 1ebb 52fc 213e 5205 1d3c d266 283e
00000220: 2ed7 d9b8 9565 26bc 3f98 313e e398 b8bc
00000230: 3077 fcbb c842 aebc b9b4 d0bc bae5 fdbc
00000240: 5af6 8bbc 259b a53b f70d 1d3e d6f5 ac3e
00000250: 1bfc 44bc ca19 253e 5860 293e a042 ddbc
00000260: 9a50 97bb 35a7 39bc be93 af3b 429d 0abc
00000270: 653c 1c3e 490f 103c ceb0 363e 25cf 0bbc
00000280: fe4d 06bc 7f30 243e dee4 15bd 93f8 b2bc
00000290: 20e5 9fbc 49fc d4bb 33dd 2e3e f711 9dbc
000002a0: a27c 03bd 3d02 d7bc 3d43 21bc a465 54bc
000002b0: 9729 9f3d 09cd 363c b675 c7bc 63e6 cabb
000002c0: d926 5fb9 058a 643b 64ed 74bc ff3c 01bd
000002d0: 9de5 233c 3ff0 8c3a e9f8 343c c212 253a
000002e0: 5477 4bbc 1b15 9f3b e0d6 403c 9c05 1bbd
000002f0: 726e 80bc deb8 a4bb dd45 72bc 6ae5 b8bb
00000300: 6505 523c 9e1e 933e d48f 9ebb 545e 883e
00000310: 0549 823b 5964 2ebc 6dba 8e3e a48f 153d
00000320: fe4a 42bc 36b2 a33c bf1b fc3c e001 7dbc
00000330: cb36 f53c a6e6 af3b a842 8b3e ec56 983e
00000340: a443 53bc da6c 913e f726 903e 3723 c5bb
00000350: fdcb 18bc 3395 203c 7078 0a3b 99e0 55bc
00000360: eaf6 8c3e 93d9 4fbc f539 8f3e 19ae a73b
00000370: 2e77 43bc 43f7 913e 5bdc c9bc 3437 083d
00000380: 57ba de3b 3903 adbb e02d 913e a89c 06bd
00000390: 060c debc 3c28 26bd 8304 6e3b c412 583c
000003a0: 5cc7 6cbc 91b8 95bc da89 9d3c 2bc0 ac39
000003b0: b7db 69bc a5ed d0bb 4c4e 58bc e752 ecbc
000003c0: 3b5f 0ebc d471 05bc d230 16bc 418a 40bc
000003d0: eb14 41bb 57d6 3aba c3d1 29bd 44b6 64bc
000003e0: 5583 33bb c156 5d3b 782b 3ebc 2c99 7bbb
000003f0: c055 633b 862e 453e 9140 04bc 42f2 4d3e
-0.017472172 -0.008201639 0.003056831 -0.010845187 -0.022798633 -0.008895302 0.018345138 -0.028555177
-0.039774958 -0.00020930577 0.0010283039 0.0061586 -0.0049985205 0.22781894 -0.00781464 0.22900023
-0.0048902314 -0.014626601 0.21439603 0.015988719 -0.008872666 0.023341218 0.0040652463 -0.023533419
0.0056225904 -0.0034889972 0.22771181 0.13502014 -0.031425834 0.23250414 0.2339957 -0.008303459
-0.012990622 -0.01056852 -0.011116694 0.0051428014 0.22904865 -0.014188342 0.2340717 -0.014338722
-0.015071698 0.24012075 -0.028940009 0.0058179935 -0.014259113 0.0033642128 0.22489156 -0.049998946
-0.027077723 -0.044696826 -0.013608467 0.017388618 -0.047175765 -0.008141253 0.016768742 -0.011496747
-0.005334805 -0.0023263195 -0.024816943 -0.047519583 -0.011970384 -0.015477766 -0.0043917065 -0.02084176
-0.02695182 0.00834068 0.017852474 -0.027979948 -0.04052896 -0.0056316624 -0.007800464 -0.015726203
0.0077830064 0.3038262 -0.012448606 0.31576046 -0.0102340495 0.0170553 0.30887255 0.012096867
0.0048904973 0.0054517076 0.0009030868 -0.020792933 0.012664251 -0.0046743555 0.31301978 0.09144068
-0.03289431 0.29385933 0.30134273 -0.0011456212 0.004030788 0.013370612 0.016240975 -0.034048576
0.3033108 0.007187444 0.2968153 -0.0033769854 -0.0012100345 0.28617054 -0.018757509 0.0074977097
9.623653e-05 -0.0026102357 0.31010523 -0.020488096 -0.028804915 -0.019507727 -0.003155671 0.01100811
-0.057883814 -0.0027206733 0.00810549 -0.006534528 -0.015746772 0.011104546 -0.006954689 -0.026906952
-0.0030867164 0.004033515 -0.013365358 -0.003917518 -0.018481536 -0.0075056176 -0.009936866 -0.007373121
-0.011706284 -0.0016316444 -0.0020060285 0.008273086 -0.002422969 0.15818909 0.009583788 0.16445473
-0.00010387447 -0.010156055 0.17343234 -0.02253384 -0.007704638 -0.021272078 -0.0254768 -0.030993331
-0.017085243 0.005053895 0.15337358 0.33781308 -0.012022997 0.16123119 0.16540658 -0.027009308
-0.0046177628 -0.011331369 0.0053581884 -0.008460345 0.15257414 0.008792707 0.17840883 -0.008533274
-0.008197306 0.16034125 -0.036595218 -0.021847045 -0.019518435 -0.0064998013 0.17076568 -0.019173605
-0.03210128 -0.026246184 -0.009842691 -0.012963686 0.077716045 0.011157283 -0.024348121 -0.006192015
-0.00021281409 0.0034872305 -0.014949176 -0.03155231 0.010003475 0.0010752751 0.011045673 0.00062970456
-0.012418587 0.004854811 0.01176998 -0.037847146 -0.015677664 -0.0050269207 -0.0147871645 -0.0056425827
0.012818669 0.28734297 -0.004838923 0.26634467 0.0039759898 -0.010644042 0.27876607 0.03651394
-0.0118587 0.019982439 0.03077495 -0.015442342 0.029933354 0.0053680716 0.27199292 0.29753816
-0.012894545 0.2840336 0.28154728 -0.006016161 -0.009325978 0.009801197 0.0021128915 -0.013054037
0.2753213 -0.012686151 0.27973905 0.0051171896 -0.01193027 0.28508958 -0.024641206 0.03325577
0.006797116 -0.005279925 0.28355312 -0.032864243 -0.027105343 -0.040565714 0.0036318607 0.013188068
-0.014451828 -0.018276485 0.019230772 0.00032949573 -0.0142735755 -0.0063759857 -0.013202261 -0.028848125
-0.008689697 -0.0081448145 -0.009166913 -0.011751712 -0.002946193 -0.0007127276 -0.04145981 -0.013959471
-0.0027391512 0.0033773633 -0.011607043 -0.0038390858 0.0034688562 0.19256029 -0.008072034 0.20111945

a f4 [60]
00000000: ad2d 4bbb ddaa 1f3c cc75 f63a 133d 5b3b
00000010: 99c4 933c fd7a a7bc 98d3 19bd b205 383d
00000020: fc31 963c 72d0 19bc 0497 9a3b 93ef 0bbc
00000030: 00d3 403a b650 513e 3737 b73b f520 563e
00000040: ab0f 6fba 9a9b edb8 87b8 5f3e 364e 2bbd
00000050: ae24 663c 9e6d 3cbd 8aee 25bd 3c40 b6bc
00000060: 66b9 63bd 8922 48bc d72f 513e a492 2cbf
00000070: 7dbf cf3c fd0a 533e 4d0b 523e 78b9 873c
00000080: f207 29ba 10be 7cbc cfb2 88bc 2845 e9bb
00000090: 876f 513e b5e1 0ebc b25b 503e 72dd c1bb
000000a0: 9945 15bb b623 503e 7fd7 083d b900 16bd
000000b0: 869e 19b7 f033 b93b 6b82 533e 0c0c c63c
000000c0: b8ff 173d 276c bf3a 5cc5 a33b 6f65 22bd
000000d0: 182a 0dbe 3452 54bb 57d5 22bd 068a c7bb
000000e0: c156 82bc 667c 7bbc 17c2 79bc a17e 7f3c
-0.0031002567 0.009745327 0.0018803417 0.003345315 0.018038081 -0.020444388 -0.037555307 0.044927306
0.018334381 -0.009388076 0.0047177095 -0.008541006 0.000735566 0.20440945 0.005591299 0.2091101
-0.0009119461 -0.00011330024 0.21847735 -0.041822635 0.014046831 -0.046002977 -0.04051069 -0.022247426
-0.05559673 -0.012215265 0.20428406 -0.67411256 0.025359863 0.2060966 0.20512123 0.01656793
-0.00064480223 -0.015426174 -0.016686825 -0.00711884 0.204527 -0.008720805 0.20347479 -0.005916291
-0.002277708 0.20326123 0.033408638 -0.036621783 -9.15642e-06 0.0056519434 0.2065522 0.024175666
0.037109107 0.0014604375 0.0049978923 -0.039647516 -0.13785589 -0.003239763 -0.039754238 -0.0060894517
-0.015910508 -0.015349483 -0.0152440285 0.0155941555

b f4 [60]
00000000: 8de4 b1bb 0000 0000 0000 0000 343f 5cbc
00000010: b7a2 7abc 0000 0000 c28c 03bd ff43 b7bc
00000020: 37b6 b4bc 0000 0000 61c0 6e3a 0000 0000
00000030: 0000 0000 2eec 6fbe 0000 0000 e8d6 67be
00000040: 0907 07bc 9ec4 eabb 54a3 6abe 34fa 04bd
00000050: 0000 0000 2033 00bd f9b2 c2bc ab29 bebc
00000060: 79bc 0abd 0000 0000 9782 75be 87aa 173f
00000070: fdcb b6bc 4764 61be b243 6dbe 0000 0000
00000080: 0000 0000 7aec 56bc 0000 0000 8cab 9ebc
00000090: 26c1 65be 0000 0000 d6ec 63be 24dc 12bc
000000a0: e892 2bbb 5b30 6bbe 27e1 2bbc c79b fbbc
000000b0: 0000 0000 0000 0000 e9ef 6dbe f69a b6bc
000000c0: 61c4 b6bc a208 ffbc 0000 0000 2448 06bd
000000d0: 1a03 c33d 11b2 bfbb 7650 04bd 87d3 bcbb
000000e0: 03f7 cbbc 0000 0000 c023 9dbc 2bb7 cdbc
-0.0054288567 0.0 0.0 -0.013442803 -0.015297583 0.0 -0.03211666 -0.02237129
-0.022059543 0.0 0.0009107646 0.0 0.0 -0.23429939 0.0 -0.22640574
-0.008241423 -0.007164552 -0.22913867 -0.032465175 0.0 -0.031298757 -0.023766981 -0.023213228
-0.033871148 0.0 -0.23975597 0.5924458 -0.022314066 -0.22010909 -0.23170355 0.0
0.0 -0.013117904 0.0 -0.01936891 -0.22436962 0.0 -0.22258314 -0.008963618
-0.0026180092 -0.22967665 -0.010490692 -0.030713929 0.0 0.0 -0.2323605 -0.022290688
-0.022310438 -0.031132046 0.0 -0.032783642 0.09522076 -0.0058500846 -0.032303296 -0.0057625207
-0.024898058 0.0 -0.019182086 -0.025111755

K f4 [8, 60]
00000000: c980 7f3b f4f9 e23d 0b4b db3a e4df dbbc
00000010: dce5 6fbb 1031 93ba dd95 b73a d363 8dbc
00000020: c717 07bd 8558 edbb c867 82bc 8063 e3bc
00000030: af79 963b fb7d 663a 16b6 1a3c 13fd f8bb
00000040: 9799 d63d 836f 003b ca9a 25bc 7adb 4dba
00000050: 413f cd3d a53b 8b3c 6046 d13b c0cf 33bc
00000060: d3a7 cbba ea7c 72bc 28b9 013c 9dab b2bc
00000070: d4fd d738 67c1 63bc 9572 1aba 57a0 ce3a
00000080: 5462 c53b 90ac d03d 840c 79bc a6b0 313a
00000090: 1672 e03d ad06 1cbc db05 abbb 9c1b 89bc
000000a0: c8ad a0bc 8764 1f3c ae1e bfbb 3d99 023c
000000b0: 331e 2abb acb3 d53d 1fdc 903b 29b6 de3d
000000c0: 4b6f d23d 7523 e93d aab7 bcbc 043b c73a
000000d0: e87e 3bbc 74ec 70bc d3b1 c23d db86 a4bb
000000e0: 3e50 1e3b 34ca ba3b e6a8 e5b8 4413 cdbc
000000f0: 2d11 0dbc 1054 1b3e 0179 f2bb 4f9c b33b
00000100: 4e65 5cbc 3b26 1739 8283 97bb 1871 dcbb
00000110: a493 e4bc 27a7 cdbc 8749 cb3b 149a bf3b
00000120: 5794 02bc 0494 d2bc 46c6 1abc cb72 d5bb
00000130: 4386 033e fd64 44bc a9c9 d9bb de87 b1bc
00000140: d94f 003e f262 023c 6e75 12ba 3084 39bc
00000150: 27b3 61bc 4633 073c f047 40bc dbd2 6fbc
00000160: 52b4 2ebc a9b0 9dba dc04 4abc fdbc 90bc
00000170: 3265 48bc cbbc 073e 9eb0 b939 09a1 a5bb
00000180: 785b 0a3e 8dab 10bc 42d2 17bc 4a68 873b
00000190: 33e1 11bd 0ac6 a63b 0b9d a9bc ca48 793b
000001a0: 27d0 caba aa6e 093e 46d6 99bc 5454 0d3e
000001b0: ca91 063e ef13 0f3e 6121 243c 99e4 8cbc
000001c0: 5e55 f53a f626 943a 1ed9 0c3e 4b5d 42bc
000001d0: 38bc d0bb 6193 9bbb 2fae a2bc ef70 11bd
000001e0: bf26 07bc b6e6 b43d a5da 6bbc d712 9cb9
000001f0: 4fdd bd3b c09c af3b 925e 483b 3171 4d3c
00000200: b9fa 443c 8f7f 6a3a fe6f e03b e6d5 23bb
00000210: 4d4e a03b 4e37 8b3b 223c 3ebb 1640 033c
00000220: 69dd bd3d cee3 ca3b 0906 a6bb 3fce 28bc
00000230: aa30 9c3d 85b7 7a3b 094a 9abc e37c 8fbc
00000240: 9246 213c 40d1 34bc 1c73 363c d50c 443c
00000250: 0460 873a 6ff0 3cbc 2dbc bcbb bbd5 d6bb
00000260: c2aa 86b8 4195 b13d 8b18 80bc 52f5 fbbb
00000270: 9777 cb3d 1507 25bc a7f7 07b8 29bd fcbb
00000280: e03f 4cbd d28f 8dbc d494 44bc b8d5 f5bb
00000290: f65a ae39 9cd1 a63d 907d 3f3c 1242 a13d
000002a0: 9a40 a63d 7ad7 af3d 0f10 6abb 0fcf b63a
000002b0: a45a 93bc 9b28 d9ba 2d7a 8f3d d352 25bc
000002c0: 9c3b 3c3c 27bb 4abc 0a59 953c 4ac5 01bd
000002d0: 180c 86bc 381a 093e f55d 58bc 443a 8bbc
000002e0: d99f 053b 6f67 83bb 34b9 a6bb 5266 da3b
000002f0: 050c 85bc 005c 073b bcc9 94bc 80c8 aabc
00000300: 402e 5cbc 816f 813a 8451 05bc 82da 80bc
00000310: ad60 0a3e a9d0 e73a 045d 14bc 040e 5bbb
00000320: d772 103e abc0 7cbc 8dfc 833a 9d3d 28ba
00000330: d960 d5b8 8d97 95bc eb24 22bc 124f a93a
00000340: c2c4 aebb 2d7f a33b 726f ddbb 6e38 d4bc
00000350: ff1c 133c 6f6d 203e 5500 f3bb 41a3 da3a
00000360: 0325 153e 5e1a 6f3b 546c 373b 5ddf 90bc
00000370: 73f0 ddbc 5519 8dbc a5ae 0fbb c41b c4ba
00000380: a5a8 1a3b 562a 193e 65ee 7e39 1be2 063e
00000390: ca8d 0c3e 11a2 fc3d eb53 1339 240d 32bb
000003a0: 16f6 003b 03a7 163c 5f85 183e 7d09 00bb
000003b0: e23a c3ba dbd4 40bc fd2f 85bb 81ed b8bc
000003c0: a16a b6bb c92f 503e aa4c 32bc b2db beba
000003d0: 5008 843b 3d7c 6ebc a2ee b63b 2305 8cbb
000003e0: c726 21bc 9980 05bc b6ef 963c 3d8e 04bc
000003f0: 020e 00ba 398d 7a3c 5952 51bc 7cf4 56bc
0.0038986674 0.11082831 0.0016730739 -0.026840158 -0.0036605513 -0.0011229832 0.0014006455 -0.017259514
-0.03298166 -0.0072432184 -0.015918627 -0.027757406 0.0045921425 0.0008792576 0.009442827 -0.007598528
0.10478514 0.0019597716 -0.010107705 -0.0007852834 0.1002183 0.016996214 0.006386563 -0.010974824
-0.0015537686 -0.01480029 0.00791768 -0.021810347 0.00010299278 -0.013901091 -0.0005891708 0.0015764338
0.0060236845 0.10189164 -0.015200738 0.0006778337 0.1095926 -0.009523076 -0.005219204 -0.016736798
-0.019614115 0.009728557 -0.0058325147 0.007971105 -0.0025957942 0.1043466 0.0044207717 0.10874588
0.10275134 0.11383716 -0.023036797 0.0015200083 -0.011443831 -0.014704812 0.095065735 -0.005020959
0.0024156715 0.005700374 -0.00010951031 -0.0250336 -0.008610052 0.15168786 -0.0073996787 0.00548128
-0.013451887 0.00014414724 -0.0046238312 -0.006727349 -0.027902432 -0.025104119 0.0062038335 0.005847225
-0.007969937 -0.025705345 -0.009446686 -0.0065139285 0.12844186 -0.011986968 -0.006646354 -0.021671232
0.1253046 0.007958161 -0.00055869564 -0.01132302 -0.013775623 0.008251971 -0.011735901 -0.014637674
-0.010663109 -0.0012030798 -0.01233026 -0.017668242 -0.012231158 0.13255613 0.0003541754 -0.0050545973
0.13511455 -0.008829963 -0.009266438 0.0041323053 -0.035615157 0.005089526 -0.020704767 0.003803777
-0.0015473411 0.13421121 -0.018778931 0.138017 0.13141552 0.13972448 0.010017724 -0.017198848
0.0018717458 0.0011303115 0.13754699 -0.011863063 -0.0063700937 -0.0047477935 -0.019858448 -0.035508092
-0.008248984 0.08833067 -0.014395391 -0.00029768675 0.0057942043 0.005359262 0.0030573946 0.012539194
0.012022668 0.00089453993 0.006849288 -0.002499932 0.0048921467 0.004248536 -0.0029027541 0.008010885
0.09270746 0.006191707 -0.0050666374 -0.010303079 0.076264694 0.0038256359 -0.01883413 -0.017515605
0.009843485 -0.011036217 0.011135843 0.01196595 0.0010328298 -0.011531933 -0.005759737 -0.0065562404
-6.421424e-05 0.08671046 -0.015636703 -0.0076891566 0.09934919 -0.010072489 -3.2417152e-05 -0.0077129793
-0.049865603 -0.017280493 -0.011998374 -0.007502284 0.00033255637 0.081454486 0.011687651 0.0787393
0.081177905 0.08586021 -0.0035715138 0.0013947206 -0.017987557 -0.0016567888 0.07005725 -0.010090548
0.011488821 -0.012373722 0.018230934 -0.03168229 -0.016363189 0.13388908 -0.013205995 -0.016995557
0.0020389466 -0.004010133 -0.005087996 0.0066650296 -0.016241083 0.0020654202 -0.0181626 -0.020847559
-0.013438761 0.000987515 -0.008137111 -0.015729193 0.13513441 0.0017686087 -0.00905538 -0.0033425102
0.14106308 -0.015426795 0.0010069773 -0.00064178725 -0.00010174671 -0.018260742 -0.009896497 0.0012917242
-0.005333514 0.004989526 -0.00675767 -0.025905814 0.008979081 0.15666746 -0.007415811 0.0016680734
0.145649 0.0036484222 0.0027988153 -0.017684633 -0.027092194 -0.017223993 -0.0021924165 -0.0014961888
0.0023599055 0.14957556 0.00024312137 0.1317219 0.13725963 0.12335599 0.00014050274 -0.0027168477
0.0019677929 0.009195092 0.14894627 -0.0019536905 -0.0014894868 -0.011769499 -0.0040645585 -0.022574188
-0.0055669104 0.20330729 -0.010882536 -0.0014561324 0.0040293112 -0.014555988 0.0055826465 -0.0042730733
-0.009835905 -0.008148336 0.01842485 -0.008090553 -0.00048849 0.015292459 -0.012775981 -0.013119813

a f4 [60]
00000000: 452f 45bc 9bd0 f5bd fe1b 8fbb 7a4c 9d39
00000010: 8ae0 503c 93ce cc3a 4a2b cb3c 32b8 deb8
00000020: 04da f7bc 3980 feb9 cc9c 1c3a ab00 e3bb
00000030: 3f44 91bc 2fc1 4d3c d06d 1fbc c95e a7ba
00000040: eab4 d8bd d49d ed3b 1066 00bd 3db4 1eb9
00000050: 3bea e4bd 53cb b9bb 770e 08bc b50d b4ba
00000060: 0eec d6bb e0dd 11bc 7867 283c 1504 0737
00000070: f030 d2ba 5454 b83a f4c4 93bc 52f2 56bc
00000080: f088 f1bb 73ac ecbd f867 2e3c f0a2 38bc
00000090: bd1a edbd 4de3 b03b 10f6 243c 2238 09bb
000000a0: 91a8 e93c 72c0 24bb a086 84bb db49 11bc
000000b0: 8120 b63c cb96 e3bd d58c 873c b655 e5bd
000000c0: ca77 f2bd 4f63 d3bd d4ee 56b9 1389 3abc
000000d0: daa5 133a 4620 09bc 81b9 e2bd 7f64 fa39
000000e0: 6c0c f7b9 53a9 27bb cee8 7e3b 17e7 ecbc
-0.012035196 -0.12002679 -0.0043673506 0.00030002353 0.012748847 0.0015625529 0.024800915 -0.00010620094
-0.030255325 -0.0004854219 0.0005974292 -0.00692757 -0.017732738 0.012558266 -0.009730771 -0.0012769337
-0.105813816 0.0072514806 -0.031347334 -0.00015135198 -0.111774884 -0.00566999 -0.00830423 -0.0013736995
-0.0065589016 -0.008902997 0.010278575 8.0475775e-06 -0.0016036313 0.0014063218 -0.01803825 -0.013119297
-0.0073710606 -0.115563296 0.010644905 -0.011269316 -0.115773655 0.00539819 0.0100684315 -0.0020937999
0.028522762 -0.002513912 -0.004044369 -0.008867706 0.022232296 -0.11112746 0.016546646 -0.11197989
-0.11839254 -0.10321676 -0.00020497601 -0.01138522 0.0005632319 -0.008369511 -0.11070538 0.0004775859
-0.00047120766 -0.0025583103 0.0038896087 -0.028918786

b f4 [60]
00000000: 0000 0000 534c 9f3d 7986 f0bb f3db 0abc
00000010: 0000 0000 0000 0000 0000 0000 587f c9bb
00000020: a7c2 0cbd 0000 0000 9298 fdbb 0000 0000
00000030: 0000 0000 0000 0000 0000 0000 0000 0000
00000040: ab11 973d 0000 0000 0000 0000 fd55 e3bb
00000050: d27b 973d 0000 0000 0000 0000 0000 0000
00000060: 0000 0000 0000 0000 232c 01bc 0000 0000
00000070: 0000 0000 0000 0000 0000 0000 0000 0000
00000080: 0000 0000 8fb7 a03d 22e2 12bc 0000 0000
00000090: 516b 913d 9d5c f8bb ccc9 c4bb cec2 04bc
000000a0: e566 febc 0000 0000 4bc9 c4bb 0000 0000
000000b0: 0000 0000 6d4c a13d 0000 0000 6995 993d
000000c0: 8a00 983d 2eda 8d3d 0000 0000 0000 0000
000000d0: 1ef3 54bc 0000 0000 66d3 a13d a3c9 c4bb
000000e0: 0000 0000 0000 0000 0000 0000 a211 02bd
0.0 0.077782296 -0.007340249 -0.008475292 0.0 0.0 0.0 -0.0061492138
-0.034365322 0.0 -0.007739135 0.0 0.0 0.0 0.0 0.0
0.07376417 0.0 0.0 -0.006937741 0.07396664 0.0 0.0 0.0
0.0 0.0 -0.007884058 0.0 0.0 0.0 0.0 0.0
0.0 0.07847511 -0.008965047 0.0 0.07100547 -0.0075793997 -0.0060055014 -0.008103086
-0.031054923 0.0 -0.0060054413 0.0 0.0 0.07875905 0.0 0.07499201
0.07421978 0.0692638 0.0 0.0 -0.012997417 0.0 0.07901649 -0.0060054823
0.0 0.0 0.0 -0.031755097

K f4 [8, 60]
00000000: a4d6 a03b 008d a03e bf26 9c3d b1d4 a33c
00000010: 30ea f5bd 2a4a dbbc 4482 e53d 3d70 d73d
00000020: ac71 00bd 004d 3d3b 8064 7fbc eacb e7ba
00000030: a7c6 f53d 625f 74ba 3883 4b3c 518c ee3d
00000040: 723d fd3d 021d 64bc dfbe 00bc ee99 4cbd
00000050: f08b 35bd 9f36 523c 7fcc b73c 5d9f e73d
00000060: d895 6abf 50ec d73c 919a a93c c3e5 f73c
00000070: 51e9 e93b 355c 01bc 9c5c ee3d 4ec3 2abe
00000080: e9ce 2dbc 4464 b83c 9a9d 1cbc 13a3 4bbd
00000090: 7391 e13d 6431 20bd 67b0 043e 799a 02be
000000a0: efd2 35bf 5783 d33d 91a2 593c b6be f33d
000000b0: 7459 d1bc 469a 7f3d ac6f 053e 06fd d83d
000000c0: 50dc 59be 0309 df3e 3f9b 73bd 6238 44bd
000000d0: 0dd9 19bc 41c8 103d 114e b13c 7a30 023e
000000e0: 1a89 5a3c bd23 e2bc d761 f03c 7373 7a3c
000000f0: 2b7b 23bc 44ca 223f c419 dc3e b3e5 e33c
00000100: ff5f fabd 3c2d 663b 0e21 a13e 1c84 3d3e
00000110: ef9d 05bc d75c ac3b cfcb 313b bf63 4fbb
00000120: 6a69 973e f52e 7339 71c7 ef3c 12ee 8a3e
00000130: 1059 b13e 51ed a9bc be67 69bb 5cc2 47bd
00000140: 9b92 87bb 0065 91bb 0396 343c 7191 a83e
00000150: 8a44 5dbf f847 953c 0b5a 3e3c dd88 733c
00000160: b95e 363c 39e2 90bc 4f5e b23e 1681 1abe
00000170: 1e8a 52bc cb8a c33c ec03 203c 9672 fcbc
00000180: 6142 903e 01d0 f7bc 23d6 913e bab9 d4be
00000190: 3af9 4dbf f22e 963e c34b c93c 1b33 8a3e
000001a0: 68f8 63bc 1360 c73e a88f a23e 9ef4 973e
000001b0: 87d3 67be 63d3 4f3e 2acb 68bd 133a 2bbd
000001c0: 76b5 ea3b 1d26 583c fff6 db3c 5a01 983e
000001d0: 5d14 b83c 26a3 d4bb 7883 6a3c a223 5abc
000001e0: 921e 76bc 716d 8b3e 2d28 d43c 72da 34bd
000001f0: 526f 96bd bdac 3dbd 0370 343d 011b 3b3d
00000200: ffeb a2bd fabc e8bc 9d74 1abd 71de 62bc
00000210: d435 8c3c 3b16 45bc 4dd6 d8bc c3c9 e43c
00000220: 6508 063d c329 bcbd fee7 ffbc b5a2 10bd
00000230: d567 7bbd d76e 82bc 4bb7 adbc 4fac d83c
00000240: edbd 263f 90f4 cabc 3ec8 95bc f936 00bd
00000250: 6756 3dbd e41b bcbd a190 363d 1b8e 14be
00000260: 290d 3dbc d9e4 edbc 3046 8d3b c538 b0bd
00000270: e658 d13c 1342 05bd 8d7a 1c3d ca66 36bf
00000280: 20ef 1e3f c31d e63c 3387 debc 51b8 003d
00000290: 0b23 91bd 4056 173d a6cd dc3c 2507 f83c
000002a0: 0567 81be ecd3 0b3f 3ec1 85bd c4a4 bbbd
000002b0: 42c3 e9bc ffc0 7dbc e12f e2bc c167 e83c
000002c0: dc42 95bc 4b32 a239 ac8b 95bc 57a0 33be
000002d0: d9d5 38ba 4ce2 003f 40b6 973e bfa9 c53c
000002e0: 571d 00be b3a5 07bd 8f6b 693e 3ec3 203e
000002f0: e3b6 a2bc b7dc 823c 1a8e 25bb 9426 b8bb
00000300: 1de6 6a3e f553 cf3b 88c5 b23c 9be2 523e
00000310: f76a 743e 3b5a 10bd 5452 07bc 1389 4dbd
00000320: 4536 debc 1eac c83c f169 853c 7a3b 7d3e
00000330: 57ef 68bf 8f10 5d3c f96d ad3c 1e96 5f3c
00000340: 9a4c 323c e0be d9bc cd5f 893e deff 15be
00000350: 914b 783c aa90 b63b efe7 e8bb 59b7 e3bc
00000360: 308d 6d3e 51dc 67bd 8dbd 4d3e 2635 c3be
00000370: fe05 49bf 7f61 5c3e 3e6d 9f3c 4393 533e
00000380: b972 c4bc c32c 893e 44c2 653e 37d7 5e3e
00000390: 9641 a8be 1857 a23e 2868 23bd c4ca 4dbd
000003a0: de25 6a3b a46f 8c3b a653 833c 50db 4f3e
000003b0: b8c8 ed3c 481b babc 1fde c03c 0222 87bd
000003c0: 12c7 483b bc0a 1d3f 5d70 d83e b51a 3dbd
000003d0: f90d ddbd 759c b5bb 337f a93e 7563 8b3e
000003e0: bfff 96bd 221a 03bd 2591 dabc 2746 53bc
000003f0: ee29 b23e 1e0f da3b b348 cfbc 20aa ab3e
0.0049083997 0.31357574 0.07624578 0.01999888 -0.12007558 -0.026768763 0.11206487 0.10519455
-0.031358406 0.0028885007 -0.015587926 -0.0017684672 0.120007806 -0.00093220745 0.012421422 0.11647857
0.123652354 -0.013922932 -0.007858007 -0.049951486 -0.044322908 0.0128304055 0.022436379 0.11309693
-0.91634893 0.0263578 0.020703586 0.030260926 0.007138409 -0.007895519 0.116387576 -0.16676065
-0.010608413 0.022508748 -0.0095590595 -0.049716067 0.1101407 -0.039109603 0.12957917 -0.12754239
-0.71024984 0.103277855 0.013283388 0.119016096 -0.02555535 0.062402986 0.1303088 0.105951354
-0.21275449 0.43561563 -0.059474226 -0.047905333 -0.009390128 0.035347227 0.02164367 0.12713805
0.013338352 -0.027604932 0.029343529 0.015286314 -0.009978096 0.6358988 0.42988408 0.02781949
-0.12225341 0.0035122177 0.3147053 0.18507427 -0.00815533 0.005260091 0.0027129536 -0.0031645147
0.29572612 0.00023191779 0.029269906 0.27134758 0.34638262 -0.020743044 -0.0035614814 -0.04876934
-0.00413735 -0.004437089 0.011022094 0.32923463 -0.8643271 0.018222794 0.011618148 0.014864174
0.011130982 -0.017685996 0.34837577 -0.15088305 -0.0128503125 0.023869893 0.00976656 -0.030816358
0.28175643 -0.030250551 0.28483686 -0.41547948 -0.80458415 0.2933269 0.024572259 0.26992115
-0.013914205 0.38940486 0.31750226 0.29678816 -0.22639285 0.20295481 -0.056834377 -0.04180343
0.007162745 0.013192681 0.026851175 0.2968853 0.022470647 -0.0064891754 0.014313571 -0.01331416
-0.015021937 0.27231935 0.025898064 -0.04415364 -0.073454514 -0.046307314 0.044052135 0.04568005
-0.07955169 -0.028410424 -0.037708867 -0.0138469795 0.017115511 -0.012029226 -0.026469374 0.027928239
0.03272285 -0.09187653 -0.031238552 -0.03531142 -0.06137832 -0.015921993 -0.021205565 0.02644935
0.65133554 -0.02477482 -0.01828396 -0.031302426 -0.046224978 -0.09185007 0.044571523 -0.14507334
-0.011538782 -0.029039787 0.0043113455 -0.08604578 0.025555085 -0.032533716 0.03820281 -0.71250594
0.62083626 0.028090363 -0.027164077 0.031425778 -0.07086762 0.03694749 0.02695353 0.030276844
-0.2527391 0.5462024 -0.06530999 -0.09162286 -0.028535489 -0.015487908 -0.027610721 0.028369786
-0.018220358 0.0003093652 -0.018255077 -0.17541634 -0.0007050909 0.503453 0.29631233 0.024128793
-0.12511192 -0.033117007 0.22794937 0.15699479 -0.019862598 0.015974386 -0.00252617 -0.0056198332
0.22939344 0.006327147 0.021822706 0.20594256 0.23868929 -0.0352423 -0.008259375 -0.050179552
-0.027125487 0.024496134 0.016285868 0.2472972 -0.90990204 0.013492717 0.021170603 0.013646631
0.010882521 -0.026580274 0.26830903 -0.14648387 0.015154735 0.0055714445 -0.0071077268 -0.027797388
0.2319839 -0.056606594 0.20091839 -0.38126487 -0.7852477 0.21521567 0.01946127 0.20661645
-0.023980485 0.26791963 0.22437388 0.21761785 -0.32862538 0.31707072 -0.039894253 -0.0502422
0.0035728137 0.0042857695 0.016031098 0.20298505 0.029026374 -0.022718087 0.023543416 -0.06598283
0.0030636233 0.61344504 0.42273226 -0.046168048 -0.10793681 -0.005542333 0.33104858 0.27224317
-0.073729984 -0.032007344 -0.026680538 -0.012895144 0.34797615 0.006654634 -0.02530322 0.33528233

a f4 [60]
00000000: bb6f 7f3c 0d29 a53e 22c7 883e f4ab 103d
00000010: 3883 4abe ba4a 04be 841e 383e 8f20 563e
00000020: a429 fbbd be0b fcbc 566b f6bc c07d 193b
00000030: 76f2 403e dbd7 b43a 3040 4e3d f6a8 2d3e
00000040: 92a0 483e e6ef fabd 762a e0bd 3d1c 14bd
00000050: 7b23 01be 8a72 b63c db10 26bd f219 573e
00000060: 5f74 273f e687 313d a83e 20bd 2456 4dbd
00000070: e509 c83c 914c fabd 1ff6 733e a519 5dbe
00000080: 34e7 bebd 7554 15bd 8799 48bb 404e 05be
00000090: e77d 353e 72ff 2abd fd26 2e3e 7e5f 18bf
000000a0: 9314 063f 3d4a 2f3e a893 04bd af09 243e
000000b0: dfe7 0bbe 09a9 7b3e 57e3 3d3e b126 313e
000000c0: 10a7 b5bd 47c3 ccbe 29a5 28be 2ad7 15be
000000d0: d2cf 71bd cafd e5bc 525e db3c b268 123e
000000e0: 0dea 2d3d c603 26bd 9d75 ae3c 74c2 2d3e
0.015590603 0.32257882 0.26714426 0.035320237 -0.19776618 -0.12919131 0.17980391 0.20910858
-0.12263802 -0.030767318 -0.030080479 0.00234209 0.18842492 0.001379724 0.050354183 0.16958985
0.19592503 -0.12252788 -0.10945599 -0.036159743 -0.12611191 0.022271413 -0.04054342 0.21005991
0.65411943 0.043342493 -0.039122254 -0.05013098 0.02441878 -0.12221635 0.23824356 -0.21591814
-0.09321442 -0.036457498 -0.0030609088 -0.13018131 0.17723809 -0.041747518 0.1700706 -0.5952071
0.52375144 0.17118163 -0.03236738 0.16019319 -0.1366267 0.245762 0.18543755 0.17299916
-0.08869755 -0.39992735 -0.16469254 -0.1463286 -0.059036084 -0.028075118 0.026778374 0.1429775
0.042459536 -0.040530942 0.021296317 0.16968709

b f4 [60]
00000000: 0000 0000 c5e7 03bf a450 15be 3653 b0bc
00000010: 5ba8 2cbe 8590 e4bd 98ee a1bd 3670 c43d
00000020: e90e eebd fcac 1ebd 4d7e b5bc 8fab f2bb
00000030: 7d62 92bd 0000 0000 322d b7bc f52d aebd
00000040: 62ea afbd 9e0d e5bd 41eb c5bd cca7 63bd
00000050: 03e0 f0bd 8a4b 72bc a296 1cbd 77de 8abd
00000060: a1ff 953f 8a7d b6bc dd76 04bd 9567 1abd
00000070: a61a 99bc 5baa e7bd eb9f 21be a53e 3ebe
00000080: 557c a9bd 8cdf 09bd 02cd b3bc 2fb5 ebbd
00000090: f3ab b0bd a324 1bbd 85a4 cabd 8316 7c3f
000000a0: baf5 843f 3d64 dbbd e0a6 b5bc 19fc bdbd
000000b0: 73f5 edbd 977b 0ebe 6501 9cbd 1ebe ffbd
000000c0: d365 643d 588b 8fbd 9c47 11be dba6 0abe
000000d0: a4d3 29bd d55f b5bc fde1 9fbc 43f9 e5bd
000000e0: 80fb b6bc cafd b2bd 4570 b6bc 1784 29bd
0.0 -0.5152553 -0.14581543 -0.021524053 -0.16861098 -0.111603774 -0.07906836 0.09591715
-0.11623938 -0.03873919 -0.022154951 -0.0074057053 -0.071476914 0.0 -0.022360418 -0.08504859
-0.08589627 -0.11184238 -0.09664012 -0.055579945 -0.11761477 -0.014788518 -0.038229592 -0.06780713
1.1718637 -0.022276659 -0.03233992 -0.03769644 -0.018689465 -0.113117896 -0.1578366 -0.18578584
-0.082756676 -0.033660457 -0.021948341 -0.115091674 -0.08626547 -0.037876736 -0.09894661 0.9847185
1.038749 -0.10712478 -0.022174299 -0.092765994 -0.11619081 -0.13914333 -0.076174535 -0.12487434
0.05576117 -0.070089996 -0.14187473 -0.13540213 -0.0414616 -0.022140423 -0.01951694 -0.112291835
-0.022336721 -0.08739813 -0.022270331 -0.041385736

K f4 [8, 60]
00000000: 2da7 c53a 7e62 a13c dcd3 b339 fc7d 90be
00000010: 54f2 533c 60a4 cfbc bd13 a93c 50e3 dabc
00000020: 094f 6d3c b73e 80bb b559 68bc 60fb 1bbe
00000030: a590 20bd 74ad aabc a2ea 973c 8e68 173b
00000040: 9ceb d83b 128e bebc 02ad 8a3b 76a7 adbc
00000050: e615 cabc 57fa 863f 6c88 aebc 43aa 413e
00000060: 0c30 bbbc b59c 6e3c 62ef af3e c38b 1a3d
00000070: 4ecc 07bd da36 c6bc 76bf 8d3c 4fb5 f0bd
00000080: bc8d b1bc c7dd a4bc 666a ffbd ae6a 44bc
00000090: dfa0 31bf e5bd 13bc 62e8 31bc 91f0 b6bc
000000a0: 8928 653f 6e00 13bf cf3f d63e 24b7 ecbc
000000b0: 4b23 8a3e 08c1 933d 25c5 56bb 609a 98bc
000000c0: 65c7 103f 2678 c7bb 61a0 2ebd 53c4 bb3d
000000d0: 3484 053c f720 a63b dff0 05bf 5415 6cba
000000e0: 130c c339 5b43 cbbc 5d34 903c 76f9 49bc
000000f0: 2edf ae3b f327 78bc 3835 0c3c 8095 05bf
00000100: 6271 b6bb e16f 2f3d 5fa9 33bc fda9 513d
00000110: c5a4 953a 0606 5fbc 981f 333d 0b30 dd3d
00000120: 31d1 733d d673 393d 46e4 e2bb 5798 733a
00000130: 8eaf 89bc 0b03 2a3d 3b34 6ebb 69fd 403d
00000140: 43b7 b3bc 3fc7 c5be 9e52 7e3c 785b 993e
00000150: a786 cdbc 1b61 41bc 660c cc3e c540 063e
00000160: fdb5 5d3d 1987 693d 08de cebc c2c3 a2bd
00000170: 3f2e 81bb 27f6 1c3d 2426 013e d6c0 2dbc
00000180: 75bd 3fbf 1996 493b d312 213b e97b 4c3d
00000190: 0cdd ff3e e564 76be 195f d63e 2ccd 423d
000001a0: 6b6e b23e 1dc2 ab3e e393 8f3a 7854 1dbc
000001b0: 8268 e43e 5c12 893c 4a1b bdbc 6ea9 333d
000001c0: bf17 0c3c f822 b13b 6ce9 a7be 648a 313c
000001d0: 26f4 79ba 348d 3b3d d909 aabb 1d1c 2cbb
000001e0: 9086 5ebc a873 75bd 4b8b eaba d970 e93e
000001f0: c938 1dbd 9680 613e b4df 11bc 50fa 5a3e
00000200: ac53 5d3b fb49 30bd 2dfa 5b3e 3242 87bc
00000210: 9ac9 4e3e ef51 573e cf61 0ebc cf36 25bc
00000220: 5668 17bd e9fb 473e 952d bfbc 02e7 593e
00000230: f687 23bd 5232 4cbe 9cf6 22be 6bcb 75bf
00000240: 8d5f 69bd c086 09bc 8b88 cc3d 350a bc3e
00000250: 4d49 5c3e c4fb 603e 649c 85bc 57a5 10bf
00000260: c230 35bd 5eaa 563e 3c2c ae3d 9b6a 1bbd
00000270: 8e4b 343f 831d fc3a fc76 7d3b 4125 5a3e
00000280: 9070 e7be 4476 013f 5045 7c3e 5eee 573e
00000290: 3cf3 203e a4e3 82be 0e59 353c 05fa 01bd
000002a0: ab36 91be 70da febc 67be 66bd 6503 643e
000002b0: 2e0c 29bc c1ca a9bd e871 fd3e 41c3 36bd
000002c0: 2284 c8bb 5f5d 623e ee37 2ebc 11b2 dfbc
000002d0: 164a a03b 41ce 853c 8ba4 f53a 0441 90be
000002e0: e5fc 803b 4999 073e c9d3 84bc f3da fb3d
000002f0: 5e9b 903c 7577 55bb 2b54 e33d e436 aa3d
00000300: d2af 023e 9474 023e cfbf cf3a 82d2 cebb
00000310: 7971 a3bc a998 ee3d 4f54 8dbb d737 dc3d
00000320: 1b05 c0bc b7c2 75bf 66bc eeba eaaf e23e
00000330: 9f65 2cbd d161 57bc 0e8d d83e b8b5 c8bb
00000340: 45a3 153e a59d 073e f3a8 da3a 44ac acbd
00000350: a0d5 2cbc 2065 fb3d 092d 5b3e da94 10ba
00000360: 9d07 c43e 36fe 40bc 37cd e03b d6ca d23d
00000370: 318c 9c3e 83a4 b6bd dd5e ab3e a97a f53d
00000380: 8546 f43d 1028 9c3d d621 37bb c2a5 9ebc
00000390: 5d70 3cbf 4a64 b33c 6306 0ebd 6a2c 08be
000003a0: b0f4 79bc 5d94 45bb dfad 43be 3be8 373b
000003b0: 8931 7d3b f067 0f3e d4db 403b d28e 11bd
000003c0: e239 f8bb 3572 41bd 798d c5bb f173 173f
000003d0: 2063 edbc ec38 ae3e a9f2 afbb 9db4 aa3e
000003e0: f36a b4bc 42d5 453b 81f9 af3e 476d 9fbe
000003f0: 8942 ae3e bf06 ab3e 50b3 ea3a 4b4a b5bb
0.001507973 0.019700285 0.00034299388 -0.28221118 0.0129361935 -0.025346935 0.020639295 -0.02671972
0.0144841755 -0.003913726 -0.014181544 -0.1523261 -0.039200444 -0.020834662 0.018544499 0.002310309
0.0066198837 -0.023261104 0.00423205 -0.021198016 -0.024668645 1.0545148 -0.021305285 0.18912606
-0.022850059 0.014563729 0.34362322 0.037730943 -0.033153825 -0.024196077 0.01730321 -0.11753332
-0.02167403 -0.020125283 -0.12471466 -0.011988325 -0.69386095 -0.009017442 -0.010858627 -0.022331508
0.89514977 -0.5742253 0.41845557 -0.028895922 0.2698005 0.07214552 -0.0032771316 -0.0186283
0.5655425 -0.006087321 -0.042633418 0.09168305 0.008149195 0.0050698477 -0.52320665 -0.00090058637
0.00037202294 -0.024812391 0.017603094 -0.0123275425 0.0053366637 -0.015146243 0.00855761 -0.52181244
-0.0055677155 0.042831305 -0.010965674 0.051187504 0.0011416903 -0.013612276 0.043731302 0.10800179
0.059525672 0.045276485 -0.006924185 0.0009292415 -0.016807344 0.04150681 -0.003634705 0.04711667
-0.021937972 -0.38628575 0.015522627 0.29952598 -0.025088621 -0.011802937 0.3985321 0.13110645
0.054128636 0.057013605 -0.025252357 -0.07947494 -0.0039422805 0.038320687 0.12612206 -0.010605058
-0.74898463 0.0030759631 0.002457787 0.049922857 0.49973333 -0.24061926 0.4186943 0.04755895
0.34849867 0.33546534 0.0010954108 -0.009602658 0.44610983 0.016732387 -0.023084302 0.043862753
0.008550583 0.00540578 -0.32795274 0.010836218 -0.0009534977 0.04578896 -0.005189162 -0.0026261874
-0.013581887 -0.05992475 -0.0017894296 0.45593908 -0.038384233 0.22021708 -0.008903433 0.21384549
0.0033771796 -0.043039303 0.21482153 -0.016511057 0.20194092 0.21027349 -0.008690312 -0.010083868
-0.036964737 0.1952969 -0.023337165 0.21279529 -0.039924584 -0.1994107 -0.15914387 -0.96013516
-0.05697589 -0.008393943 0.09986981 0.36726537 0.21512337 0.21971041 -0.016309924 -0.5650229
-0.044235952 0.20963427 0.08504531 -0.037943464 0.7042779 0.0019234869 0.0038675657 0.21303274
-0.45203066 0.50571084 0.24635816 0.21087024 0.15717787 -0.255643 0.011068596 -0.031732578
-0.2836202 -0.031110018 -0.056333926 0.2226692 -0.010317845 -0.08290625 0.49500966 -0.044619802
-0.006119267 0.22105931 -0.010633452 -0.027306588 0.004891644 0.016333701 0.0018741054 -0.28174603
0.0039363974 0.13242067 -0.016214268 0.122976206 0.01765221 -0.0032572423 0.11100038 0.08311251
0.12762383 0.12739784 0.001585001 -0.0063117156 -0.019951569 0.11650211 -0.004313029 0.10752838
-0.023439934 -0.96000236 -0.0018214106 0.44274837 -0.0420891 -0.01314588 0.42295116 -0.006125178
0.14613064 0.1324373 0.0016682431 -0.084312946 -0.010548979 0.122751474 0.21403898 -0.00055153447
0.38287058 -0.011779359 0.006860401 0.10292594 0.30575708 -0.08918097 0.33470812 0.11986286
0.11927513 0.07624829 -0.0027943752 -0.019366149 -0.7360895 0.021898407 -0.03467406 -0.13298193
-0.015256092 -0.0030148246 -0.19109295 0.0028062004 0.0038634262 0.14004493 0.0029427903 -0.035536595
-0.0075752595 -0.047228057 -0.0060288277 0.5916129 -0.02897793 0.34027803 -0.0053695035 0.33340922
-0.022023654 0.0030186926 0.34370044 -0.3113806 0.34035137 0.33403584 0.0017906222 -0.005532538

a f4 [60]
00000000: a77b 49bc 70ab dfbc 3908 02bc 2560 793f
00000010: e303 c03c 5274 57be 40e3 753c 4465 53be
00000020: 9f7f 0fbc 2262 a6b9 d7f9 54be ce79 e2be
00000030: aa61 5ebe 4393 66be 92fa f53b 173d 06bc
00000040: 4b06 963c ab6f 58be dc9d c23b 7920 57be
00000050: cf0e 43bd 6a8f c6bf 9701 d6bd 675f 573f
00000060: 54e3 c5bc cdd1 5a3c cfea 513f 088a 1ebf
00000070: e094 51be 4652 5ebe 514c 633c 8f60 c2be
00000080: aa9f c7b8 4edd 54be 6870 6abe 7903 713c
00000090: 35c9 98bf 2259 9c3b 362a 15bb 4b48 4cbe
000000a0: 677f adbf 8a7c 6e3f 001e 313f 7cef 4abe
000000b0: 3992 053e c498 27bf 7c19 873a 63d1 1dbc
000000c0: 3d32 91bf 9b1d 03bd 7bac d03c d80a 25bf
000000d0: 5460 bc3c 566e 853c 0a28 493f 4479 193d
000000e0: 1750 0d3c aa51 62be 4af5 c9bb b994 803c
-0.012297547 -0.027303427 -0.007936531 0.9741233 0.023439353 -0.21040466 0.015007794 -0.20644099
-0.008758455 -0.00031735102 -0.20798431 -0.44233555 -0.21716943 -0.22517113 0.007506677 -0.008193276
0.018313548 -0.21136348 0.0059392285 -0.21008481 -0.047621544 -1.5512516 -0.10449522 0.8412995
-0.02415625 0.0133556845 0.81998914 -0.6192937 -0.20466948 -0.21711072 0.013873176 -0.37964293
-9.518799e-05 -0.20787546 -0.22894442 0.014710301 -1.1936404 0.0047713676 -0.0022760755 -0.19949453
-1.3554505 0.9315878 0.691864 -0.19817919 0.13044061 -0.65467477 0.0010307278 -0.009632441
-1.1343457 -0.032010656 0.02547287 -0.6446967 0.022995152 0.016287964 0.7857672 0.037469164
0.008625052 -0.22101465 -0.006163274 0.015695916

b f4 [60]
00000000: 0000 0000 412b 2b3d 0000 0000 f885 2f3f
00000010: f54d 06bd 3824 263d c9c9 c4bb b3b6 3b3d
00000020: 0000 0000 95c6 35bc 96ef e33c fbaf 15bf
00000030: 6c15 853d 2f83 443d 0000 0000 f7e0 b6bb
00000040: 6962 48bd 9437 263d 0000 0000 8d45 e63c
00000050: 4198 3cbd f0f4 b5be b81e 3c3e a545 f9be
00000060: f810 02bd 1877 1ebc 445a 023e 04ff 50bf
00000070: 7fe7 7a3d 06a9 503d 9fc9 c4bb 5cbe 4d3f
00000080: 5b67 a9bc 25f7 2f3d 4423 3d3f a62b 4abd
00000090: e4b9 283e c5c9 c4bb a0c9 c4bb 724d fa3c
000000a0: 3c6c e1bd 56d1 b93d 5845 b03e 89d9 413d
000000b0: a654 1a3f b0c5 33bf b7c9 c4bb 0c45 e4bc
000000c0: bc29 cc3e 19b0 c3bc de02 07bd f5f9 56bd
000000d0: 0000 0000 c4b0 c13c ffeb f23c e871 2fbd
000000e0: 0000 0000 c8a3 5b3d b1bc d2bc fc54 f43a
0.0 0.041789297 0.0 0.68563795 -0.03278919 0.040561885 -0.0060055 0.045828532
0.0 -0.011094709 0.027824204 -0.5847165 0.064982265 0.04797667 0.0 -0.005581017
-0.048921976 0.040580347 0.0 0.028109336 -0.04604364 -0.35538435 0.18371093 -0.48685947
-0.031754464 -0.009671949 0.12729746 -0.8163912 0.061255928 0.050942443 -0.0060054804 0.8036859
-0.020679167 0.042960305 0.73881936 -0.049358033 0.16477162 -0.006005498 -0.006005481 0.030554507
-0.11006972 0.09073131 0.34427905 0.0473266 0.60285413 -0.7022352 -0.0060054916 -0.027864955
0.3987559 -0.02388768 -0.03296172 -0.05248447 0.0 0.023643859 0.029653547 -0.04283324
0.0 0.05362299 -0.02572474 0.001864105
