learner_tingwei/model/testcase_1_distsquare_eps_0.0004_l_0.004_auglag_lbfgsiters_100addloss_0_adddim_0__seed_1/model34000.pkl (torch, 24480 bytes, 22 tensors)

Qincpt f4 [1, 1, 8]
00000000: b6ed 753f 9171 653f 0528 753f 2a5d 623f
00000010: 260b 693f 9e07 633f 2ee3 5c3f b442 5e3f
0.96065843 0.89626414 0.9576419 0.8842341 0.91032636 0.886835 0.8628415 0.8682053

Qslope f4 [1, 1, 8]
00000000: d922 5e3f 21ed 723f c03a 593f 4d8e 623f
00000010: 8b6d 5f3f 544e 603f 159d 753f 6a44 6d3f
0.86771923 0.9489308 0.8485527 0.88498384 0.87276524 0.8761952 0.95942813 0.92682517

Pincpt f4 [1, 1, 8]
00000000: f62a 9a3f 8219 843f 2639 8e3f d622 873f
00000010: 92b8 843f 3dc4 893f 5702 803f 783f 813f
1.2044361 1.0320284 1.111119 1.0557506 1.0368826 1.0763012 1.0000714 1.0097494

K f4 [8, 60]
00000000: 05dc be3d 01d6 f5bb e54b d6bb 58d9 83bc
00000010: 874a 83ba 789e c7bb a086 20bc 964d be3d
00000020: 055b e9bb f86a e73d d214 cf3d 9503 51bc
00000030: cdaa 11bb 91d4 083c 3b78 e43d 1c3c 993b
00000040: 4462 e4bb dd2d 3ebc de39 e53b 5b78 023b
00000050: 8bd3 dd3d 450b e53d 0f39 d9bb f644 043c
00000060: d77f 343c 579a e6ba 8603 f7bc d8fc 6cbc
00000070: 6820 e13d f255 62bc 76c1 02bc 6b85 acba
00000080: bcf4 993c 4433 49bc b1a4 e23d dff1 cf3d
00000090: 47d2 e13d b437 1ebc d37b c83a 58cd cf3d
000000a0: 3828 e9bb d3d8 3f3b 0be4 ceba 72ed 96b9
000000b0: daa3 073e e4e8 89bc b331 fc3d 25eb cf3d
000000c0: a0f1 17bc dfb7 96bb c00f afbb 9535 8fbb
000000d0: 95e3 f93b 9fac 903b 208b f73d d419 a53c
000000e0: 695a e23d 9dc9 193c 7f95 1bbc ec50 d03d
000000f0: eff3 2d3e 2579 0ebc ad71 08bd 1210 f5bb
00000100: 46b5 85b9 98a9 27bc ae5b c3bb dc56 143e
00000110: e005 0abb 62e2 1d3e 89b2 2e3e 6814 26bc
00000120: 2aac e6bb 5df0 29bc d4b1 133e 6031 08bc
00000130: 5411 97bb 1e87 b7bb 569f 813b b0ef 20bc
00000140: 53f3 0f3e b9f0 1e3e 4e4b d6bb eac2 ef3b
00000150: 8202 6bbc 3e1b a4bb 97f9 c3bb c9b4 d1ba
00000160: 273a 203e bc5b 4fbc 1497 2abc 06f3 ef3b
00000170: 8ec2 2bbc ad3f 85bc 1bea 203e 0fef 313e
00000180: 00f1 233e fe2d ea3a e9c7 053c decc 133e
00000190: a18d 003c 3057 05bc 61f9 17bc 192f 363c
000001a0: 062c 2a3e 456d dbb9 2209 1b3e 49c3 1b3e
000001b0: e433 acbc 2020 85bc b04a aabc 00b3 39bc
000001c0: ab29 0f3c f895 b7bb 8ff4 293e 12d4 053c
000001d0: 29d5 1f3e 86f4 473b 755f 15bb 1449 193e
000001e0: b5e9 de3d f7ef 18bb f943 0db9 576c 983c
000001f0: 223c a2bc 0457 933c 4d72 853a b53a b43d
00000200: 796d e93b 3c60 7e3d f3dd aa3d 7ad8 003b
00000210: 8792 46bb ff13 d5bc 15c8 b63d 44c9 03bc
00000220: 76fb 83bc 9152 99bc 29f5 b13b bd7d d83b
00000230: 219d c53d 60c1 b43d f55a 8c3c a4fc 92bc
00000240: 905b 5fbc 3817 21bc 5677 f73b 0754 d23b
00000250: 2977 af3d e438 41bc 4eac b43b 7085 7dbc
00000260: 6bc6 a93b f40f 29bc 2a38 b03d c47b c13d
00000270: 5082 c93d f11e 0d3c 8e76 e7bb 69f7 d83d
00000280: 2dd7 efba 3b68 0bbb 609e 09bc a7a1 89bb
00000290: d688 953d 67aa 84bc b097 b43d 6145 bb3d
000002a0: 4ae2 4a3b e6c5 ad3b 9a26 c63b b4bb 94bc
000002b0: d034 84bb 7425 1dbc d659 a13d 77bc 4eba
000002c0: cfbd b73d 0efd 3e3c 2cd4 14bb 5afc c83d
000002d0: 6353 1c3e 677e b93a 8083 d6ba c6c3 6abb
000002e0: d016 8d3c 89f3 46bb 708c 1c3b 1e89 343e
000002f0: cc4c 873a f505 313e bfe6 213e bae9 3bba
00000300: 924a babb 13d3 49b8 740e 383e d112 00bb
00000310: 3bba a83b 6958 97bc 86f0 eebc 14e7 b9bb
00000320: baba 173e e3da 2e3e 0797 10bc 8f43 ae3b
00000330: 9b42 7dbc c425 e3ba c7e8 98b9 1895 153a
00000340: b3c1 2e3e c37f 403b d896 aabb c0f7 5d3c
00000350: dc22 1a3b 6410 f93b 7ea2 383e dbe7 323e
00000360: b91e 1b3e f77d 213b ad4c 463c 6719 203e
00000370: e150 7abb 6230 bcbb 41bc 6e3c a113 913c
00000380: f62c 353e 6dff 2fbc a460 213e 2fa4 163e
00000390: aa50 4c3c 2a76 343b 2e59 09bb 23c3 7d3b
000003a0: ac44 51ba d2f3 5f3b fa3d 2e3e 78be 62bc
000003b0: 4d33 373e bbb8 c1bc 03ec 89bc 3bbe 283e
000003c0: bf5b 363e 02c2 193c 3c24 703c 7458 b6bb
000003d0: c611 f4bb 5a7c 04bb e183 16bb d34f 363e
000003e0: d9f0 753b 4b5c 393e e069 323e 9c2d 8d38
000003f0: fe79 8aba 3169 a5bc ba84 393e 7485 b83b
0.09319309 -0.007502318 -0.006539809 -0.016094849 -0.0010016718 -0.006091889 -0.009797722 0.09292142
-0.007121446 0.112996995 0.10111393 -0.012757202 -0.002222705 0.008351461 0.11155745 0.004676355
-0.006969722 -0.011607614 0.0069954237 0.0019908163 0.10831364 0.1118379 -0.0066291164 0.008073082
0.0110168075 -0.0017593604 -0.030153047 -0.0144645795 0.10992509 -0.013814436 -0.007980695 -0.001316232
0.018793456 -0.012280289 0.11066569 0.10153555 0.11026435 -0.009656835 0.0015295692 0.10146588
-0.00711539 0.0029273524 -0.0015784515 -0.0002878714 0.13246098 -0.016834684 0.12314167 0.10152272
-0.0092739165 -0.004599556 -0.0053424537 -0.004370401 0.007626007 0.0044151093 0.12087083 0.020153917
0.110524006 0.009386447 -0.009496092 0.101716846 0.16987585 -0.008695875 -0.033311535 -0.0074787224
-0.00025502796 -0.010233305 -0.005961857 0.14486259 -0.002106063 0.1541839 0.17060293 -0.010136701
-0.0070395665 -0.0103722485 0.14423305 -0.008312553 -0.00461022 -0.005600824 0.003955762 -0.009822771
0.14057665 0.15521516 -0.0065397387 0.0073169367 -0.01434386 -0.0050081303 -0.005980681 -0.0015999313
0.15647183 -0.0126561485 -0.010411996 0.007322672 -0.010483397 -0.016265715 0.15714304 0.1737635
0.16009903 0.001786649 0.008165338 0.1443362 0.007846267 -0.008138463 -0.009275765 0.011119627
0.16618356 -0.00041852347 0.15140203 0.15211214 -0.021020837 -0.01625067 -0.020787567 -0.011334181
0.008737962 -0.0056025945 0.16597198 0.008168237 0.15608658 0.0030510738 -0.0022792493 0.14969283
0.1088442 -0.002333639 -0.0001347213 0.018606348 -0.019804064 0.017985828 0.0010181159 0.0880026
0.007123646 0.062103495 0.08343115 0.001966028 -0.003029974 -0.026010511 0.08924881 -0.008043591
-0.016111117 -0.018716129 0.0054308367 0.006606786 0.096491106 0.08825946 0.017133215 -0.017942734
-0.01363267 -0.009832196 0.0075520677 0.0064187082 0.0856765 -0.011793349 0.0055137044 -0.0154737085
0.005181124 -0.010318745 0.086044624 0.094474345 0.09839308 0.008613334 -0.0070636934 0.10594065
-0.001829838 -0.0021271843 -0.008399576 -0.0042001787 0.0730149 -0.016194535 0.088179946 0.09144092
0.0030957633 0.0053031323 0.006047082 -0.01815591 -0.004034616 -0.009591449 0.07878463 -0.000788636
0.0897175 0.011657013 -0.0022709472 0.09813757 0.15266185 0.0014152051 -0.0016366094 -0.0035822256
0.017222792 -0.003035756 0.0023887418 0.17630431 0.001032257 0.17287429 0.15810679 -0.0007168312
-0.005685159 -4.8118713e-05 0.17974263 -0.0019542465 0.0051491535 -0.018474774 -0.029167425 -0.0056732986
0.14817324 0.17075686 -0.00882507 0.005318112 -0.0154577745 -0.0017329981 -0.00029165132 0.00057061156
0.17066078 0.0029373027 -0.0052059703 0.013547838 0.0023519313 0.007600831 0.18030736 0.17471258
0.15148439 0.0024641731 0.012103242 0.1563469 -0.003819518 -0.0057430724 0.01457125 0.017709555
0.17692932 -0.010742051 0.15759522 0.14711069 0.012470404 0.0027536252 -0.0020957696 0.0038721047
-0.000798295 0.0034172428 0.1701583 -0.013839357 0.17890663 -0.023647657 -0.016836172 0.16478817
0.17808436 0.009384634 0.014657076 -0.0055647437 -0.007448408 -0.002021572 -0.002296679 0.17803888
0.003752759 0.18101613 0.174232 6.731899e-05 -0.0010564921 -0.02019176 0.18117037 0.005631143

a f4 [60]
00000000: 43bd 19be 0e90 a5b9 8fb1 b7bb 53cd d6bb
00000010: e7f1 ed3b fe77 de3b a2f5 8cbb da90 1bbe
00000020: 5b1e 77bc 323c 1dbe 9803 21be 7474 8c3b
00000030: 0d18 b4bc a95f babb 8ccc 17be 4ba8 cfbc
00000040: 45d4 81bc 1414 0e3b 6d1f bbba 23de 693c
00000050: fdbd 10be f027 18be 1875 a83a 9ce6 acbb
00000060: 2d83 313c 1460 ee3b f798 80ba ddec af3b
00000070: 9c19 19be 3db9 8ebb d210 413b 5c88 b8bb
00000080: 4710 aa3b 7c65 523b b11b 18be 2d46 16be
00000090: a469 13be 7bbe 8bbb a2a6 0abb c550 1ebe
000000a0: f6d4 bebb 8eb3 673c 42d9 8ebc adf8 933a
000000b0: 3800 17be a5e0 aabb f799 17be 82e9 13be
000000c0: 532e 633b bdbb 563b 5a28 b4bb b5fe c4bc
000000d0: 7f0d 893c 27b1 95bb 2eaa 13be 69f9 0f3c
000000e0: ddc2 1abe 1489 343c 03cd b5ba 2ac8 1ebe
-0.15013604 -0.00031578582 -0.0056058834 -0.0065552383 0.007261503 0.0067892065 -0.0043017427 -0.15191975
-0.015082921 -0.15354994 -0.15724027 0.004286343 -0.021984125 -0.005687673 -0.14824122 -0.025348803
-0.015848288 0.0021679448 -0.0014276333 0.014274153 -0.14134975 -0.14858985 0.001285228 -0.005276514
0.010834497 0.007274637 -0.0009811212 0.0053688125 -0.14951175 -0.004355578 0.0029459489 -0.0056314897
0.0051899287 0.0032103946 -0.14854313 -0.14675207 -0.14395767 -0.0042646504 -0.002115645 -0.15460499
-0.0058237268 0.01414193 -0.017437581 0.0011289321 -0.14746177 -0.005214768 -0.14804827 -0.14444545
0.0034665063 0.003276571 -0.0054979743 -0.024047235 0.016730068 -0.0045682373 -0.14420387 0.008787491
-0.15113397 0.01101901 -0.0013870302 -0.15506044

b f4 [60]
00000000: b616 103e 0000 0000 0000 0000 0000 0000
00000010: 0000 0000 0000 0000 0000 0000 bb1b 123e
00000020: 0000 0000 d256 103e 08d8 0e3e 6bd3 20bc
00000030: 0000 0000 eae9 0dbc 6525 103e 0000 0000
00000040: 0000 0000 0000 0000 0000 0000 0000 0000
00000050: c6c8 033e 7940 0f3e 0000 0000 0000 0000
00000060: 0000 0000 0000 0000 00d7 eebb 0000 0000
00000070: e1ee 0e3e a4be f0bb 0000 0000 0000 0000
00000080: 0000 0000 ca46 42bc 0325 103e 074b 0f3e
00000090: 021c 0c3e e099 27bc 0000 0000 ff92 0b3e
000000a0: 5bc4 c4bb 0000 0000 0000 0000 0000 0000
000000b0: 5aa0 0c3e 9c0d d2bb 17ca 093e 8fce 0c3e
000000c0: 0000 0000 636b 29bc bdc5 c4bb 0000 0000
000000d0: 0000 0000 0000 0000 ea9a 0c3e 0000 0000
000000e0: 91ce 0e3e 0000 0000 3763 fabb db16 0f3e
0.14071164 0.0 0.0 0.0 0.0 0.0 0.0 0.14268391
0.0 0.1409562 0.13949597 -0.009816031 0.0 -0.0086617265 0.14076765 0.0
0.0 0.0 0.0 0.0 0.12869558 0.13989438 0.0 0.0
0.0 0.0 -0.0072888136 0.0 0.13958313 -0.007346945 0.0 0.0
0.0 -0.011857698 0.14076619 0.13993464 0.13682559 -0.010229558 0.0 0.13630293
-0.0060048527 0.0 0.0 0.0 0.13733044 -0.006410314 0.13455997 0.13750671
0.0 -0.010340544 -0.0060050176 0.0 0.0 0.0 0.1373097 0.0
0.13945986 0.0 -0.007641222 0.13973562

K f4 [8, 60]
00000000: cd21 8fbc 2b60 06bc 1d55 483b 03b0 31bc
00000010: 33c4 babc 9abd 11bc 8b48 963c 8cec e9bc
00000020: 11eb 22bd 1779 5bb9 27c8 863a 15ce c93b
00000030: a1ca a3bb 6bf8 663e fa08 00bc 97d5 673e
00000040: 3c3e a0bb 69a4 6fbc cd41 593e c6fa 823c
00000050: a95e 11bc 1536 bf3c c235 853b 28c9 c0bc
00000060: b53d b83b a9a7 64bb 75ab 663e 0398 0c3e
00000070: 60b8 00bd ec99 6b3e 9456 6d3e 3b0b 08bc
00000080: 9ed6 54bc 9627 2dbc cb22 36bc f284 a83b
00000090: 0299 683e 3876 68bc 195f 6d3e f6ec 6abc
000000a0: 49ef 76bc d5d5 733e 9913 edbc dea4 be3b
000000b0: 0e9f 69bc 207a 5c3b a93a 643e b2cb 4cbd
000000c0: 1ad2 ddbc 0514 37bd 0cf6 5ebc 9372 8e3c
000000d0: 35e3 3bbd e462 05bc 9a5e 893c da5c 3cbc
000000e0: 97cf aebb 2a75 18bb e74c cbbc e5a3 42bd
000000f0: 6e1f 44bc 7596 7dbc 4ee8 8fbb 57bc aabc
00000100: 10ca dcbc 59a7 083c 5a3f 923c 3436 e5bc
00000110: b201 26bd cf89 b8bb 099b ffbb 3dd4 80bc
00000120: 9708 ff3b 3c50 9e3e 3df5 4bbc a939 a43e
00000130: b7ac 27bc 8eb7 8b3c 2cef a03e f031 463c
00000140: 7740 a03b 3da4 b23b 21bd 6c3a f155 aabc
00000150: b87d 4f3c 562b 99bb 26be a23e b9fc a33d
00000160: 2fbc 06bd 6732 993e e9ff 9c3e ab28 96ba
00000170: b314 843b 6910 5b3c cb0b 853c 8576 0bbd
00000180: c630 9e3e a684 eb3b e2b5 9a3e 6a50 5dbb
00000190: 059a 9eba 2648 953e 59a9 99bc 59af f53b
000001a0: 98d2 c938 7d10 2bbb feab a13e a7d6 a7bc
000001b0: 49f8 ebbc abce 9fbc 60cf 4ebb 5c5b 343c
000001c0: a611 94bd 534d 32bb e4cc 043c 981f d6bb
000001d0: 60ff 80bc d7ef 353c 29e4 e3bb f86b dcbc
000001e0: 824a 4abb 942b 843b 60fa 5abc 865e 80bb
000001f0: 9766 97bc aff1 f5bb 3dce 22bc 399a f1bb
00000200: b7cb 3fbc e7dc d5ba 9377 03bb d68b 073c
00000210: adca 1ebb f90c 363e 5205 1d3c 6e09 3c3e
00000220: 2ed7 d9b8 9565 26bc b284 453e e398 b8bc
00000230: 3077 fcbb c842 aebc b9b4 d0bc bae5 fdbc
00000240: 5af6 8bbc 259b a53b 0b3a 313e ab8b a73e
00000250: 1bfc 44bc 69ac 383e 6a1e 3d3e a042 ddbc
00000260: 9a50 97bb 35a7 39bc be93 af3b 429d 0abc
00000270: cb24 303e 490f 103c c539 4a3e 25cf 0bbc
00000280: fe4d 06bc 4400 383e dee4 15bd 93f8 b2bc
00000290: 20e5 9fbc 49fc d4bb feb5 423e f711 9dbc
000002a0: a27c 03bd 3d02 d7bc 3d43 21bc a465 54bc
000002b0: 0ab6 913d 09cd 363c b675 c7bc 63e6 cabb
000002c0: d926 5fb9 058a 643b 64ed 74bc ff3c 01bd
000002d0: 9de5 233c 3ff0 8c3a e9f8 343c c212 253a
000002e0: 5477 4bbc 1b15 9f3b e0d6 403c 9c05 1bbd
000002f0: 726e 80bc deb8 a4bb dd45 72bc 6ae5 b8bb
00000300: 6505 523c f21d a03e d48f 9ebb d430 953e
00000310: 0549 823b 5964 2ebc 3da9 9b3e a48f 153d
00000320: fe4a 42bc 36b2 a33c bf1b fc3c e001 7dbc
00000330: cb36 f53c a6e6 af3b f541 983e fa56 8c3e
00000340: a443 53bc 865b 9e3e aeef 9c3e 3723 c5bb
00000350: fdcb 18bc 3395 203c 7078 0a3b 99e0 55bc
00000360: 4808 9a3e 93d9 4fbc 4c1a 9c3e 19ae a73b
00000370: 2e77 43bc 66dd 9e3e 5bdc c9bc 3437 083d
00000380: 57ba de3b 3903 adbb 5c1e 9e3e a89c 06bd
00000390: 060c debc 3c28 26bd 8304 6e3b c412 583c
000003a0: e52b 20bd 91b8 95bc da89 9d3c 2bc0 ac39
000003b0: b7db 69bc a5ed d0bb 4c4e 58bc e752 ecbc
000003c0: 3b5f 0ebc d471 05bc d230 16bc 418a 40bc
000003d0: eb14 41bb 57d6 3aba c3d1 29bd 44b6 64bc
000003e0: 5583 33bb c156 5d3b 782b 3ebc 2c99 7bbb
000003f0: c055 633b 3332 473e 9140 04bc 2cb2 4f3e
-0.017472172 -0.008201639 0.003056831 -0.010845187 -0.022798633 -0.008895302 0.018345138 -0.028555177
-0.039774958 -0.00020930577 0.0010283039 0.0061586 -0.0049985205 0.22555701 -0.00781464 0.22640072
-0.0048902314 -0.014626601 0.21216507 0.015988719 -0.008872666 0.023341218 0.0040652463 -0.023533419
0.0056225904 -0.0034889972 0.22526343 0.13729863 -0.031425834 0.23007935 0.23177558 -0.008303459
-0.012990622 -0.01056852 -0.011116694 0.0051428014 0.22714618 -0.014188342 0.23180808 -0.014338722
-0.015071698 0.23812039 -0.028940009 0.0058179935 -0.014259113 0.0033642128 0.22288002 -0.049998946
-0.027077723 -0.044696826 -0.013608467 0.017388618 -0.04587098 -0.008141253 0.016768742 -0.011496747
-0.005334805 -0.0023263195 -0.024816943 -0.047519583 -0.011970384 -0.015477766 -0.0043917065 -0.02084176
-0.02695182 0.00834068 0.017852474 -0.027979948 -0.04052896 -0.0056316624 -0.007800464 -0.015726203
0.0077830064 0.3092059 -0.012448606 0.3207524 -0.0102340495 0.0170553 0.31432474 0.012096867
0.0048904973 0.0054517076 0.0009030868 -0.020792933 0.012664251 -0.0046743555 0.31785697 0.080071874
-0.03289431 0.29921266 0.30663994 -0.0011456212 0.004030788 0.013370612 0.016240975 -0.034048576
0.30896586 0.007187444 0.3021689 -0.0033769854 -0.0012100345 0.29156607 -0.018757509 0.0074977097
9.623653e-05 -0.0026102357 0.31576532 -0.020488096 -0.028804915 -0.019507727 -0.003155671 0.01100811
-0.07229929 -0.0027206733 0.00810549 -0.006534528 -0.015746772 0.011104546 -0.006954689 -0.026906952
-0.0030867164 0.004033515 -0.013365358 -0.003917518 -0.018481536 -0.0075056176 -0.009936866 -0.007373121
-0.011706284 -0.0016316444 -0.0020060285 0.008273086 -0.002422969 0.17778386 0.009583788 0.18362972
-0.00010387447 -0.010156055 0.192889 -0.02253384 -0.007704638 -0.021272078 -0.0254768 -0.030993331
-0.017085243 0.005053895 0.17307298 0.32723746 -0.012022997 0.1803452 0.18468633 -0.027009308
-0.0046177628 -0.011331369 0.0053581884 -0.008460345 0.17201535 0.008792707 0.197486 -0.008533274
-0.008197306 0.17968851 -0.036595218 -0.021847045 -0.019518435 -0.0064998013 0.19014737 -0.019173605
-0.03210128 -0.026246184 -0.009842691 -0.012963686 0.07114799 0.011157283 -0.024348121 -0.006192015
-0.00021281409 0.0034872305 -0.014949176 -0.03155231 0.010003475 0.0010752751 0.011045673 0.00062970456
-0.012418587 0.004854811 0.01176998 -0.037847146 -0.015677664 -0.0050269207 -0.0147871645 -0.0056425827
0.012818669 0.31272846 -0.004838923 0.29138815 0.0039759898 -0.010644042 0.30402556 0.03651394
-0.0118587 0.019982439 0.03077495 -0.015442342 0.029933354 0.0053680716 0.2973782 0.27410108
-0.012894545 0.30929202 0.3065161 -0.006016161 -0.009325978 0.009801197 0.0021128915 -0.013054037
0.30084443 -0.012686151 0.30488813 0.0051171896 -0.01193027 0.3102829 -0.024641206 0.03325577
0.006797116 -0.005279925 0.30882537 -0.032864243 -0.027105343 -0.040565714 0.0036318607 0.013188068
-0.03910436 -0.018276485 0.019230772 0.00032949573 -0.0142735755 -0.0063759857 -0.013202261 -0.028848125
-0.008689697 -0.0081448145 -0.009166913 -0.011751712 -0.002946193 -0.0007127276 -0.04145981 -0.013959471
-0.0027391512 0.0033773633 -0.011607043 -0.0038390858 0.0034688562 0.19452743 -0.008072034 0.20282811

a f4 [60]
00000000: ad2d 4bbb ddaa 1f3c cc75 f63a 133d 5b3b
00000010: 99c4 933c fd7a a7bc 98d3 19bd b205 383d
00000020: fc31 963c 72d0 19bc 0497 9a3b 93ef 0bbc
00000030: 00d3 403a 011c 673e 3737 b73b 0127 6a3e
00000040: ab0f 6fba 9a9b edb8 0f9c 743e 364e 2bbd
00000050: ae24 663c 9e6d 3cbd 8aee 25bd 3c40 b6bc
00000060: 66b9 63bd 8922 48bc c7d7 613e 9fb5 27bf
00000070: 7dbf cf3c 8933 683e 8f5a 653e 78b9 873c
00000080: f207 29ba 10be 7cbc cfb2 88bc 2845 e9bb
00000090: 7574 653e b5e1 0ebc e0db 653e 72dd c1bb
000000a0: 9945 15bb e804 623e 7fd7 083d b900 16bd
000000b0: 869e 19b7 f033 b93b 2d8a 683e 0c0c c63c
000000c0: b8ff 173d 276c bf3a 5cc5 a33b 6f65 22bd
000000d0: 237b 0bbe 3452 54bb 57d5 22bd 068a c7bb
000000e0: c156 82bc 667c 7bbc 17c2 79bc a17e 7f3c
-0.0031002567 0.009745327 0.0018803417 0.003345315 0.018038081 -0.020444388 -0.037555307 0.044927306
0.018334381 -0.009388076 0.0047177095 -0.008541006 0.000735566 0.22569276 0.005591299 0.22866441
-0.0009119461 -0.00011330024 0.23887657 -0.041822635 0.014046831 -0.046002977 -0.04051069 -0.022247426
-0.05559673 -0.012215265 0.22054969 -0.65511507 0.025359863 0.22675909 0.22397827 0.01656793
-0.00064480223 -0.015426174 -0.016686825 -0.00711884 0.22407706 -0.008720805 0.22447157 -0.005916291
-0.002277708 0.22072184 0.033408638 -0.036621783 -9.15642e-06 0.0056519434 0.2270896 0.024175666
0.037109107 0.0014604375 0.0049978923 -0.039647516 -0.13621192 -0.003239763 -0.039754238 -0.0060894517
-0.015910508 -0.015349483 -0.0152440285 0.0155941555

b f4 [60]
00000000: 8de4 b1bb 0000 0000 0000 0000 343f 5cbc
00000010: b7a2 7abc 0000 0000 c28c 03bd ff43 b7bc
00000020: 37b6 b4bc 0000 0000 61c0 6e3a 0000 0000
00000030: 0000 0000 9276 29be 0000 0000 2d12 24be
00000040: 0907 07bc 9ec4 eabb a827 2abe 34fa 04bd
00000050: 0000 0000 2033 00bd f9b2 c2bc ab29 bebc
00000060: 79bc 0abd 0000 0000 ea90 30be 7991 153f
00000070: fdcb b6bc fde9 1fbe c156 31be 0000 0000
00000080: 0000 0000 7aec 56bc 0000 0000 8cab 9ebc
00000090: d3f1 26be 0000 0000 ae16 21be 24dc 12bc
000000a0: e892 2bbb 9cf2 30be 27e1 2bbc c79b fbbc
000000b0: 0000 0000 0000 0000 ec9c 31be f69a b6bc
000000c0: 61c4 b6bc a208 ffbc 0000 0000 2448 06bd
000000d0: 33e7 c83d 11b2 bfbb 7650 04bd 87d3 bcbb
000000e0: 03f7 cbbc 0000 0000 c023 9dbc 2bb7 cdbc
-0.0054288567 0.0 0.0 -0.013442803 -0.015297583 0.0 -0.03211666 -0.02237129
-0.022059543 0.0 0.0009107646 0.0 0.0 -0.16549137 0.0 -0.16022559
-0.008241423 -0.007164552 -0.1661669 -0.032465175 0.0 -0.031298757 -0.023766981 -0.023213228
-0.033871148 0.0 -0.1724278 0.584251 -0.022314066 -0.15616603 -0.1731825 0.0
0.0 -0.013117904 0.0 -0.01936891 -0.16303186 0.0 -0.15731308 -0.008963618
-0.0026180092 -0.17280048 -0.010490692 -0.030713929 0.0 0.0 -0.17345017 -0.022290688
-0.022310438 -0.031132046 0.0 -0.032783642 0.09809723 -0.0058500846 -0.032303296 -0.0057625207
-0.024898058 0.0 -0.019182086 -0.025111755

K f4 [8, 60]
00000000: c980 7f3b 5a58 eb3d 0b4b db3a e4df dbbc
00000010: dce5 6fbb 1031 93ba dd95 b73a d363 8dbc
00000020: c717 07bd 8558 edbb c867 82bc 8063 e3bc
00000030: af79 963b fb7d 663a 16b6 1a3c 13fd f8bb
00000040: c231 df3d 836f 003b ca9a 25bc 7adb 4dba
00000050: a4e4 d53d a53b 8b3c 6046 d13b c0cf 33bc
00000060: d3a7 cbba ea7c 72bc 28b9 013c 9dab b2bc
00000070: d4fd d738 67c1 63bc 9572 1aba 57a0 ce3a
00000080: 5462 c53b 393a d93d 840c 79bc a6b0 313a
00000090: 01cc e83d ad06 1cbc db05 abbb 9c1b 89bc
000000a0: c8ad a0bc 8764 1f3c ae1e bfbb 3d99 023c
000000b0: 331e 2abb 4e3f de3d 1fdc 903b 597e e73d
000000c0: 4c0d db3d bf17 f23d aab7 bcbc 043b c73a
000000d0: e87e 3bbc 74ec 70bc c659 cb3d db86 a4bb
000000e0: 3e50 1e3b 34ca ba3b e6a8 e5b8 4413 cdbc
000000f0: 2d11 0dbc f358 233e 0179 f2bb 4f9c b33b
00000100: 4e65 5cbc 3b26 1739 8283 97bb 1871 dcbb
00000110: a493 e4bc 27a7 cdbc 8749 cb3b 149a bf3b
00000120: 5794 02bc 0494 d2bc 46c6 1abc cb72 d5bb
00000130: 48c9 0b3e fd64 44bc a9c9 d9bb de87 b1bc
00000140: 08b5 083e f262 023c 6e75 12ba 3084 39bc
00000150: 27b3 61bc 4633 073c f047 40bc dbd2 6fbc
00000160: 52b4 2ebc a9b0 9dba dc04 4abc fdbc 90bc
00000170: 3265 48bc f4f8 0f3e 9eb0 b939 09a1 a5bb
00000180: e091 123e 8dab 10bc 42d2 17bc 4a68 873b
00000190: 33e1 11bd 0ac6 a63b 0b9d a9bc ca48 793b
000001a0: 27d0 caba 56b1 113e 46d6 99bc 4fbc 153e
000001b0: 96d7 0e3e 7ca8 173e 6121 243c 99e4 8cbc
000001c0: 5e55 f53a f626 943a f42d 153e 4b5d 42bc
000001d0: 38bc d0bb 6193 9bbb 2fae a2bc ef70 11bd
000001e0: bf26 07bc 35e0 bd3d a5da 6bbc d712 9cb9
000001f0: 4fdd bd3b c09c af3b 925e 483b 3171 4d3c
00000200: b9fa 443c 8f7f 6a3a fe6f e03b e6d5 23bb
00000210: 4d4e a03b 4e37 8b3b 223c 3ebb 1640 033c
00000220: 4f4e c63d cee3 ca3b 0906 a6bb 3fce 28bc
00000230: 8778 a53d 85b7 7a3b 094a 9abc e37c 8fbc
00000240: 9246 213c 40d1 34bc 1c73 363c d50c 443c
00000250: 0460 873a 6ff0 3cbc 2dbc bcbb bbd5 d6bb
00000260: c2aa 86b8 baf8 ba3d 8b18 80bc 52f5 fbbb
00000270: 85a6 d43d 1507 25bc a7f7 07b8 29bd fcbb
00000280: e03f 4cbd d28f 8dbc d494 44bc b8d5 f5bb
00000290: f65a ae39 bbe3 af3d 907d 3f3c 597e aa3d
000002a0: 0790 af3d e5df b83d 0f10 6abb 0fcf b63a
000002b0: a45a 93bc 9b28 d9ba d0db 983d d352 25bc
000002c0: 9c3b 3c3c 27bb 4abc 0a59 953c 4ac5 01bd
000002d0: 180c 86bc bd05 0f3e f55d 58bc 443a 8bbc
000002e0: d99f 053b 6f67 83bb 34b9 a6bb 5266 da3b
000002f0: 050c 85bc 005c 073b bcc9 94bc 80c8 aabc
00000300: 402e 5cbc 816f 813a 8451 05bc 82da 80bc
00000310: d680 103e a9d0 e73a 045d 14bc 040e 5bbb
00000320: 389d 163e abc0 7cbc 8dfc 833a 9d3d 28ba
00000330: d960 d5b8 8d97 95bc eb24 22bc 124f a93a
00000340: c2c4 aebb 2d7f a33b 726f ddbb 6e38 d4bc
00000350: ff1c 133c 8d81 263e 5500 f3bb 41a3 da3a
00000360: 142c 1b3e 5e1a 6f3b 546c 373b 5ddf 90bc
00000370: 73f0 ddbc 5519 8dbc a5ae 0fbb c41b c4ba
00000380: a5a8 1a3b ca40 1f3e 65ee 7e39 e610 0d3e
00000390: c8a5 123e d0a0 043e eb53 1339 240d 32bb
000003a0: 16f6 003b 03a7 163c f4aa 1e3e 7d09 00bb
000003b0: e23a c3ba dbd4 40bc fd2f 85bb 81ed b8bc
000003c0: a16a b6bb 5408 5b3e aa4c 32bc b2db beba
000003d0: 5008 843b 3d7c 6ebc a2ee b63b 2305 8cbb
000003e0: c726 21bc 9980 05bc b6ef 963c 3d8e 04bc
000003f0: 020e 00ba 398d 7a3c 5952 51bc 7cf4 56bc
0.0038986674 0.11491461 0.0016730739 -0.026840158 -0.0036605513 -0.0011229832 0.0014006455 -0.017259514
-0.03298166 -0.0072432184 -0.015918627 -0.027757406 0.0045921425 0.0008792576 0.009442827 -0.007598528
0.108981624 0.0019597716 -0.010107705 -0.0007852834 0.10444 0.016996214 0.006386563 -0.010974824
-0.0015537686 -0.01480029 0.00791768 -0.021810347 0.00010299278 -0.013901091 -0.0005891708 0.0015764338
0.0060236845 0.10606808 -0.015200738 0.0006778337 0.11367036 -0.009523076 -0.005219204 -0.016736798
-0.019614115 0.009728557 -0.0058325147 0.007971105 -0.0025957942 0.10851918 0.0044207717 0.11303396
0.106958956 0.118209355 -0.023036797 0.0015200083 -0.011443831 -0.014704812 0.09929232 -0.005020959
0.0024156715 0.005700374 -0.00010951031 -0.0250336 -0.008610052 0.159519 -0.0073996787 0.00548128
-0.013451887 0.00014414724 -0.0046238312 -0.006727349 -0.027902432 -0.025104119 0.0062038335 0.005847225
-0.007969937 -0.025705345 -0.009446686 -0.0065139285 0.13651001 -0.011986968 -0.006646354 -0.021671232
0.13350308 0.007958161 -0.00055869564 -0.01132302 -0.013775623 0.008251971 -0.011735901 -0.014637674
-0.010663109 -0.0012030798 -0.01233026 -0.017668242 -0.012231158 0.14059812 0.0003541754 -0.0050545973
0.1431346 -0.008829963 -0.009266438 0.0041323053 -0.035615157 0.005089526 -0.020704767 0.003803777
-0.0015473411 0.14227805 -0.018778931 0.14622615 0.13949427 0.14810365 0.010017724 -0.017198848
0.0018717458 0.0011303115 0.14568311 -0.011863063 -0.0063700937 -0.0047477935 -0.019858448 -0.035508092
-0.008248984 0.0927128 -0.014395391 -0.00029768675 0.0057942043 0.005359262 0.0030573946 0.012539194
0.012022668 0.00089453993 0.006849288 -0.002499932 0.0048921467 0.004248536 -0.0029027541 0.008010885
0.09682905 0.006191707 -0.0050666374 -0.010303079 0.080796294 0.0038256359 -0.01883413 -0.017515605
0.009843485 -0.011036217 0.011135843 0.01196595 0.0010328298 -0.011531933 -0.005759737 -0.0065562404
-6.421424e-05 0.09129472 -0.015636703 -0.0076891566 0.103833236 -0.010072489 -3.2417152e-05 -0.0077129793
-0.049865603 -0.017280493 -0.011998374 -0.007502284 0.00033255637 0.08588358 0.011687651 0.0832488
0.08572393 0.090270795 -0.0035715138 0.0013947206 -0.017987557 -0.0016567888 0.07463801 -0.010090548
0.011488821 -0.012373722 0.018230934 -0.03168229 -0.016363189 0.13967033 -0.013205995 -0.016995557
0.0020389466 -0.004010133 -0.005087996 0.0066650296 -0.016241083 0.0020654202 -0.0181626 -0.020847559
-0.013438761 0.000987515 -0.008137111 -0.015729193 0.14111647 0.0017686087 -0.00905538 -0.0033425102
0.14708412 -0.015426795 0.0010069773 -0.00064178725 -0.00010174671 -0.018260742 -0.009896497 0.0012917242
-0.005333514 0.004989526 -0.00675767 -0.025905814 0.008979081 0.16260357 -0.007415811 0.0016680734
0.15153533 0.0036484222 0.0027988153 -0.017684633 -0.027092194 -0.017223993 -0.0021924165 -0.0014961888
0.0023599055 0.15552059 0.00024312137 0.13775977 0.14321053 0.1295197 0.00014050274 -0.0027168477
0.0019677929 0.009195092 0.15494901 -0.0019536905 -0.0014894868 -0.011769499 -0.0040645585 -0.022574188
-0.0055669104 0.21389896 -0.010882536 -0.0014561324 0.0040293112 -0.014555988 0.0055826465 -0.0042730733
-0.009835905 -0.008148336 0.01842485 -0.008090553 -0.00048849 0.015292459 -0.012775981 -0.013119813

a f4 [60]
00000000: 452f 45bc eb45 0cbe fe1b 8fbb 7a4c 9d39
00000010: 8ae0 503c 93ce cc3a 4a2b cb3c 32b8 deb8
00000020: 04da f7bc 3980 feb9 cc9c 1c3a ab00 e3bb
00000030: 3f44 91bc 2fc1 4d3c d06d 1fbc c95e a7ba
00000040: c83b ffbd d49d ed3b 1066 00bd 3db4 1eb9
00000050: 96ba 06be 53cb b9bb 770e 08bc b50d b4ba
00000060: 0eec d6bb e0dd 11bc 7867 283c 1504 0737
00000070: f030 d2ba 5454 b83a f4c4 93bc 52f2 56bc
00000080: f088 f1bb 534a 09be f867 2e3c f0a2 38bc
00000090: 4ad7 0abe 4de3 b03b 10f6 243c 2238 09bb
000000a0: 91a8 e93c 72c0 24bb a086 84bb db49 11bc
000000b0: 8120 b63c acc0 04be d58c 873c 006a 06be
000000c0: 69ce 0cbe fdb0 fdbd d4ee 56b9 1389 3abc
000000d0: daa5 133a 4620 09bc 2bc9 04be 7f64 fa39
000000e0: 6c0c f7b9 53a9 27bb cee8 7e3b 17e7 ecbc
-0.012035196 -0.13698547 -0.0043673506 0.00030002353 0.012748847 0.0015625529 0.024800915 -0.00010620094
-0.030255325 -0.0004854219 0.0005974292 -0.00692757 -0.017732738 0.012558266 -0.009730771 -0.0012769337
-0.12462574 0.0072514806 -0.031347334 -0.00015135198 -0.13157114 -0.00566999 -0.00830423 -0.0013736995
-0.0065589016 -0.008902997 0.010278575 8.0475775e-06 -0.0016036313 0.0014063218 -0.01803825 -0.013119297
-0.0073710606 -0.13407259 0.010644905 -0.011269316 -0.13558689 0.00539819 0.0100684315 -0.0020937999
0.028522762 -0.002513912 -0.004044369 -0.008867706 0.022232296 -0.12964123 0.016546646 -0.13126373
-0.13750614 -0.123872735 -0.00020497601 -0.01138522 0.0005632319 -0.008369511 -0.12967364 0.0004775859
-0.00047120766 -0.0025583103 0.0038896087 -0.028918786

b f4 [60]
00000000: 0000 0000 9871 c83d 7986 f0bb f3db 0abc
00000010: 0000 0000 0000 0000 0000 0000 587f c9bb
00000020: a7c2 0cbd 0000 0000 9298 fdbb 0000 0000
00000030: 0000 0000 0000 0000 0000 0000 0000 0000
00000040: 2b4e c63d 0000 0000 0000 0000 fd55 e3bb
00000050: 3093 c63d 0000 0000 0000 0000 0000 0000
00000060: 0000 0000 0000 0000 232c 01bc 0000 0000
00000070: 0000 0000 0000 0000 0000 0000 0000 0000
00000080: 0000 0000 65c5 cd3d 22e2 12bc 0000 0000
00000090: b4a4 c13d 9d5c f8bb ccc9 c4bb cec2 04bc
000000a0: e566 febc 0000 0000 4bc9 c4bb 0000 0000
000000b0: 0000 0000 5926 ce3d 0000 0000 35f2 c63d
000000c0: 5235 c63d a480 be3d 0000 0000 0000 0000
000000d0: 1ef3 54bc 0000 0000 85a0 d03d a3c9 c4bb
000000e0: 0000 0000 0000 0000 0000 0000 a211 02bd
0.0 0.09787291 -0.007340249 -0.008475292 0.0 0.0 0.0 -0.0061492138
-0.034365322 0.0 -0.007739135 0.0 0.0 0.0 0.0 0.0
0.09682878 0.0 0.0 -0.006937741 0.096960425 0.0 0.0 0.0
0.0 0.0 -0.007884058 0.0 0.0 0.0 0.0 0.0
0.0 0.10047416 -0.008965047 0.0 0.09455243 -0.0075793997 -0.0060055014 -0.008103086
-0.031054923 0.0 -0.0060054413 0.0 0.0 0.10065908 0.0 0.09714166
0.09678139 0.0930188 0.0 0.0 -0.012997417 0.0 0.10186867 -0.0060054823
0.0 0.0 0.0 -0.031755097

K f4 [8, 60]
00000000: a4d6 a03b e1fb a03e d1f4 af3d b1d4 a33c
00000010: 30ea f5bd 2a4a dbbc 17be de3d 69a4 c63d
00000020: ac71 00bd 004d 3d3b 8064 7fbc eacb e7ba
00000030: cb96 ef3d 625f 74ba 3883 4b3c 3d44 ec3d
00000040: 8be9 f33d 021d 64bc dfbe 00bc ee99 4cbd
00000050: f08b 35bd 9f36 523c 7fcc b73c 06cb da3d
00000060: e0fb 6cbf 50ec d73c 919a a93c c3e5 f73c
00000070: 51e9 e93b 355c 01bc b7f1 f73d 4ec3 2abe
00000080: e9ce 2dbc 4464 b83c 9a9d 1cbc 13a3 4bbd
00000090: 1f23 e23d 6431 20bd e98d 063e 70d8 46be
000000a0: 1c2b 35bf 9d8d d73d 91a2 593c e9e9 f53d
000000b0: 7459 d1bc 719b 893d e4a8 fe3d 1ee9 dc3d
000000c0: 50dc 59be f429 e23e 3f9b 73bd 6238 44bd
000000d0: 0dd9 19bc 41c8 103d 114e b13c 37e0 053e
000000e0: 1a89 5a3c bd23 e2bc d761 f03c 7373 7a3c
000000f0: 2b7b 23bc c473 203f b94f ae3e b3e5 e33c
00000100: ff5f fabd 3c2d 663b 6491 9a3e 59e6 373e
00000110: ef9d 05bc d75c ac3b cfcb 313b bf63 4fbb
00000120: 0ec6 903e f52e 7339 71c7 ef3c e375 833e
00000130: 035f ac3e 51ed a9bc be67 69bb 5cc2 47bd
00000140: 9b92 87bb 0065 91bb 0396 343c e962 a23e
00000150: 1fe9 5dbf f847 953c 0b5a 3e3c dd88 733c
00000160: b95e 363c 39e2 90bc 1c15 a33e 1681 1abe
00000170: 1e8a 52bc cb8a c33c ec03 203c 9672 fcbc
00000180: c903 883e 01d0 f7bc 52a7 8a3e d4d2 b3be
00000190: 40e2 4bbf f683 8d3e c34b c93c c521 833e
000001a0: 68f8 63bc d70b a13e f838 9c3e 6c32 903e
000001b0: 87d3 67be 2a1e 4c3e 2acb 68bd 133a 2bbd
000001c0: 76b5 ea3b 1d26 583c fff6 db3c ff4f 933e
000001d0: 5d14 b83c 26a3 d4bb 7883 6a3c a223 5abc
000001e0: 921e 76bc 5d5f 823e 6bc0 653c 72da 34bd
000001f0: 526f 96bd bdac 3dbd ac10 323d 0952 763d
00000200: ffeb a2bd fabc e8bc 9d74 1abd 71de 62bc
00000210: 9ad3 713c 3b16 45bc 4dd6 d8bc 1a12 a93c
00000220: f81f 293d c329 bcbd fee7 ffbc b5a2 10bd
00000230: d567 7bbd d76e 82bc 4bb7 adbc a263 0b3d
00000240: 2b4a 243f 90f4 cabc 3ec8 95bc f936 00bd
00000250: 6756 3dbd e41b bcbd c4b8 dc3c 1b8e 14be
00000260: 290d 3dbc d9e4 edbc 3046 8d3b c538 b0bd
00000270: b99c 543c 1342 05bd 40f7 fa3c 0169 88be
00000280: 8fec 1e3f 60d8 623c 3387 debc 0f57 be3c
00000290: 0b23 91bd 023e e43c 900d 0d3d a425 643c
000002a0: 0567 81be a81d 073f 3ec1 85bd c4a4 bbbd
000002b0: 42c3 e9bc ffc0 7dbc e12f e2bc df5f be3c
000002c0: dc42 95bc 4b32 a239 ac8b 95bc 57a0 33be
000002d0: d9d5 38ba e645 fb3e 174b 773e bfa9 c53c
000002e0: 571d 00be b3a5 07bd 1a8a 623e aa95 2c3e
000002f0: e3b6 a2bc b7dc 823c 1a8e 25bb 9426 b8bb
00000300: fb1b 633e f553 cf3b 88c5 b23c e4b4 473e
00000310: 5fcb 733e 3b5a 10bd 5452 07bc 1389 4dbd
00000320: 4536 debc 1eac c83c f169 853c 952c 7b3e
00000330: 82d5 6abf 8f10 5d3c f96d ad3c 1e96 5f3c
00000340: 9a4c 323c e0be d9bc d34b 793e deff 15be
00000350: 914b 783c aa90 b63b efe7 e8bb 59b7 e3bc
00000360: 503e 5e3e 51dc 67bd b91e 403e 1ed3 96be
00000370: 65f9 47bf 61d6 4a3e 3e6d 9f3c a951 473e
00000380: b972 c4bc daa6 683e 0118 643e d0e2 4d3e
00000390: 9641 a8be 25e9 943e 2868 23bd c4ca 4dbd
000003a0: de25 6a3b a46f 8c3b a653 833c 20a1 463e
000003b0: b8c8 ed3c 481b babc 1fde c03c 0222 87bd
000003c0: 12c7 483b 8cd6 153f a441 b13e b51a 3dbd
000003d0: f90d ddbd 759c b5bb aa71 9d3e 9cef 863e
000003e0: bfff 96bd 221a 03bd 2591 dabc 2746 53bc
000003f0: 8bb9 a53e 1e0f da3b b348 cfbc da59 9e3e
0.0049083997 0.31442168 0.08591617 0.01999888 -0.12007558 -0.026768763 0.108761005 0.096993275
-0.031358406 0.0028885007 -0.015587926 -0.0017684672 0.11698683 -0.00093220745 0.012421422 0.11536453
0.11909779 -0.013922932 -0.007858007 -0.049951486 -0.044322908 0.0128304055 0.022436379 0.10683255
-0.9257183 0.0263578 0.020703586 0.030260926 0.007138409 -0.007895519 0.1210665 -0.16676065
-0.010608413 0.022508748 -0.0095590595 -0.049716067 0.11041855 -0.039109603 0.13140072 -0.19418502
-0.70768905 0.105250575 0.013283388 0.120075054 -0.02555535 0.06719101 0.12434557 0.10786651
-0.21275449 0.44172633 -0.059474226 -0.047905333 -0.009390128 0.035347227 0.02164367 0.13073812
0.013338352 -0.027604932 0.029343529 0.015286314 -0.009978096 0.62676644 0.340452 0.02781949
-0.12225341 0.0035122177 0.3018905 0.17958964 -0.00815533 0.005260091 0.0027129536 -0.0031645147
0.28276104 0.00023191779 0.029269906 0.25675878 0.33666238 -0.020743044 -0.0035614814 -0.04876934
-0.00413735 -0.004437089 0.011022094 0.31716087 -0.8668384 0.018222794 0.011618148 0.014864174
0.011130982 -0.017685996 0.31852043 -0.15088305 -0.0128503125 0.023869893 0.00976656 -0.030816358
0.26565388 -0.030250551 0.2708078 -0.35121787 -0.79642105 0.2763974 0.024572259 0.25611702
-0.013914205 0.31454346 0.30512214 0.2816347 -0.22639285 0.19933382 -0.056834377 -0.04180343
0.007162745 0.013192681 0.026851175 0.2877197 0.022470647 -0.0064891754 0.014313571 -0.01331416
-0.015021937 0.2546338 0.014022927 -0.04415364 -0.073454514 -0.046307314 0.04347293 0.06013683
-0.07955169 -0.028410424 -0.037708867 -0.0138469795 0.014759922 -0.012029226 -0.026469374 0.020638514
0.041290253 -0.09187653 -0.031238552 -0.03531142 -0.06137832 -0.015921993 -0.021205565 0.034030564
0.6417567 -0.02477482 -0.01828396 -0.031302426 -0.046224978 -0.09185007 0.026943572 -0.14507334
-0.011538782 -0.029039787 0.0043113455 -0.08604578 0.012976819 -0.032533716 0.030635476 -0.26642612
0.6207971 0.013845533 -0.027164077 0.023234872 -0.07086762 0.027861599 0.034436762 0.01392499
-0.2527391 0.52779627 -0.06530999 -0.09162286 -0.028535489 -0.015487908 -0.027610721 0.023239074
-0.018220358 0.0003093652 -0.018255077 -0.17541634 -0.0007050909 0.49076766 0.24149738 0.024128793
-0.12511192 -0.033117007 0.22122994 0.16853967 -0.019862598 0.015974386 -0.00252617 -0.0056198332
0.22178642 0.006327147 0.021822706 0.19502598 0.23808049 -0.0352423 -0.008259375 -0.050179552
-0.027125487 0.024496134 0.016285868 0.24528725 -0.9173204 0.013492717 0.021170603 0.013646631
0.010882521 -0.026580274 0.24345331 -0.14648387 0.015154735 0.0055714445 -0.0071077268 -0.027797388
0.21703458 -0.056606594 0.1876172 -0.29457945 -0.7811492 0.19808342 0.01946127 0.19464745
-0.023980485 0.22719899 0.22274782 0.20106053 -0.32862538 0.29084125 -0.039894253 -0.0502422
0.0035728137 0.0042857695 0.016031098 0.19397402 0.029026374 -0.022718087 0.023543416 -0.06598283
0.0030636233 0.585305 0.34620392 -0.046168048 -0.10793681 -0.005542333 0.3075078 0.26354682
-0.073729984 -0.032007344 -0.026680538 -0.012895144 0.3236812 0.006654634 -0.02530322 0.30927926

a f4 [60]
00000000: bb6f 7f3c 338e a83e 27d5 3c3e f4ab 103d
00000010: 3883 4abe ba4a 04be 510e 1a3e 47e7 4d3e
00000020: a429 fbbd be0b fcbc 566b f6bc c07d 193b
00000030: 6964 243e dbd7 b43a 3040 4e3d 082e 133e
00000040: 4bad 2d3e e6ef fabd 762a e0bd 3d1c 14bd
00000050: 7b23 01be 8a72 b63c db10 26bd 2fb9 373e
00000060: c2f4 253f e687 313d a83e 20bd 2456 4dbd
00000070: e509 c83c 914c fabd 1703 553e a519 5dbe
00000080: 34e7 bebd 7554 15bd 8799 48bb 404e 05be
00000090: 0c37 193e 72ff 2abd 63e3 103e c205 e6be
000000a0: f3b7 033f b0ae 103e a893 04bd 8025 0b3e
000000b0: dfe7 0bbe 70af 343e 5b34 1f3e 1917 153e
000000c0: 10a7 b5bd 62c9 c1be 29a5 28be 2ad7 15be
000000d0: d2cf 71bd cafd e5bc 525e db3c 06a5 003e
000000e0: 0dea 2d3d c603 26bd 9d75 ae3c 74c2 2d3e
0.015590603 0.3292099 0.18440686 0.035320237 -0.19776618 -0.12919131 0.15044524 0.20107757
-0.12263802 -0.030767318 -0.030080479 0.00234209 0.16053928 0.001379724 0.050354183 0.14373028
0.16960637 -0.12252788 -0.10945599 -0.036159743 -0.12611191 0.022271413 -0.04054342 0.17941736
0.64826596 0.043342493 -0.039122254 -0.05013098 0.02441878 -0.12221635 0.2080196 -0.21591814
-0.09321442 -0.036457498 -0.0030609088 -0.13018131 0.14962405 -0.041747518 0.14149241 -0.44926268
0.5145256 0.14129138 -0.03236738 0.13588524 -0.1366267 0.17645049 0.15547316 0.14559592
-0.08869755 -0.37848955 -0.16469254 -0.1463286 -0.059036084 -0.028075118 0.026778374 0.12562951
0.042459536 -0.040530942 0.021296317 0.16968709

b f4 [60]
00000000: 0000 0000 1770 39bf 2b7a 61be 3653 b0bc
00000010: 5ba8 2cbe 8590 e4bd 46b5 f6bd d3f1 eb3d
00000020: e90e eebd fcac 1ebd 4d7e b5bc 8fab f2bb
00000030: 1ea9 e6bd 0000 0000 322d b7bc ad78 0dbe
00000040: 1a3c e6bd 9e0d e5bd 41eb c5bd cca7 63bd
00000050: 03e0 f0bd 8a4b 72bc a296 1cbd 657d bbbd
00000060: e75b 943f 8a7d b6bc dd76 04bd 9567 1abd
00000070: a61a 99bc 5baa e7bd b656 7abe a53e 3ebe
00000080: 557c a9bd 8cdf 09bd 02cd b3bc 2fb5 ebbd
00000090: 99d5 10be a324 1bbd 15af 1cbe 642a 543f
000000a0: 9559 843f 307d 29be e0a6 b5bc 527e 18be
000000b0: 73f5 edbd 0cbf 51be cf68 d3bd a2c0 47be
000000c0: d365 643d 7f6c 72bd 9c47 11be dba6 0abe
000000d0: a4d3 29bd d55f b5bc fde1 9fbc f429 2cbe
000000e0: 80fb b6bc cafd b2bd 4570 b6bc 1784 29bd
0.0 -0.7243666 -0.2201926 -0.021524053 -0.16861098 -0.111603774 -0.12046294 0.11520734
-0.11623938 -0.03873919 -0.022154951 -0.0074057053 -0.11262725 0.0 -0.022360418 -0.13815565
-0.11241932 -0.11184238 -0.09664012 -0.055579945 -0.11761477 -0.014788518 -0.038229592 -0.091547765
1.1590546 -0.022276659 -0.03233992 -0.03769644 -0.018689465 -0.113117896 -0.2444714 -0.18578584
-0.082756676 -0.033660457 -0.021948341 -0.115091674 -0.14143981 -0.037876736 -0.15301163 0.8287718
1.0339838 -0.16551661 -0.022174299 -0.14891937 -0.11619081 -0.20483035 -0.10322725 -0.19507077
0.05576117 -0.0591855 -0.14187473 -0.13540213 -0.0414616 -0.022140423 -0.01951694 -0.16812879
-0.022336721 -0.08739813 -0.022270331 -0.041385736

K f4 [8, 60]
00000000: 2da7 c53a 7e62 a13c dcd3 b339 2f50 9bbe
00000010: 54f2 533c d537 e3bc bd13 a93c 186b eabc
00000020: 094f 6d3c b73e 80bb 3063 87bc 60fb 1bbe
00000030: ee73 26bd 3ef2 b9bc a2ea 973c 8e68 173b
00000040: 9ceb d83b 095d c9bc 02ad 8a3b 29b9 c0bc
00000050: e615 cabc a74d 823f 6c88 aebc f5d4 523e
00000060: 0c30 bbbc b59c 6e3c 6ffb a73e c370 063d
00000070: 7051 0dbd 043f d3bc 76bf 8d3c 4fb5 f0bd
00000080: bc8d b1bc edd2 b4bc b261 f4bd ae6a 44bc
00000090: ec6d 2dbf e5bd 13bc 62e8 31bc 991e cdbc
000000a0: cda7 803f 1927 e3be b0e1 d93e ef64 f9bc
000000b0: 8b54 653e 08c1 933d 25c5 56bb 609a 98bc
000000c0: 8614 dfbc 2678 c7bb 61a0 2ebd 53c4 bb3d
000000d0: 3484 053c f720 a63b b004 d9be 5415 6cba
000000e0: 130c c339 d59f dabc 5d34 903c 76f9 49bc
000000f0: 2edf ae3b f327 78bc 3835 0c3c 40f4 afbe
00000100: 6271 b6bb b02e 873d 5fa9 33bc 1ed4 9d3d
00000110: c5a4 953a 0606 5fbc 50ac 8f3d 0b30 dd3d
00000120: c099 ac3d 51ac 923d 46e4 e2bb 5798 733a
00000130: 8eaf 89bc 3ba4 8c3d 3b34 6ebb 8316 953d
00000140: 43b7 b3bc 7a96 c4be 9e52 7e3c 9cec a93e
00000150: a786 cdbc 1b61 41bc c9df a93e 337f 283e
00000160: 3c53 a33d 4b45 ab3d 08de cebc c2c3 a2bd
00000170: 3f2e 81bb 2439 853d 5705 223e d6c0 2dbc
00000180: dd30 30bf 1996 493b d312 213b ca41 9a3d
00000190: 759b a43e 1b77 61be 83bd dc3e f1fc 993d
000001a0: 6450 ce3e 1dc2 ab3e e393 8f3a 7854 1dbc
000001b0: aa0f 003f 5c12 893c 4a1b bdbc 6ea9 333d
000001c0: bf17 0c3c f822 b13b cb46 69be 648a 313c
000001d0: 26f4 79ba 4e26 903d d909 aabb 1d1c 2cbb
000001e0: 9086 5ebc a873 75bd 4b8b eaba 4692 e03e
000001f0: c938 1dbd 22dc 643e b4df 11bc c01a 5e3e
00000200: ac53 5d3b fb49 30bd c512 5f3e 3242 87bc
00000210: 67af 513e 0cb2 5a3e cf61 0ebc cf36 25bc
00000220: 5668 17bd 93dd 493e 952d bfbc b37b 5c3e
00000230: f687 23bd 9e52 3dbe 9cf6 22be 65c9 84bf
00000240: 8d5f 69bd c086 09bc b5e8 3b3e 85a7 bd3e
00000250: ad0b 603e 37eb 643e 649c 85bc 57a5 10bf
00000260: c230 35bd 4a73 593e ffb9 bf3d 9b6a 1bbd
00000270: 6cba 303f 831d fc3a fc76 7d3b 97e4 5c3e
00000280: 4920 fbbe cf7d f03e 17fa 493e 4682 5a3e
00000290: 8c84 b83d a4e3 82be 0e59 353c 05fa 01bd
000002a0: 4818 f8bd 70da febc 67be 66bd 6503 643e
000002b0: 2e0c 29bc c1ca a9bd f2d1 f53e 41c3 36bd
000002c0: 2284 c8bb 4c06 663e ee37 2ebc 11b2 dfbc
000002d0: 164a a03b 41ce 853c 8ba4 f53a 9567 2abe
000002e0: e5fc 803b 646d 2e3e c9d3 84bc cc90 273e
000002f0: 5e9b 903c 7577 55bb b126 1b3e e436 aa3d
00000300: 2e26 2c3e 3bd3 2b3e cfbf cf3a 82d2 cebb
00000310: 7971 a3bc acab 223e 4f54 8dbb d4e4 173e
00000320: 1b05 c0bc 4b97 83bf 66bc eeba 2b45 003f
00000330: 9f65 2cbd d161 57bc 625e e03e 350f 443d
00000340: 62a0 3e3e 6de3 303e f3a8 da3a 44ac acbd
00000350: a0d5 2cbc fecd 273e 4bcf 813e da94 10ba
00000360: 96dd c43e 36fe 40bc 37cd e03b d73d 133e
00000370: fdf6 623e 2849 93bd ee80 e73e a84e 263e
00000380: 4cc4 223e 1028 9c3d d621 37bb c2a5 9ebc
00000390: 7d95 c6bb 4a64 b33c 6306 0ebd 6a2c 08be
000003a0: b0f4 79bc 5d94 45bb ed01 20be 3be8 373b
000003b0: 8931 7d3b b7ec 363e d4db 403b d28e 11bd
000003c0: e239 f8bb 3572 41bd 798d c5bb ead2 1a3f
000003d0: 2063 edbc 0147 b13e a9f2 afbb 753f ae3e
000003e0: f36a b4bc 42d5 453b 0a70 b33e 476d 9fbe
000003f0: bdbd b13e f8cc ae3e 50b3 ea3a 4b4a b5bb
0.001507973 0.019700285 0.00034299388 -0.30334613 0.0129361935 -0.027736584 0.020639295 -0.02861552
0.0144841755 -0.003913726 -0.016526788 -0.1523261 -0.040637903 -0.022698518 0.018544499 0.002310309
0.0066198837 -0.024580495 0.00423205 -0.023525791 -0.024668645 1.0179948 -0.021305285 0.20589049
-0.022850059 0.014563729 0.32809016 0.03282238 -0.034501493 -0.025786884 0.01730321 -0.11753332
-0.02167403 -0.022073234 -0.119326964 -0.011988325 -0.6774585 -0.009017442 -0.010858627 -0.025039004
1.0051209 -0.44365767 0.42554998 -0.030443637 0.22395532 0.07214552 -0.0032771316 -0.0186283
-0.027231466 -0.006087321 -0.042633418 0.09168305 0.008149195 0.0050698477 -0.4238639 -0.00090058637
0.00037202294 -0.026687542 0.017603094 -0.0123275425 0.0053366637 -0.015146243 0.00855761 -0.34366035
-0.0055677155 0.06600702 -0.010965674 0.07706474 0.0011416903 -0.013612276 0.07015288 0.10800179
0.08427763 0.07161773 -0.006924185 0.0009292415 -0.016807344 0.06867262 -0.003634705 0.072796844
-0.021937972 -0.38396055 0.015522627 0.3318833 -0.025088621 -0.011802937 0.33178547 0.16454773
0.0797486 0.08362826 -0.025252357 -0.07947494 -0.0039422805 0.06505039 0.1582235 -0.010605058
-0.6882456 0.0030759631 0.002457787 0.075320795 0.32149854 -0.22018091 0.43113336 0.07518948
0.40295708 0.33546534 0.0010954108 -0.009602658 0.500239 0.016732387 -0.023084302 0.043862753
0.008550583 0.00540578 -0.22780912 0.010836218 -0.0009534977 0.07038556 -0.005189162 -0.0026261874
-0.013581887 -0.05992475 -0.0017894296 0.43861598 -0.038384233 0.22349599 -0.008903433 0.21689892
0.0033771796 -0.043039303 0.21784504 -0.016511057 0.20477067 0.21356982 -0.008690312 -0.010083868
-0.036964737 0.1971343 -0.023337165 0.21531563 -0.039924584 -0.18488547 -0.15914387 -1.0373961
-0.05697589 -0.008393943 0.1835049 0.3704187 0.21879454 0.22355352 -0.016309924 -0.5650229
-0.044235952 0.21235386 0.09361648 -0.037943464 0.6903446 0.0019234869 0.0038675657 0.21571575
-0.4904807 0.46970984 0.19724308 0.21338758 0.09009656 -0.255643 0.011068596 -0.031732578
-0.12114006 -0.031110018 -0.056333926 0.2226692 -0.010317845 -0.08290625 0.48011738 -0.044619802
-0.006119267 0.2246334 -0.010633452 -0.027306588 0.004891644 0.016333701 0.0018741054 -0.16641076
0.0039363974 0.17033917 -0.016214268 0.1636383 0.01765221 -0.0032572423 0.15151478 0.08311251
0.1681144 0.16779797 0.001585001 -0.0063117156 -0.019951569 0.158858 -0.004313029 0.14833385
-0.023439934 -1.0280546 -0.0018214106 0.5010554 -0.0420891 -0.01314588 0.43822008 0.047866065
0.18615869 0.17274256 0.0016682431 -0.084312946 -0.010548979 0.16387174 0.25353464 -0.00055153447
0.38450307 -0.011779359 0.006860401 0.14379059 0.22164531 -0.07191688 0.45215553 0.16240942
0.15895194 0.07624829 -0.0027943752 -0.019366149 -0.006060301 0.021898407 -0.03467406 -0.13298193
-0.015256092 -0.0030148246 -0.15625735 0.0028062004 0.0038634262 0.17863737 0.0029427903 -0.035536595
-0.0075752595 -0.047228057 -0.0060288277 0.6047808 -0.02897793 0.34624484 -0.0053695035 0.3403279
-0.022023654 0.0030186926 0.35046417 -0.3113806 0.3471507 0.34140754 0.0017906222 -0.005532538

a f4 [60]
00000000: a77b 49bc 70ab dfbc 3908 02bc 1b6d 673f
00000010: e303 c03c f9e7 57be 40e3 753c 23a8 54be
00000020: 9f7f 0fbc 2262 a6b9 5d33 56be ce79 e2be
00000030: 2bbf 5fbe a3a9 68be 92fa f53b 173d 06bc
00000040: 4b06 963c cc65 58be dc9d c23b 2d06 57be
00000050: cf0e 43bd 2d59 c2bf 9701 d6bd 5369 5a3f
00000060: 54e3 c5bc cdd1 5a3c 6153 1e3f f96e 1ebf
00000070: f046 54be 5df1 61be 514c 633c 8f60 c2be
00000080: aa9f c7b8 945a 55be 4aaa 82be 7903 713c
00000090: 7412 8bbf 2259 9c3b 362a 15bb 0ffa 4bbe
000000a0: 655f c3bf 2acb 673f 0629 393f 2c68 4bbe
000000b0: fc5d 843e c498 27bf 7c19 873a 63d1 1dbc
000000c0: def3 77bf 9b1d 03bd 7bac d03c d80a 25bf
000000d0: 5460 bc3c 566e 853c 7829 483f 4479 193d
000000e0: 1750 0d3c fa3b 64be 4af5 c9bb b994 803c
-0.012297547 -0.027303427 -0.007936531 0.90400857 0.023439353 -0.21084584 0.015007794 -0.20767264
-0.008758455 -0.00031735102 -0.20918031 -0.44233555 -0.21850269 -0.22720961 0.007506677 -0.008193276
0.018313548 -0.21132582 0.0059392285 -0.2099845 -0.047621544 -1.5183464 -0.10449522 0.8531696
-0.02415625 0.0133556845 0.61845976 -0.6188808 -0.20730186 -0.22064729 0.013873176 -0.37964293
-9.518799e-05 -0.20835334 -0.25520545 0.014710301 -1.0865006 0.0047713676 -0.0022760755 -0.19919609
-1.5263487 0.9054438 0.7232822 -0.19863957 0.25852954 -0.65467477 0.0010307278 -0.009632441
-0.96856487 -0.032010656 0.02547287 -0.6446967 0.022995152 0.016287964 0.78188276 0.037469164
0.008625052 -0.22288504 -0.006163274 0.015695916

b f4 [60]
00000000: 0000 0000 412b 2b3d 0000 0000 42b9 223f
00000010: f54d 06bd 4a26 333d c9c9 c4bb a772 433d
00000020: 0000 0000 95c6 35bc 97e6 f93c fbaf 15bf
00000030: b88e 893d 267b 4d3d 0000 0000 f7e0 b6bb
00000040: 6962 48bd 3363 293d 0000 0000 d3dc ee3c
00000050: 4198 3cbd 5c7e b7be b81e 3c3e 07aa f7be
00000060: f810 02bd 1877 1ebc 4a1f 5e3e 4149 56bf
00000070: f51e 833d e94c 613d 9fc9 c4bb 5cbe 4d3f
00000080: 5b67 a9bc fbf4 333d deaa 473f a62b 4abd
00000090: 83d7 183e c5c9 c4bb a0c9 c4bb d586 f73c
000000a0: 0850 ddbd 3b59 cf3d 9c3d 8f3e 185b 453d
000000b0: a843 053f b0c5 33bf b7c9 c4bb 0c45 e4bc
000000c0: fe92 ac3e 19b0 c3bc de02 07bd f5f9 56bd
000000d0: 0000 0000 c4b0 c13c de89 713d e871 2fbd
000000e0: 0000 0000 d77f 6c3d b1bc d2bc fc54 f43a
0.0 0.041789297 0.0 0.6356393 -0.03278919 0.043737687 -0.0060055 0.047716763
0.0 -0.011094709 0.030505462 -0.5847165 0.067166746 0.05016627 0.0 -0.005581017
-0.048921976 0.04135437 0.0 0.029158032 -0.04604364 -0.35838592 0.18371093 -0.48371908
-0.031754464 -0.009671949 0.21691623 -0.83705527 0.06402389 0.055004988 -0.0060054804 0.8036859
-0.020679167 0.043934803 0.779951 -0.049358033 0.14925961 -0.006005498 -0.006005481 0.03021566
-0.108062804 0.10124441 0.27976692 0.048182577 0.5205636 -0.7022352 -0.0060054916 -0.027864955
0.33705896 -0.02388768 -0.03296172 -0.05248447 0.0 0.023643859 0.05896937 -0.04283324
0.0 0.057739105 -0.02572474 0.001864105
