learner_tingwei/model/testcase_1_distsquare_eps_0.0004_l_0.004_auglag_lbfgsiters_100addloss_0_adddim_0__seed_1/model51000.pkl (torch, 24480 bytes, 22 tensors)

Qincpt f4 [1, 1, 8]
00000000: 10dd 763f 1794 663f f049 753f 8074 5e3f
00000010: 2798 643f 75cc 613f 8f97 5b3f b273 643f
0.96431065 0.9006972 0.95815945 0.86896515 0.89294666 0.882026 0.85778135 0.8923904

Qslope f4 [1, 1, 8]
00000000: 5fb0 623f c825 7a3f ebab 3f3f c2b6 553f
00000010: acf8 523f 3a02 673f 39b0 813f 44fe 6a3f
0.8855037 0.977139 0.748717 0.8348199 0.82410693 0.9023777 1.0131904 0.9179423

Pincpt f4 [1, 1, 8]
00000000: 800f 893f 48e6 693f 45be 8a3f 266e 763f
00000010: 6ab6 853f e2b7 883f e838 6d3f d760 813f
1.0707855 0.91367006 1.0839316 0.96261823 1.0446293 1.0681117 0.9266496 1.0107678

K f4 [8, 60]
00000000: 3866 ae3d 01d6 f5bb e54b d6bb 71b1 9ebc
00000010: 874a 83ba 789e c7bb a086 20bc 2479 ae3d
00000020: 055b e9bb ca33 d73d 287b be3d 9503 51bc
00000030: cdaa 11bb 91d4 083c 0e1b d43d 1c3c 993b
00000040: 4462 e4bb dd2d 3ebc de39 e53b 5b78 023b
00000050: 77eb cc3d e4f2 d43d 0f39 d9bb f644 043c
00000060: d77f 343c 579a e6ba 8603 f7bc d8fc 6cbc
00000070: 54ba d03d f255 62bc 76c1 02bc 6b85 acba
00000080: bcf4 993c 4433 49bc 9f5a d23d 57b7 bf3d
00000090: 0f45 d03d b437 1ebc d37b c83a d3fc be3d
000000a0: 3828 e9bb d3d8 3f3b 0be4 ceba 72ed 96b9
000000b0: c3bb fe3d e4e8 89bc 9e3a eb3d 0c5a be3d
000000c0: a0f1 17bc dfb7 96bb c00f afbb 9535 8fbb
000000d0: 95e3 f93b 9fac 903b 589b e63d d419 a53c
000000e0: 8b65 d23d 9dc9 193c 7f95 1bbc 7f2b c03d
000000f0: d7ec 203e 2579 0ebc ad71 08bd ac98 e1bb
00000100: 46b5 85b9 98a9 27bc ae5b c3bb 4cba 073e
00000110: e005 0abb 283c 113e dfce 213e 6814 26bc
00000120: 2aac e6bb 5df0 29bc bdd3 063e 6031 08bc
00000130: 5411 97bb 1e87 b7bb 569f 813b b0ef 20bc
00000140: cd74 023e 5d21 123e 4e4b d6bb eac2 ef3b
00000150: 8202 6bbc 3e1b a4bb 97f9 c3bb c9b4 d1ba
00000160: d963 133e bc5b 4fbc 1497 2abc 06f3 ef3b
00000170: 8ec2 2bbc ad3f 85bc 360a 143e cc17 253e
00000180: e952 163e fe2d ea3a e9c7 053c 808d 063e
00000190: a18d 003c 3057 05bc 61f9 17bc 192f 363c
000001a0: 4a4b 1d3e 456d dbb9 c7e0 0d3e 5626 0e3e
000001b0: e433 acbc 2020 85bc b04a aabc 00b3 39bc
000001c0: ab29 0f3c f895 b7bb 87ce 1c3e 12d4 053c
000001d0: a320 133e 86f4 473b 755f 15bb 6e84 0c3e
000001e0: 4fa3 dd3d f7ef 18bb f943 0db9 b746 69bc
000001f0: 223c a2bc 0457 933c 4d72 853a 5f35 b53d
00000200: 796d e93b c60d 7c3d e3cc a73d 7ad8 003b
00000210: 8792 46bb ff13 d5bc 7987 b63d 44c9 03bc
00000220: 76fb 83bc 9152 99bc 29f5 b13b bd7d d83b
00000230: 2512 c53d 12b6 b33d f55a 8c3c a4fc 92bc
00000240: 905b 5fbc 3817 21bc 5677 f73b 0754 d23b
00000250: 61c9 ae3d e438 41bc 4eac b43b 7085 7dbc
00000260: 6bc6 a93b f40f 29bc 9779 af3d 69cf c03d
00000270: 190f c73d f11e 0d3c 8e76 e7bb 2cd2 d73d
00000280: 2dd7 efba 3b68 0bbb 609e 09bc a7a1 89bb
00000290: 035a 943d 67aa 84bc 0dd2 b33d fafe b93d
000002a0: 4ae2 4a3b e6c5 ad3b 9a26 c63b b4bb 94bc
000002b0: d034 84bb 7425 1dbc 54ff 9f3d 77bc 4eba
000002c0: 77b0 b63d 0efd 3e3c 2cd4 14bb 55ff c73d
000002d0: 76ac 213e 677e b93a 8083 d6ba 5918 66bb
000002e0: d016 8d3c 89f3 46bb 708c 1c3b e63b 3a3e
000002f0: cc4c 873a fe1f 363e 5cf0 263e bae9 3bba
00000300: 924a babb 13d3 49b8 db3e 3d3e d112 00bb
00000310: 3bba a83b 6958 97bc 86f0 eebc 14e7 b9bb
00000320: 42d3 1c3e 131c 343e 0797 10bc 8f43 ae3b
00000330: 9b42 7dbc c425 e3ba c7e8 98b9 1895 153a
00000340: 47d4 333e c37f 403b d896 aabb c0f7 5d3c
00000350: dc22 1a3b 6410 f93b 07e5 3d3e 8e03 383e
00000360: e3b3 1f3e f77d 213b ad4c 463c b196 253e
00000370: e150 7abb 6230 bcbb 41bc 6e3c a113 913c
00000380: 2406 3a3e 6dff 2fbc ae47 263e 2f62 1b3e
00000390: aa50 4c3c 2a76 343b 2e59 09bb 23c3 7d3b
000003a0: ac44 51ba d2f3 5f3b d1d6 323e 78be 62bc
000003b0: f88b 3c3e bbb8 c1bc 03ec 89bc 5340 2e3e
000003c0: fc47 443e 02c2 193c 3c24 703c 348b 0fbd
000003d0: c611 f4bb 5a7c 04bb e183 16bb ad65 453e
000003e0: d9f0 753b df43 483e 3819 403e 9c2d 8d38
000003f0: fe79 8aba 3169 a5bc 6742 483e 7485 b83b
0.085155904 -0.007502318 -0.006539809 -0.01937172 -0.0010016718 -0.006091889 -0.009797722 0.085191995
-0.007121446 0.10507925 0.09300834 -0.012757202 -0.002222705 0.008351461 0.10356723 0.004676355
-0.006969722 -0.011607614 0.0069954237 0.0019908163 0.10005849 0.1039789 -0.0066291164 0.008073082
0.0110168075 -0.0017593604 -0.030153047 -0.0144645795 0.10191789 -0.013814436 -0.007980695 -0.001316232
0.018793456 -0.012280289 0.10271191 0.09361141 0.10169422 -0.009656835 0.0015295692 0.09325566
-0.00711539 0.0029273524 -0.0015784515 -0.0002878714 0.124381565 -0.016834684 0.1148579 0.09294519
-0.0092739165 -0.004599556 -0.0053424537 -0.004370401 0.007626007 0.0044151093 0.11260098 0.020153917
0.10273274 0.009386447 -0.009496092 0.09383296 0.15715347 -0.008695875 -0.033311535 -0.006884655
-0.00025502796 -0.010233305 -0.005961857 0.1325466 -0.002106063 0.14183104 0.15801571 -0.010136701
-0.0070395665 -0.0103722485 0.13166709 -0.008312553 -0.00461022 -0.005600824 0.003955762 -0.009822771
0.12739868 0.1427054 -0.0065397387 0.0073169367 -0.01434386 -0.0050081303 -0.005980681 -0.0015999313
0.14393558 -0.0126561485 -0.010411996 0.007322672 -0.010483397 -0.016265715 0.1445702 0.16122359
0.14680065 0.001786649 0.008165338 0.13139915 0.007846267 -0.008138463 -0.009275765 0.011119627
0.15360752 -0.00041852347 0.13855277 0.13881811 -0.021020837 -0.01625067 -0.020787567 -0.011334181
0.008737962 -0.0056025945 0.15313159 0.008168237 0.14367919 0.0030510738 -0.0022792493 0.13722393
0.10822164 -0.002333639 -0.0001347213 -0.014238051 -0.019804064 0.017985828 0.0010181159 0.0884807
0.007123646 0.061536573 0.08193376 0.001966028 -0.003029974 -0.026010511 0.08912558 -0.008043591
-0.016111117 -0.018716129 0.0054308367 0.006606786 0.096226014 0.087749615 0.017133215 -0.017942734
-0.01363267 -0.009832196 0.0075520677 0.0064187082 0.08534504 -0.011793349 0.0055137044 -0.0154737085
0.005181124 -0.010318745 0.08568113 0.0941456 0.097196765 0.008613334 -0.0070636934 0.10538134
-0.001829838 -0.0021271843 -0.008399576 -0.0042001787 0.07243731 -0.016194535 0.087802984 0.09081836
0.0030957633 0.0053031323 0.006047082 -0.01815591 -0.004034616 -0.009591449 0.07812372 -0.000788636
0.08920377 0.011657013 -0.0022709472 0.097654976 0.15788445 0.0014152051 -0.0016366094 -0.0035109727
0.017222792 -0.003035756 0.0023887418 0.18186912 0.001032257 0.17785642 0.16302627 -0.0007168312
-0.005685159 -4.8118713e-05 0.18481009 -0.0019542465 0.0051491535 -0.018474774 -0.029167425 -0.0056732986
0.15314963 0.17588834 -0.00882507 0.005318112 -0.0154577745 -0.0017329981 -0.00029165132 0.00057061156
0.17561446 0.0029373027 -0.0052059703 0.013547838 0.0023519313 0.007600831 0.18544398 0.17970106
0.15595965 0.0024641731 0.012103242 0.16170765 -0.003819518 -0.0057430724 0.01457125 0.017709555
0.18166405 -0.010742051 0.16238281 0.15174173 0.012470404 0.0027536252 -0.0020957696 0.0038721047
-0.000798295 0.0034172428 0.17464758 -0.013839357 0.18412769 -0.023647657 -0.016836172 0.17016725
0.19168085 0.009384634 0.014657076 -0.035044864 -0.007448408 -0.002021572 -0.002296679 0.19277067
0.003752759 0.19557141 0.1875962 6.731899e-05 -0.0010564921 -0.02019176 0.1955658 0.005631143

a f4 [60]
00000000: e1c2 0bbe 0e90 a5b9 8fb1 b7bb e9cf 243c
00000010: e7f1 ed3b fe77 de3b a2f5 8cbb eb58 0fbe
00000020: 5b1e 77bc fc61 11be f05b 13be 7474 8c3b
00000030: 0d18 b4bc a95f babb 5e65 0bbe 4ba8 cfbc
00000040: 45d4 81bc 1414 0e3b 6d1f bbba 23de 693c
00000050: 54f7 01be a7bf 0bbe 1875 a83a 9ce6 acbb
00000060: 2d83 313c 1460 ee3b f798 80ba ddec af3b
00000070: b9ee 0cbe 3db9 8ebb d210 413b 5c88 b8bb
00000080: 4710 aa3b 7c65 523b c949 0bbe 8356 0abe
00000090: 1a74 04be 7bbe 8bbb a2a6 0abb ecc1 0dbe
000000a0: f6d4 bebb 8eb3 673c 42d9 8ebc adf8 933a
000000b0: 9505 0bbe a5e0 aabb a730 0abe a9b8 04be
000000c0: 532e 633b bdbb 563b 5a28 b4bb b5fe c4bc
000000d0: 7f0d 893c 27b1 95bb e24c 07be 69f9 0f3c
000000e0: 7261 0ebe 1489 343c 03cd b5ba b052 11be
-0.13648559 -0.00031578582 -0.0056058834 0.010059335 0.007261503 0.0067892065 -0.0043017427 -0.13998763
-0.015082921 -0.14197534 -0.1439054 0.004286343 -0.021984125 -0.005687673 -0.13612887 -0.025348803
-0.015848288 0.0021679448 -0.0014276333 0.014274153 -0.12692004 -0.13647328 0.001285228 -0.005276514
0.010834497 0.007274637 -0.0009811212 0.0053688125 -0.1376294 -0.004355578 0.0029459489 -0.0056314897
0.0051899287 0.0032103946 -0.13602366 -0.13509564 -0.12934914 -0.0042646504 -0.002115645 -0.13843507
-0.0058237268 0.01414193 -0.017437581 0.0011289321 -0.13576348 -0.005214768 -0.13495122 -0.12961067
0.0034665063 0.003276571 -0.0054979743 -0.024047235 0.016730068 -0.0045682373 -0.13212922 0.008787491
-0.1390436 0.01101901 -0.0013870302 -0.14191699

b f4 [60]
00000000: 1aee fd3d 0000 0000 0000 0000 d134 03bd
00000010: 0000 0000 0000 0000 0000 0000 89d2 023e
00000020: 0000 0000 1878 013e 6984 fc3d 6bd3 20bc
00000030: 0000 0000 eae9 0dbc 0e93 003e 0000 0000
00000040: 0000 0000 0000 0000 0000 0000 0000 0000
00000050: 5a5a e33d d469 ff3d 0000 0000 0000 0000
00000060: 0000 0000 0000 0000 00d7 eebb 0000 0000
00000070: e946 ff3d a4be f0bb 0000 0000 0000 0000
00000080: 0000 0000 ca46 42bc f826 003e c924 003e
00000090: c1ad f33d e099 27bc 0000 0000 d513 f03d
000000a0: 5bc4 c4bb 0000 0000 0000 0000 0000 0000
000000b0: 9af2 fa3d 9c0d d2bb 8f73 f23d faa0 f43d
000000c0: 0000 0000 636b 29bc bdc5 c4bb 0000 0000
000000d0: 0000 0000 0000 0000 0af4 f93d 0000 0000
000000e0: 92b9 fe3d 0000 0000 3763 fabb 944e fd3d
0.1239893 0.0 0.0 -0.03203279 0.0 0.0 0.0 0.12775625
0.0 0.12643468 0.12329943 -0.009816031 0.0 -0.0086617265 0.12556097 0.0
0.0 0.0 0.0 0.0 0.111012176 0.12471357 0.0 0.0
0.0 0.0 -0.0072888136 0.0 0.12464697 -0.007346945 0.0 0.0
0.0 -0.011857698 0.12514865 0.12514032 0.11898375 -0.010229558 0.0 0.11722533
-0.0060048527 0.0 0.0 0.0 0.12253304 -0.006410314 0.11838447 0.11944766
0.0 -0.010340544 -0.0060050176 0.0 0.0 0.0 0.1220475 0.0
0.124377385 0.0 -0.007641222 0.12368503

K f4 [8, 60]
00000000: cd21 8fbc 1a78 23bd 1d55 483b 03b0 31bc
00000010: 33c4 babc 9abd 11bc 8b48 963c 8cec e9bc
00000020: 11eb 22bd 1779 5bb9 27c8 863a 470b cfba
00000030: a1ca a3bb ff1d 4e3e fa08 00bc 9564 4e3e
00000040: 3c3e a0bb 69a4 6fbc fbda 3f3e c6fa 823c
00000050: a95e 11bc 1536 bf3c c235 853b 28c9 c0bc
00000060: b53d b83b 2858 64bd bb93 4e3e f067 2e3e
00000070: 60b8 00bd e2d2 513e b6e9 523e 3b0b 08bc
00000080: 9ed6 54bc 9627 2dbc cb22 36bc f284 a83b
00000090: ea6e 4e3e 3876 68bc 724f 533e f6ec 6abc
000000a0: 49ef 76bc 425b 593e 9913 edbc dea4 be3b
000000b0: 0e9f 69bc 207a 5c3b b6cf 493e b2cb 4cbd
000000c0: 1ad2 ddbc 0514 37bd 0cf6 5ebc 9372 8e3c
000000d0: a27e 8ebd e462 05bc 9a5e 893c da5c 3cbc
000000e0: 97cf aebb 2a75 18bb e74c cbbc e5a3 42bd
000000f0: 6e1f 44bc bbf6 40bd 4ee8 8fbb 57bc aabc
00000100: 10ca dcbc 59a7 083c 5a3f 923c 3436 e5bc
00000110: b201 26bd cf89 b8bb 099b ffbb de22 a5bc
00000120: 9708 ff3b 350f a03e 3df5 4bbc e5f3 a53e
00000130: b7ac 27bc 8eb7 8b3c 727e a23e f031 463c
00000140: 7740 a03b 3da4 b23b 21bd 6c3a f155 aabc
00000150: b87d 4f3c 9391 65bd d230 a53e 3b60 c53d
00000160: 2fbc 06bd f2be 9a3e 53fc 9d3e ab28 96ba
00000170: b314 843b 6910 5b3c cb0b 853c 8576 0bbd
00000180: 6551 9f3e a684 eb3b d21b 9c3e 6a50 5dbb
00000190: 059a 9eba a163 963e 59a9 99bc 59af f53b
000001a0: 98d2 c938 7d10 2bbb 3982 a23e a7d6 a7bc
000001b0: 49f8 ebbc abce 9fbc 60cf 4ebb 5c5b 343c
000001c0: 7d43 c5bd 534d 32bb e4cc 043c 981f d6bb
000001d0: 60ff 80bc d7ef 353c 29e4 e3bb f86b dcbc
000001e0: 824a 4abb 3ce1 e2bc 60fa 5abc 865e 80bb
000001f0: 9766 97bc aff1 f5bb 3dce 22bc 399a f1bb
00000200: b7cb 3fbc e7dc d5ba 9377 03bb 0c95 febb
00000210: adca 1ebb 70aa 023e 5205 1d3c fd00 083e
00000220: 2ed7 d9b8 9565 26bc c74c 113e e398 b8bc
00000230: 3077 fcbb c842 aebc b9b4 d0bc bae5 fdbc
00000240: 5af6 8bbc 9b81 a2bc 2312 fc3d 662c b73e
00000250: 1bfc 44bc fb7d 043e 18d5 073e a042 ddbc
00000260: 9a50 97bb 35a7 39bc be93 af3b 429d 0abc
00000270: a9cf f63d 490f 103c 7856 163e 25cf 0bbc
00000280: fe4d 06bc 2092 023e dee4 15bd 93f8 b2bc
00000290: 20e5 9fbc 49fc d4bb e1a5 0d3e f711 9dbc
000002a0: a27c 03bd 3d02 d7bc 3d43 21bc a465 54bc
000002b0: 2945 8c3d 09cd 363c b675 c7bc 63e6 cabb
000002c0: d926 5fb9 058a 643b 64ed 74bc ff3c 01bd
000002d0: 9de5 233c 4a6d f7bc e9f8 343c c212 253a
000002e0: 5477 4bbc 1b15 9f3b e0d6 403c 9c05 1bbd
000002f0: 726e 80bc deb8 a4bb dd45 72bc 8e8a 0a3c
00000300: 6505 523c c478 993e d48f 9ebb fa90 8e3e
00000310: 0549 823b 5964 2ebc d9da 943e a48f 153d
00000320: fe4a 42bc 36b2 a33c bf1b fc3c e001 7dbc
00000330: cb36 f53c 28cb 51bc 7b17 923e 5a1b 993e
00000340: a443 53bc 9b6a 973e edcc 953e 3723 c5bb
00000350: fdcb 18bc 3395 203c 7078 0a3b 99e0 55bc
00000360: 00ec 923e 93d9 4fbc 29f4 943e 19ae a73b
00000370: 2e77 43bc 02a7 973e 5bdc c9bc 3437 083d
00000380: 57ba de3b 3903 adbb 18d6 963e a89c 06bd
00000390: 060c debc 3c28 26bd 8304 6e3b c412 583c
000003a0: 7c9d a2bd 91b8 95bc da89 9d3c 2bc0 ac39
000003b0: b7db 69bc a5ed d0bb 4c4e 58bc e752 ecbc
000003c0: 3b5f 0ebc d363 22bd d230 16bc 418a 40bc
000003d0: eb14 41bb 57d6 3aba c3d1 29bd 44b6 64bc
000003e0: 5583 33bb c156 5d3b 782b 3ebc 2546 80bc
000003f0: c055 633b 80d9 723e 9140 04bc e170 7a3e
-0.017472172 -0.03990946 0.003056831 -0.010845187 -0.022798633 -0.008895302 0.018345138 -0.028555177
-0.039774958 -0.00020930577 0.0010283039 -0.0015796208 -0.0049985205 0.2012863 -0.00781464 0.20155556
-0.0048902314 -0.014626601 0.18735878 0.015988719 -0.008872666 0.023341218 0.0040652463 -0.023533419
0.0056225904 -0.055748135 0.20173542 0.17031837 -0.031425834 0.20490602 0.20596966 -0.008303459
-0.012990622 -0.01056852 -0.011116694 0.0051428014 0.20159498 -0.014188342 0.20635775 -0.014338722
-0.015071698 0.21226218 -0.028940009 0.0058179935 -0.014259113 0.0033642128 0.19708142 -0.049998946
-0.027077723 -0.044696826 -0.013608467 0.017388618 -0.06957747 -0.008141253 0.016768742 -0.011496747
-0.005334805 -0.0023263195 -0.024816943 -0.047519583 -0.011970384 -0.0471103 -0.0043917065 -0.02084176
-0.02695182 0.00834068 0.017852474 -0.027979948 -0.04052896 -0.0056316624 -0.007800464 -0.020158228
0.0077830064 0.31261602 -0.012448606 0.3241264 -0.0102340495 0.0170553 0.31737095 0.012096867
0.0048904973 0.0054517076 0.0009030868 -0.020792933 0.012664251 -0.056047034 0.3226381 0.09637495
-0.03289431 0.30223805 0.3085657 -0.0011456212 0.004030788 0.013370612 0.016240975 -0.034048576
0.31116787 0.007187444 0.30489975 -0.0033769854 -0.0012100345 0.29372886 -0.018757509 0.0074977097
9.623653e-05 -0.0026102357 0.31739977 -0.020488096 -0.028804915 -0.019507727 -0.003155671 0.01100811
-0.09632013 -0.0027206733 0.00810549 -0.006534528 -0.015746772 0.011104546 -0.006954689 -0.026906952
-0.0030867164 -0.02769529 -0.013365358 -0.003917518 -0.018481536 -0.0075056176 -0.009936866 -0.007373121
-0.011706284 -0.0016316444 -0.0020060285 -0.0077692326 -0.002422969 0.12760329 0.009583788 0.13281627
-0.00010387447 -0.010156055 0.14189444 -0.02253384 -0.007704638 -0.021272078 -0.0254768 -0.030993331
-0.017085243 -0.019837191 0.12308147 0.3577606 -0.012022997 0.12938683 0.13264883 -0.027009308
-0.0046177628 -0.011331369 0.0053581884 -0.008460345 0.12051327 0.008792707 0.14681423 -0.008533274
-0.008197306 0.12751055 -0.036595218 -0.021847045 -0.019518435 -0.0064998013 0.13832809 -0.019173605
-0.03210128 -0.026246184 -0.009842691 -0.012963686 0.06849129 0.011157283 -0.024348121 -0.006192015
-0.00021281409 0.0034872305 -0.014949176 -0.03155231 0.010003475 -0.03020348 0.011045673 0.00062970456
-0.012418587 0.004854811 0.01176998 -0.037847146 -0.015677664 -0.0050269207 -0.0147871645 0.008455886
0.012818669 0.2997495 -0.004838923 0.27844983 0.0039759898 -0.010644042 0.29073218 0.03651394
-0.0118587 0.019982439 0.03077495 -0.015442342 0.029933354 -0.012804784 0.2853354 0.2990368
-0.012894545 0.2957352 0.29257908 -0.006016161 -0.009325978 0.009801197 0.0021128915 -0.013054037
0.2869568 -0.012686151 0.2909253 0.0051171896 -0.01193027 0.29619604 -0.024641206 0.03325577
0.006797116 -0.005279925 0.29460216 -0.032864243 -0.027105343 -0.040565714 0.0036318607 0.013188068
-0.07940194 -0.018276485 0.019230772 0.00032949573 -0.0142735755 -0.0063759857 -0.013202261 -0.028848125
-0.008689697 -0.03964598 -0.009166913 -0.011751712 -0.002946193 -0.0007127276 -0.04145981 -0.013959471
-0.0027391512 0.0033773633 -0.011607043 -0.015658448 0.0034688562 0.23715782 -0.008072034 0.24457122

a f4 [60]
00000000: ad2d 4bbb f454 233d cc75 f63a 133d 5b3b
00000010: 99c4 933c fd7a a7bc 98d3 19bd b205 383d
00000020: fc31 963c 72d0 19bc 0497 9a3b af8a cbbb
00000030: 00d3 403a 39f1 8c3e 3737 b73b a0db 8f3e
00000040: ab0f 6fba 9a9b edb8 5d7c 923e 364e 2bbd
00000050: ae24 663c 9e6d 3cbd 8aee 25bd 3c40 b6bc
00000060: 66b9 63bd e761 6b3c 1cf0 8e3e ab00 25bf
00000070: 7dbf cf3c 3dba 8c3e 5f07 893e 78b9 873c
00000080: f207 29ba 10be 7cbc cfb2 88bc 2845 e9bb
00000090: 2f98 893e b5e1 0ebc f5be 8a3e 72dd c1bb
000000a0: 9945 15bb ff9a 873e 7fd7 083d b900 16bd
000000b0: 869e 19b7 f033 b93b 7d3c 893e 0c0c c63c
000000c0: b8ff 173d 276c bf3a 5cc5 a33b 6f65 22bd
000000d0: ced2 bfbd 3452 54bb 57d5 22bd 068a c7bb
000000e0: c156 82bc 667c 7bbc 17c2 79bc a17e 7f3c
-0.0031002567 0.03987594 0.0018803417 0.003345315 0.018038081 -0.020444388 -0.037555307 0.044927306
0.018334381 -0.009388076 0.0047177095 -0.0062116007 0.000735566 0.27527788 0.005591299 0.28097248
-0.0009119461 -0.00011330024 0.28610507 -0.041822635 0.014046831 -0.046002977 -0.04051069 -0.022247426
-0.05559673 0.014366603 0.27917564 -0.64454144 0.025359863 0.2748584 0.26763436 0.01656793
-0.00064480223 -0.015426174 -0.016686825 -0.00711884 0.2687392 -0.008720805 0.27098814 -0.005916291
-0.002277708 0.2648544 0.033408638 -0.036621783 -9.15642e-06 0.0056519434 0.2680396 0.024175666
0.037109107 0.0014604375 0.0049978923 -0.039647516 -0.0936638 -0.003239763 -0.039754238 -0.0060894517
-0.015910508 -0.015349483 -0.0152440285 0.0155941555

b f4 [60]
00000000: 8de4 b1bb bb04 02bd 0000 0000 343f 5cbc
00000010: b7a2 7abc 0000 0000 c28c 03bd ff43 b7bc
00000020: 37b6 b4bc 0000 0000 61c0 6e3a 33ef 6ebc
00000030: 0000 0000 e47a c3be 0000 0000 c7b0 c7be
00000040: 0907 07bc 9ec4 eabb 1089 c5be 34fa 04bd
00000050: 0000 0000 2033 00bd f9b2 c2bc ab29 bebc
00000060: 79bc 0abd 4f48 f2bc 51be c5be 9916 243f
00000070: fdcb b6bc cc7b c2be 6a77 c4be 0000 0000
00000080: 0000 0000 7aec 56bc 0000 0000 8cab 9ebc
00000090: 1932 c2be 0000 0000 8ead c4be 24dc 12bc
000000a0: e892 2bbb 5eb8 c2be 27e1 2bbc c79b fbbc
000000b0: 0000 0000 0000 0000 4a07 c5be f69a b6bc
000000c0: 61c4 b6bc a208 ffbc 0000 0000 2448 06bd
000000d0: 13a4 693d 11b2 bfbb 7650 04bd 87d3 bcbb
000000e0: 03f7 cbbc 0000 0000 c023 9dbc 2bb7 cdbc
-0.0054288567 -0.031742793 0.0 -0.013442803 -0.015297583 0.0 -0.03211666 -0.02237129
-0.022059543 0.0 0.0009107646 -0.014583397 0.0 -0.38179696 0.0 -0.39002058
-0.008241423 -0.007164552 -0.38581133 -0.032465175 0.0 -0.031298757 -0.023766981 -0.023213228
-0.033871148 -0.029575495 -0.38621762 0.6409698 -0.022314066 -0.37985075 -0.38372356 0.0
0.0 -0.013117904 0.0 -0.01936891 -0.37928846 0.0 -0.38413662 -0.008963618
-0.0026180092 -0.38031286 -0.010490692 -0.030713929 0.0 0.0 -0.38482124 -0.022290688
-0.022310438 -0.031132046 0.0 -0.032783642 0.05704124 -0.0058500846 -0.032303296 -0.0057625207
-0.024898058 0.0 -0.019182086 -0.025111755

K f4 [8, 60]
00000000: c980 7f3b b5a1 cf3d 0b4b db3a e4df dbbc
00000010: dce5 6fbb 1031 93ba dd95 b73a d363 8dbc
00000020: c717 07bd 8558 edbb c867 82bc 8063 e3bc
00000030: af79 963b fb7d 663a 16b6 1a3c 13fd f8bb
00000040: 58f7 c23d 836f 003b ca9a 25bc 7adb 4dba
00000050: 82e3 b83d a53b 8b3c 6046 d13b c0cf 33bc
00000060: d3a7 cbba ea7c 72bc 28b9 013c 9dab b2bc
00000070: d4fd d738 67c1 63bc 9572 1aba 57a0 ce3a
00000080: 5462 c53b cf96 be3d 840c 79bc a6b0 313a
00000090: d403 ce3d ad06 1cbc db05 abbb 9c1b 89bc
000000a0: c8ad a0bc 8764 1f3c ae1e bfbb 3d99 023c
000000b0: 331e 2abb c93a c23d 1fdc 903b f655 c93d
000000c0: 843b bf3d d768 d23d aab7 bcbc 043b c73a
000000d0: e87e 3bbc 74ec 70bc b4d3 af3d db86 a4bb
000000e0: 3e50 1e3b 34ca ba3b e6a8 e5b8 4413 cdbc
000000f0: 2d11 0dbc f51f 0e3e 0179 f2bb 4f9c b33b
00000100: 4e65 5cbc 3b26 1739 8283 97bb 1871 dcbb
00000110: a493 e4bc 27a7 cdbc 8749 cb3b 149a bf3b
00000120: 5794 02bc 0494 d2bc 46c6 1abc cb72 d5bb
00000130: ba50 eb3d fd64 44bc a9c9 d9bb de87 b1bc
00000140: 558d e43d f262 023c 6e75 12ba 3084 39bc
00000150: 27b3 61bc 4633 073c f047 40bc dbd2 6fbc
00000160: 52b4 2ebc a9b0 9dba dc04 4abc fdbc 90bc
00000170: 3265 48bc 7687 f63d 9eb0 b939 09a1 a5bb
00000180: e838 fb3d 8dab 10bc 42d2 17bc 4a68 873b
00000190: 33e1 11bd 0ac6 a63b 0b9d a9bc ca48 793b
000001a0: 27d0 caba 76dc f73d 46d6 99bc 2c9b fd3d
000001b0: c3ac f23d 701e ff3d 6121 243c 99e4 8cbc
000001c0: 5e55 f53a f626 943a 120b ff3d 4b5d 42bc
000001d0: 38bc d0bb 6193 9bbb 2fae a2bc ef70 11bd
000001e0: bf26 07bc 0ba3 e43d a5da 6bbc d712 9cb9
000001f0: 4fdd bd3b c09c af3b 925e 483b 3171 4d3c
00000200: b9fa 443c 8f7f 6a3a fe6f e03b e6d5 23bb
00000210: 4d4e a03b 4e37 8b3b 223c 3ebb 1640 033c
00000220: 6379 ed3d cee3 ca3b 0906 a6bb 3fce 28bc
00000230: 4ca4 cb3d 85b7 7a3b 094a 9abc e37c 8fbc
00000240: 9246 213c 40d1 34bc 1c73 363c d50c 443c
00000250: 0460 873a 6ff0 3cbc 2dbc bcbb bbd5 d6bb
00000260: c2aa 86b8 2b67 e13d 8b18 80bc 52f5 fbbb
00000270: 3373 fa3d 1507 25bc a7f7 07b8 29bd fcbb
00000280: e03f 4cbd d28f 8dbc d494 44bc b8d5 f5bb
00000290: f65a ae39 0fb7 d63d 907d 3f3c 1b53 d03d
000002a0: 024f d53d 82c5 de3d 0f10 6abb 0fcf b63a
000002b0: a45a 93bc 9b28 d9ba 3c9e bf3d d352 25bc
000002c0: 9c3b 3c3c 27bb 4abc 0a59 953c 4ac5 01bd
000002d0: 180c 86bc 3cbf 1d3e f55d 58bc 443a 8bbc
000002e0: d99f 053b 6f67 83bb 34b9 a6bb 5266 da3b
000002f0: 050c 85bc 005c 073b bcc9 94bc 80c8 aabc
00000300: 402e 5cbc 816f 813a 8451 05bc 82da 80bc
00000310: 2916 1f3e a9d0 e73a 045d 14bc 040e 5bbb
00000320: b797 243e abc0 7cbc 8dfc 833a 9d3d 28ba
00000330: d960 d5b8 8d97 95bc eb24 22bc 124f a93a
00000340: c2c4 aebb 2d7f a33b 726f ddbb 6e38 d4bc
00000350: ff1c 133c 98c6 353e 5500 f3bb 41a3 da3a
00000360: 5390 2a3e 5e1a 6f3b 546c 373b 5ddf 90bc
00000370: 73f0 ddbc 5519 8dbc a5ae 0fbb c41b c4ba
00000380: a5a8 1a3b 51c7 2d3e 65ee 7e39 da75 1a3e
00000390: ee74 213e 1728 113e eb53 1339 240d 32bb
000003a0: 16f6 003b 03a7 163c 8b72 2d3e 7d09 00bb
000003b0: e23a c3ba dbd4 40bc fd2f 85bb 81ed b8bc
000003c0: a16a b6bb 20a0 6e3e aa4c 32bc b2db beba
000003d0: 5008 843b 3d7c 6ebc a2ee b63b 2305 8cbb
000003e0: c726 21bc 9980 05bc b6ef 963c 3d8e 04bc
000003f0: 020e 00ba 398d 7a3c 5952 51bc 7cf4 56bc
0.0038986674 0.10138265 0.0016730739 -0.026840158 -0.0036605513 -0.0011229832 0.0014006455 -0.017259514
-0.03298166 -0.0072432184 -0.015918627 -0.027757406 0.0045921425 0.0008792576 0.009442827 -0.007598528
0.09519833 0.0019597716 -0.010107705 -0.0007852834 0.09027769 0.016996214 0.006386563 -0.010974824
-0.0015537686 -0.01480029 0.00791768 -0.021810347 0.00010299278 -0.013901091 -0.0005891708 0.0015764338
0.0060236845 0.09306108 -0.015200738 0.0006778337 0.10059324 -0.009523076 -0.005219204 -0.016736798
-0.019614115 0.009728557 -0.0058325147 0.007971105 -0.0025957942 0.09483869 0.0044207717 0.09830849
0.093375236 0.10273903 -0.023036797 0.0015200083 -0.011443831 -0.014704812 0.08585301 -0.005020959
0.0024156715 0.005700374 -0.00010951031 -0.0250336 -0.008610052 0.13879378 -0.0073996787 0.00548128
-0.013451887 0.00014414724 -0.0046238312 -0.006727349 -0.027902432 -0.025104119 0.0062038335 0.005847225
-0.007969937 -0.025705345 -0.009446686 -0.0065139285 0.11490007 -0.011986968 -0.006646354 -0.021671232
0.111597694 0.007958161 -0.00055869564 -0.01132302 -0.013775623 0.008251971 -0.011735901 -0.014637674
-0.010663109 -0.0012030798 -0.01233026 -0.017668242 -0.012231158 0.12037556 0.0003541754 -0.0050545973
0.122667134 -0.008829963 -0.009266438 0.0041323053 -0.035615157 0.005089526 -0.020704767 0.003803777
-0.0015473411 0.121025965 -0.018778931 0.12383112 0.11849358 0.12456977 0.010017724 -0.017198848
0.0018717458 0.0011303115 0.12453283 -0.011863063 -0.0063700937 -0.0047477935 -0.019858448 -0.035508092
-0.008248984 0.111639105 -0.014395391 -0.00029768675 0.0057942043 0.005359262 0.0030573946 0.012539194
0.012022668 0.00089453993 0.006849288 -0.002499932 0.0048921467 0.004248536 -0.0029027541 0.008010885
0.11595418 0.006191707 -0.0050666374 -0.010303079 0.099434465 0.0038256359 -0.01883413 -0.017515605
0.009843485 -0.011036217 0.011135843 0.01196595 0.0010328298 -0.011531933 -0.005759737 -0.0065562404
-6.421424e-05 0.11006006 -0.015636703 -0.0076891566 0.12229004 -0.010072489 -3.2417152e-05 -0.0077129793
-0.049865603 -0.017280493 -0.011998374 -0.007502284 0.00033255637 0.104841344 0.011687651 0.10172101
0.1041546 0.108775154 -0.0035715138 0.0013947206 -0.017987557 -0.0016567888 0.09356353 -0.010090548
0.011488821 -0.012373722 0.018230934 -0.03168229 -0.016363189 0.15404981 -0.013205995 -0.016995557
0.0020389466 -0.004010133 -0.005087996 0.0066650296 -0.016241083 0.0020654202 -0.0181626 -0.020847559
-0.013438761 0.000987515 -0.008137111 -0.015729193 0.15535797 0.0017686087 -0.00905538 -0.0033425102
0.160735 -0.015426795 0.0010069773 -0.00064178725 -0.00010174671 -0.018260742 -0.009896497 0.0012917242
-0.005333514 0.004989526 -0.00675767 -0.025905814 0.008979081 0.17751539 -0.007415811 0.0016680734
0.16656618 0.0036484222 0.0027988153 -0.017684633 -0.027092194 -0.017223993 -0.0021924165 -0.0014961888
0.0023599055 0.16970564 0.00024312137 0.1508402 0.15767261 0.1417545 0.00014050274 -0.0027168477
0.0019677929 0.009195092 0.16938226 -0.0019536905 -0.0014894868 -0.011769499 -0.0040645585 -0.022574188
-0.0055669104 0.2330327 -0.010882536 -0.0014561324 0.0040293112 -0.014555988 0.0055826465 -0.0042730733
-0.009835905 -0.008148336 0.01842485 -0.008090553 -0.00048849 0.015292459 -0.012775981 -0.013119813

a f4 [60]
00000000: 452f 45bc 9e00 f4bd fe1b 8fbb 7a4c 9d39
00000010: 8ae0 503c 93ce cc3a 4a2b cb3c 32b8 deb8
00000020: 04da f7bc 3980 feb9 cc9c 1c3a ab00 e3bb
00000030: 3f44 91bc 2fc1 4d3c d06d 1fbc c95e a7ba
00000040: 43c9 dbbd d49d ed3b 1066 00bd 3db4 1eb9
00000050: d82a e2bd 53cb b9bb 770e 08bc b50d b4ba
00000060: 0eec d6bb e0dd 11bc 7867 283c 1504 0737
00000070: f030 d2ba 5454 b83a f4c4 93bc 52f2 56bc
00000080: f088 f1bb 1cdf f1bd f867 2e3c f0a2 38bc
00000090: 1ec9 f1bd 4de3 b03b 10f6 243c 2238 09bb
000000a0: 91a8 e93c 72c0 24bb a086 84bb db49 11bc
000000b0: 8120 b63c 4c84 e4bd d58c 873c fc98 debd
000000c0: d60d f2bd 50e1 cbbd d4ee 56b9 1389 3abc
000000d0: daa5 133a 4620 09bc 899d e5bd 7f64 fa39
000000e0: 6c0c f7b9 53a9 27bb cee8 7e3b 17e7 ecbc
-0.012035196 -0.1191418 -0.0043673506 0.00030002353 0.012748847 0.0015625529 0.024800915 -0.00010620094
-0.030255325 -0.0004854219 0.0005974292 -0.00692757 -0.017732738 0.012558266 -0.009730771 -0.0012769337
-0.10731747 0.0072514806 -0.031347334 -0.00015135198 -0.11043328 -0.00566999 -0.00830423 -0.0013736995
-0.0065589016 -0.008902997 0.010278575 8.0475775e-06 -0.0016036313 0.0014063218 -0.01803825 -0.013119297
-0.0073710606 -0.11810133 0.010644905 -0.011269316 -0.11805938 0.00539819 0.0100684315 -0.0020937999
0.028522762 -0.002513912 -0.004044369 -0.008867706 0.022232296 -0.11158046 0.016546646 -0.10869023
-0.11819045 -0.09955084 -0.00020497601 -0.01138522 0.0005632319 -0.008369511 -0.11211688 0.0004775859
-0.00047120766 -0.0025583103 0.0038896087 -0.028918786

b f4 [60]
00000000: 0000 0000 d097 293d 7986 f0bb f3db 0abc
00000010: 0000 0000 0000 0000 0000 0000 587f c9bb
00000020: a7c2 0cbd 0000 0000 9298 fdbb 0000 0000
00000030: 0000 0000 0000 0000 0000 0000 0000 0000
00000040: 9a17 103d 0000 0000 0000 0000 fd55 e3bb
00000050: 937c 0f3d 0000 0000 0000 0000 0000 0000
00000060: 0000 0000 0000 0000 232c 01bc 0000 0000
00000070: 0000 0000 0000 0000 0000 0000 0000 0000
00000080: 0000 0000 e0f8 2d3d 22e2 12bc 0000 0000
00000090: c25b 073d 9d5c f8bb ccc9 c4bb cec2 04bc
000000a0: e566 febc 0000 0000 4bc9 c4bb 0000 0000
000000b0: 0000 0000 31fc 293d 0000 0000 ff88 0e3d
000000c0: ae59 143d 9293 d73c 0000 0000 0000 0000
000000d0: 1ef3 54bc 0000 0000 4fd9 2f3d a3c9 c4bb
000000e0: 0000 0000 0000 0000 0000 0000 a211 02bd
0.0 0.041404545 -0.007340249 -0.008475292 0.0 0.0 0.0 -0.0061492138
-0.034365322 0.0 -0.007739135 0.0 0.0 0.0 0.0 0.0
0.03517876 0.0 0.0 -0.006937741 0.035030913 0.0 0.0 0.0
0.0 0.0 -0.007884058 0.0 0.0 0.0 0.0 0.0
0.0 0.042473674 -0.008965047 0.0 0.03304649 -0.0075793997 -0.0060055014 -0.008103086
-0.031054923 0.0 -0.0060054413 0.0 0.0 0.041500274 0.0 0.03479862
0.036218338 0.026315484 0.0 0.0 -0.012997417 0.0 0.04293185 -0.0060054823
0.0 0.0 0.0 -0.031755097

K f4 [8, 60]
00000000: a4d6 a03b 9b7c ac3e 02b7 ae3d b1d4 a33c
00000010: 30ea f5bd 2a4a dbbc 3a98 eb3d 29f9 953d
00000020: ac71 00bd 004d 3d3b 8064 7fbc eacb e7ba
00000030: 061f 003e 625f 74ba 3883 4b3c 84fd fb3d
00000040: 0061 ff3d 021d 64bc dfbe 00bc ee99 4cbd
00000050: f08b 35bd 9f36 523c 7fcc b73c e1c3 ed3d
00000060: 5aaf 62bf 50ec d73c 919a a93c c3e5 f73c
00000070: 51e9 e93b 355c 01bc a748 063e 4ec3 2abe
00000080: e9ce 2dbc 4464 b83c 9a9d 1cbc 13a3 4bbd
00000090: f1af f23d 6431 20bd 7b19 093e 0787 b2bd
000000a0: 76a0 33bf 064a e63d 91a2 593c d4c2 ff3d
000000b0: 7459 d1bc fa87 993d d2cb 063e c403 f33d
000000c0: 50dc 59be c94a eb3e 3f9b 73bd 6238 44bd
000000d0: 0dd9 19bc 41c8 103d 114e b13c c25d 063e
000000e0: 1a89 5a3c bd23 e2bc d761 f03c 7373 7a3c
000000f0: 2b7b 23bc 0379 243f 69e5 dc3e b3e5 e33c
00000100: ff5f fabd 3c2d 663b 295b a03e 1010 3a3e
00000110: ef9d 05bc d75c ac3b cfcb 313b bf63 4fbb
00000120: 26af 973e f52e 7339 71c7 ef3c 33c7 8a3e
00000130: 5cdd ae3e 51ed a9bc be67 69bb 5cc2 47bd
00000140: 9b92 87bb 0065 91bb 0396 343c 0c78 a73e
00000150: 427a 50bf f847 953c 0b5a 3e3c dd88 733c
00000160: b95e 363c 39e2 90bc ea14 b43e 1681 1abe
00000170: 1e8a 52bc cb8a c33c ec03 203c 9672 fcbc
00000180: 294d 903e 01d0 f7bc 3887 8e3e b0e6 00bf
00000190: 8630 49bf 87ad 943e c34b c93c 56eb 883e
000001a0: 68f8 63bc d4e9 c93e 7558 a03e b4da 973e
000001b0: 87d3 67be 016d 463e 2acb 68bd 133a 2bbd
000001c0: 76b5 ea3b 1d26 583c fff6 db3c cbce 943e
000001d0: 5d14 b83c 26a3 d4bb 7883 6a3c a223 5abc
000001e0: 921e 76bc 49a9 8b3e 7ee0 773d 72da 34bd
000001f0: 526f 96bd bdac 3dbd cb08 eb3c 04e1 863c
00000200: ffeb a2bd fabc e8bc 9d74 1abd 71de 62bc
00000210: 55f9 443b 3b16 45bc 4dd6 d8bc ce86 5a3c
00000220: f44c 253c c329 bcbd fee7 ffbc b5a2 10bd
00000230: d567 7bbd d76e 82bc 4bb7 adbc 636a 1d3c
00000240: 75aa 233f 90f4 cabc 3ec8 95bc f936 00bd
00000250: 6756 3dbd e41b bcbd c87b 683d 1b8e 14be
00000260: 290d 3dbc d9e4 edbc 3046 8d3b c538 b0bd
00000270: 4023 6e3c 1342 05bd 4017 a73c a115 4ebf
00000280: c84a 193f 51f3 a03c 3387 debc b8fb 8c3c
00000290: 0b23 91bd 8eda 763d 5bb3 c03b eeb4 013d
000002a0: 0567 81be f27d 123f 3ec1 85bd c4a4 bbbd
000002b0: 42c3 e9bc ffc0 7dbc e12f e2bc 1f1c 3c3c
000002c0: dc42 95bc 4b32 a239 ac8b 95bc 57a0 33be
000002d0: d9d5 38ba abc3 003f 8799 b23e bfa9 c53c
000002e0: 571d 00be b3a5 07bd a1db 643e b31a 213e
000002f0: e3b6 a2bc b7dc 823c 1a8e 25bb 9426 b8bb
00000300: a7dc 663e f553 cf3b 88c5 b23c bf37 4f3e
00000310: 533c 6f3e 3b5a 10bd 5452 07bc 1389 4dbd
00000320: 4536 debc 1eac c83c f169 853c faca 773e
00000330: 54ea 54bf 8f10 5d3c f96d ad3c 1e96 5f3c
00000340: 9a4c 323c e0be d9bc f69e 923e deff 15be
00000350: 914b 783c aa90 b63b efe7 e8bb 59b7 e3bc
00000360: babc 693e 51dc 67bd 19ac 4b3e a969 febe
00000370: 9e7a 3dbf 2fd1 613e 3e6d 9f3c 8132 513e
00000380: b972 c4bc 0df7 9c3e 27ba 603e 0f9a 6d3e
00000390: 9641 a8be 0b24 9c3e 2868 23bd c4ca 4dbd
000003a0: de25 6a3b a46f 8c3b a653 833c eb39 513e
000003b0: b8c8 ed3c 481b babc 1fde c03c 0222 87bd
000003c0: 12c7 483b 890f 143f 0c99 d33e b51a 3dbd
000003d0: f90d ddbd 759c b5bb 3cb2 aa3e f98a b33e
000003e0: bfff 96bd 221a 03bd 2591 dabc 2746 53bc
000003f0: 514a b43e 1e0f da3b b348 cfbc a7b3 ab3e
0.0049083997 0.33688816 0.08531 0.01999888 -0.12007558 -0.026768763 0.11503644 0.07322914
-0.031358406 0.0028885007 -0.015587926 -0.0017684672 0.12511835 -0.00093220745 0.012421422 0.12304214
0.12469673 -0.013922932 -0.007858007 -0.049951486 -0.044322908 0.0128304055 0.022436379 0.116096266
-0.88548815 0.0263578 0.020703586 0.030260926 0.007138409 -0.007895519 0.13113652 -0.16676065
-0.010608413 0.022508748 -0.0095590595 -0.049716067 0.118499644 -0.039109603 0.13388626 -0.08717161
-0.7016672 0.112445876 0.013283388 0.124883324 -0.02555535 0.074966386 0.13163689 0.118659526
-0.21275449 0.45955494 -0.059474226 -0.047905333 -0.009390128 0.035347227 0.02164367 0.13121703
0.013338352 -0.027604932 0.029343529 0.015286314 -0.009978096 0.6424715 0.43143776 0.02781949
-0.12225341 0.0035122177 0.3131955 0.1817019 -0.00815533 0.005260091 0.0027129536 -0.0031645147
0.29625815 0.00023191779 0.029269906 0.27105102 0.3415326 -0.020743044 -0.0035614814 -0.04876934
-0.00413735 -0.004437089 0.011022094 0.32708776 -0.8143655 0.018222794 0.011618148 0.014864174
0.011130982 -0.017685996 0.35172206 -0.15088305 -0.0128503125 0.023869893 0.00976656 -0.030816358
0.2818387 -0.030250551 0.2783754 -0.50352 -0.78589666 0.2903864 0.024572259 0.26742047
-0.013914205 0.3943621 0.31317487 0.29659045 -0.22639285 0.19377519 -0.056834377 -0.04180343
0.007162745 0.013192681 0.026851175 0.2906402 0.022470647 -0.0064891754 0.014313571 -0.01331416
-0.015021937 0.27277592 0.060516827 -0.04415364 -0.073454514 -0.046307314 0.028690716 0.016464718
-0.07955169 -0.028410424 -0.037708867 -0.0138469795 0.003005584 -0.012029226 -0.026469374 0.013337804
0.010089148 -0.09187653 -0.031238552 -0.03531142 -0.06137832 -0.015921993 -0.021205565 0.009607884
0.6393197 -0.02477482 -0.01828396 -0.031302426 -0.046224978 -0.09185007 0.056758672 -0.14507334
-0.011538782 -0.029039787 0.0043113455 -0.08604578 0.014534771 -0.032533716 0.020396829 -0.80501753
0.5987973 0.019647272 -0.027164077 0.017209873 -0.07086762 0.060267024 0.005880756 0.03166669
-0.2527391 0.5722343 -0.06530999 -0.09162286 -0.028535489 -0.015487908 -0.027610721 0.011481314
-0.018220358 0.0003093652 -0.018255077 -0.17541634 -0.0007050909 0.50298566 0.34882757 0.024128793
-0.12511192 -0.033117007 0.22349407 0.15732841 -0.019862598 0.015974386 -0.00252617 -0.0056198332
0.2254511 0.006327147 0.021822706 0.20236109 0.23362856 -0.0352423 -0.008259375 -0.050179552
-0.027125487 0.024496134 0.016285868 0.24198523 -0.83170056 0.013492717 0.021170603 0.013646631
0.010882521 -0.026580274 0.28636903 -0.14648387 0.015154735 0.0055714445 -0.0071077268 -0.027797388
0.228259 -0.056606594 0.19889869 -0.49689987 -0.74015224 0.22052453 0.01946127 0.20429422
-0.023980485 0.30657235 0.21946011 0.232033 -0.32862538 0.3049625 -0.039894253 -0.0502422
0.0035728137 0.0042857695 0.016031098 0.2043225 0.029026374 -0.022718087 0.023543416 -0.06598283
0.0030636233 0.57836205 0.41327703 -0.046168048 -0.10793681 -0.005542333 0.33339107 0.35066965
-0.073729984 -0.032007344 -0.026680538 -0.012895144 0.3521295 0.006654634 -0.02530322 0.335355

a f4 [60]
00000000: bb6f 7f3c a3f9 8c3e 8a4f 873e f4ab 103d
00000010: 3883 4abe ba4a 04be 492a 103e ee62 653e
00000020: a429 fbbd be0b fcbc 566b f6bc c07d 193b
00000030: 104a 1e3e dbd7 b43a 3040 4e3d 2351 053e
00000040: cc6e 203e e6ef fabd 762a e0bd 3d1c 14bd
00000050: 7b23 01be 8a72 b63c db10 26bd 93eb 303e
00000060: b0c8 0d3f e687 313d a83e 20bd 2456 4dbd
00000070: e509 c83c 914c fabd b754 573e a519 5dbe
00000080: 34e7 bebd 7554 15bd 8799 48bb 404e 05be
00000090: fcee 083e 72ff 2abd ee06 f73d 296f 5dbf
000000a0: fd2e e43e 00f0 fd3d a893 04bd e63b f03d
000000b0: dfe7 0bbe 89b4 693e 9528 163e 32c7 0a3e
000000c0: 10a7 b5bd 7ae4 bfbe 29a5 28be 2ad7 15be
000000d0: d2cf 71bd cafd e5bc 525e db3c 9bc8 d33d
000000e0: 0dea 2d3d c603 26bd 9d75 ae3c 74c2 2d3e
0.015590603 0.27534208 0.2642787 0.035320237 -0.19776618 -0.12919131 0.1407863 0.2240102
-0.12263802 -0.030767318 -0.030080479 0.00234209 0.1545794 0.001379724 0.050354183 0.13019232
0.15667266 -0.12252788 -0.10945599 -0.036159743 -0.12611191 0.022271413 -0.04054342 0.17277364
0.5538435 0.043342493 -0.039122254 -0.05013098 0.02441878 -0.12221635 0.2102841 -0.21591814
-0.09321442 -0.036457498 -0.0030609088 -0.13018131 0.13372415 -0.041747518 0.120618686 -0.8649774
0.445671 0.12399292 -0.03236738 0.11730175 -0.1366267 0.22822775 0.14663918 0.1355255
-0.08869755 -0.37479 -0.16469254 -0.1463286 -0.059036084 -0.028075118 0.026778374 0.10340997
0.042459536 -0.040530942 0.021296317 0.16968709

b f4 [60]
00000000: 0000 0000 82e6 cabe 1ddd 9abd 3653 b0bc
00000010: 5ba8 2cbe 8590 e4bd e6a8 40bc 0bf1 833d
00000020: e90e eebd fcac 1ebd 4d7e b5bc 8fab f2bb
00000030: 214b 983a 0000 0000 322d b7bc 55bc 7abc
00000040: d8d5 65bd 9e0d e5bd 41eb c5bd cca7 63bd
00000050: 03e0 f0bd 8a4b 72bc a296 1cbd 009b 39bc
00000060: 0d65 933f 8a7d b6bc dd76 04bd 9567 1abd
00000070: a61a 99bc 5baa e7bd f5e7 c7bd a53e 3ebe
00000080: 557c a9bd 8cdf 09bd 02cd b3bc 2fb5 ebbd
00000090: 6160 48bb a324 1bbd 6f5b 63bd 1a1c 873f
000000a0: 9005 823f ee50 28bd e0a6 b5bc 13df e4bc
000000b0: 73f5 edbd e6ad 89bd 5614 23bd 67a7 86bd
000000c0: d365 643d c71a 43bc 9c47 11be dba6 0abe
000000d0: a4d3 29bd d55f b5bc fde1 9fbc 9dab 99bd
000000e0: 80fb b6bc cafd b2bd 4570 b6bc 1784 29bd
0.0 -0.39628989 -0.07561705 -0.021524053 -0.16861098 -0.111603774 -0.0117590185 0.0644246
-0.11623938 -0.03873919 -0.022154951 -0.0074057053 0.001161907 0.0 -0.022360418 -0.015303691
-0.05611214 -0.11184238 -0.09664012 -0.055579945 -0.11761477 -0.014788518 -0.038229592 -0.011328459
1.1515213 -0.022276659 -0.03233992 -0.03769644 -0.018689465 -0.113117896 -0.09761039 -0.18578584
-0.082756676 -0.033660457 -0.021948341 -0.115091674 -0.0030575024 -0.037876736 -0.05550712 1.0555451
1.0157948 -0.041092806 -0.022174299 -0.027938401 -0.11619081 -0.067226216 -0.039814316 -0.06574898
0.05576117 -0.01190824 -0.14187473 -0.13540213 -0.0414616 -0.022140423 -0.01951694 -0.07503436
-0.022336721 -0.08739813 -0.022270331 -0.041385736

K f4 [8, 60]
00000000: 2da7 c53a 7e62 a13c dcd3 b339 0d5a 61be
00000010: 54f2 533c 112a 0c3d bd13 a93c 06a4 d33c
00000020: 094f 6d3c b73e 80bb 6894 2e3d 60fb 1bbe
00000030: 5091 1d3c 629b 0b3d a2ea 973c 8e68 173b
00000040: 9ceb d83b b33b ca3c 02ad 8a3b 05bc f73c
00000050: e615 cabc 854a 833f 6c88 aebc b00d e33d
00000060: 0c30 bbbc b59c 6e3c 0d53 a53e 9f3a ebbc
00000070: 3da3 ad3c 7086 073d 76bf 8d3c 4fb5 f0bd
00000080: bc8d b1bc 2704 063d 1edd 20bd ae6a 44bc
00000090: 7f8b a0bd e5bd 13bc 62e8 31bc e031 d93c
000000a0: f106 f83e 9df9 36bf 4cb9 9c3e c106 9e3c
000000b0: 8021 783e 3565 253d 25c5 56bb 609a 98bc
000000c0: c77c dd3e 2678 c7bb 61a0 2ebd 53c4 bb3d
000000d0: 3484 053c f720 a63b 6d9c cebe 5415 6cba
000000e0: 130c c339 f820 123d 5d34 903c 76f9 49bc
000000f0: 2edf ae3b f327 78bc 3835 0c3c 8457 20bf
00000100: 6271 b6bb 4462 2d3d 5fa9 33bc 1eef 3b3d
00000110: c5a4 953a 0606 5fbc a814 2a3d 0b30 dd3d
00000120: 9f33 4a3d 1033 323d 46e4 e2bb 5798 733a
00000130: 8eaf 89bc 9482 083d 3b34 6ebb 441e 253d
00000140: 43b7 b3bc 30d6 d3be 9e52 7e3c 4f2c 273e
00000150: a786 cdbc 1b61 41bc 9d80 f93e 61c0 adbc
00000160: c53f 503d 9a7e 5f3d 08de cebc c2c3 a2bd
00000170: 3f2e 81bb 0950 143d 6528 0a3e d6c0 2dbc
00000180: 6f9c 7abf 1996 493b d312 213b 3ce6 2a3d
00000190: 2008 253f 0333 c4be ffd3 b43e d56d 243d
000001a0: 6ff2 d93e 857e 9b3e e393 8f3a 7854 1dbc
000001b0: 6ac5 a03e 5c12 893c 4a1b bdbc 6ea9 333d
000001c0: bf17 0c3c f822 b13b 83c5 00bf 648a 313c
000001d0: 26f4 79ba 5d6e 3f3d d909 aabb 1d1c 2cbb
000001e0: 9086 5ebc a873 75bd 4b8b eaba 905a e13e
000001f0: c938 1dbd 1294 413e b4df 11bc d6d1 3c3e
00000200: ac53 5d3b fb49 30bd 3e9e 3d3e 3242 87bc
00000210: d840 323e c9e2 393e cf61 0ebc cf36 25bc
00000220: 5668 17bd 2e43 2d3e 952d bfbc 7052 3c3e
00000230: f687 23bd 2e33 62be 9cf6 22be c2ed 0dbf
00000240: 8d5f 69bd c086 09bc fda2 9e3d e3da aa3e
00000250: 73d4 3d3e 6b90 413e 649c 85bc 57a5 10bf
00000260: c230 35bd a800 393e 6abf 0f3d 9b6a 1bbd
00000270: f3af 393f 831d fc3a fc76 7d3b 9f8d 3d3e
00000280: 39bc dc3d a25b f53e 219d a23e 4cea 383e
00000290: 66de c13b 3b27 93be 0e59 353c 05fa 01bd
000002a0: e54a e33d 70da febc 67be 66bd 6503 643e
000002b0: 2e0c 29bc c1ca a9bd a737 f93e 41c3 36bd
000002c0: 2284 c8bb 61e6 413e ee37 2ebc 11b2 dfbc
000002d0: 164a a03b 41ce 853c 8ba4 f53a 5d70 f9bd
000002e0: e5fc 803b b143 8e3e c9d3 84bc ab5e 863e
000002f0: 5e9b 903c 7577 55bb 8173 7e3e e436 aa3d
00000300: 7dfb 883e 4cb5 8b3e cfbf cf3a 82d2 cebb
00000310: 7971 a3bc a9ae 823e 4f54 8dbb bf3d 773e
00000320: 1b05 c0bc d067 7cbf 66bc eeba ae16 343f
00000330: 9f65 2cbd d161 57bc fb4f 1c3f 5fb7 bbbe
00000340: 7612 963e b007 8c3e f3a8 da3a 44ac acbd
00000350: a0d5 2cbc ede9 883e 0609 de3e da94 10ba
00000360: f41b ea3e 36fe 40bc 37cd e03b edfe 713e
00000370: 4e70 ae3e ddee 7cbd 82e0 843e 10b7 833e
00000380: 6fab 15bd 4433 363d d621 37bb c2a5 9ebc
00000390: d49c 61be 4a64 b33c 6306 0ebd 6a2c 08be
000003a0: b0f4 79bc 5d94 45bb b1e4 4abe 3be8 373b
000003b0: 8931 7d3b 2944 933e d4db 403b d28e 11bd
000003c0: e239 f8bb 3572 41bd 798d c5bb 7b3b 143f
000003d0: 2063 edbc da8d 953e a9f2 afbb 9585 913e
000003e0: f36a b4bc 42d5 453b 5cef 963e 476d 9fbe
000003f0: e15e 953e 4db6 923e 50b3 ea3a 4b4a b5bb
0.001507973 0.019700285 0.00034299388 -0.22007008 0.0129361935 0.034219805 0.020639295 0.025835048
0.0144841755 -0.003913726 0.042622 -0.1523261 0.009617165 0.03408373 0.018544499 0.002310309
0.0066198837 0.02468667 0.00423205 0.030241022 -0.024668645 1.0257117 -0.021305285 0.11086595
-0.022850059 0.014563729 0.32289925 -0.028714476 0.021196002 0.033087194 0.01730321 -0.11753332
-0.02167403 0.032718804 -0.039273374 -0.011988325 -0.07839107 -0.009017442 -0.010858627 0.02651304
0.48442796 -0.7147463 0.3061012 0.01929033 0.24231529 0.04037972 -0.0032771316 -0.0186283
0.4325926 -0.006087321 -0.042633418 0.09168305 0.008149195 0.0050698477 -0.40353718 -0.00090058637
0.00037202294 0.035675973 0.017603094 -0.0123275425 0.0053366637 -0.015146243 0.00855761 -0.6263354
-0.0055677155 0.04233004 -0.010965674 0.045882337 0.0011416903 -0.013612276 0.041523606 0.10800179
0.049365636 0.04350573 -0.006924185 0.0009292415 -0.016807344 0.033327654 -0.003634705 0.040312067
-0.021937972 -0.4137435 0.015522627 0.16325496 -0.025088621 -0.011802937 0.48730937 -0.021209897
0.050842065 0.054564096 -0.025252357 -0.07947494 -0.0039422805 0.03620914 0.13491972 -0.010605058
-0.9789495 0.0030759631 0.002457787 0.041723475 0.6446552 -0.3832017 0.3531799 0.040143806
0.42567775 0.30369964 0.0010954108 -0.009602658 0.31400615 0.016732387 -0.023084302 0.043862753
0.008550583 0.00540578 -0.5030138 0.010836218 -0.0009534977 0.04673611 -0.005189162 -0.0026261874
-0.013581887 -0.05992475 -0.0017894296 0.44014406 -0.038384233 0.1890414 -0.008903433 0.18439421
0.0033771796 -0.043039303 0.18517396 -0.016511057 0.17407548 0.18152918 -0.008690312 -0.010083868
-0.036964737 0.16920158 -0.023337165 0.18390822 -0.039924584 -0.22089836 -0.15914387 -0.55440915
-0.05697589 -0.008393943 0.07745931 0.33370122 0.18538074 0.18902747 -0.016309924 -0.5650229
-0.044235952 0.18066657 0.035094656 -0.037943464 0.725341 0.0019234869 0.0038675657 0.18511055
0.10778088 0.47921473 0.31760505 0.18058127 0.0059164045 -0.28740868 0.011068596 -0.031732578
0.110982694 -0.031110018 -0.056333926 0.2226692 -0.010317845 -0.08290625 0.48675272 -0.044619802
-0.006119267 0.18935539 -0.010633452 -0.027306588 0.004891644 0.016333701 0.0018741054 -0.12179635
0.0039363974 0.2778602 -0.016214268 0.262441 0.01765221 -0.0032572423 0.24848749 0.08311251
0.2675437 0.27286756 0.001585001 -0.0063117156 -0.019951569 0.2552388 -0.004313029 0.24144648
-0.023439934 -0.98595905 -0.0018214106 0.70347106 -0.0420891 -0.01314588 0.6105954 -0.3666334
0.2931096 0.27349615 0.0016682431 -0.084312946 -0.010548979 0.2674097 0.4336626 -0.00055153447
0.45724452 -0.011779359 0.006860401 0.23632403 0.34070057 -0.061751235 0.25952536 0.25725603
-0.036540445 0.044482484 -0.0027943752 -0.019366149 -0.22032481 0.021898407 -0.03467406 -0.13298193
-0.015256092 -0.0030148246 -0.19813801 0.0028062004 0.0038634262 0.2876294 0.0029427903 -0.035536595
-0.0075752595 -0.047228057 -0.0060288277 0.5790326 -0.02897793 0.29209787 -0.0053695035 0.28422228
-0.022023654 0.0030186926 0.29479492 -0.3113806 0.2917395 0.2865471 0.0017906222 -0.005532538

a f4 [60]
00000000: a77b 49bc 70ab dfbc 3908 02bc 5aaf 8b3f
00000010: e303 c03c 26e6 40be 40e3 753c 1784 38be
00000020: 9f7f 0fbc 2262 a6b9 5c75 36be ce79 e2be
00000030: 18c6 43be 9654 50be 92fa f53b 173d 06bc
00000040: 4b06 963c 1e6f 3cbe dc9d c23b cf78 37be
00000050: cf0e 43bd e60a bfbf 9701 d6bd d082 3f3f
00000060: 54e3 c5bc cdd1 5a3c 3e0f 9b3f 94c2 18bf
00000070: 35b1 3ebe 4eba 43be 514c 633c 8f60 c2be
00000080: aa9f c7b8 013d 3ebe 35ee 8ebe 7903 713c
00000090: ae18 80bf 2259 9c3b 362a 15bb 412b 2ebe
000000a0: dfbc 86bf c466 803f 8c93 193f 44e2 2ebe
000000b0: 563f 0b3e 6eba 2fbf 7c19 873a 63d1 1dbc
000000c0: 097b 97bf 9b1d 03bd 7bac d03c d80a 25bf
000000d0: 5460 bc3c 566e 853c b10b 603f 4479 193d
000000e0: 1750 0d3c ba0f 4dbe 4af5 c9bb b994 803c
-0.012297547 -0.027303427 -0.007936531 1.0912888 0.023439353 -0.18837795 0.015007794 -0.18019138
-0.008758455 -0.00031735102 -0.17818207 -0.44233555 -0.19118536 -0.20344767 0.007506677 -0.008193276
0.018313548 -0.18401763 0.0059392285 -0.17917179 -0.047621544 -1.4925201 -0.10449522 0.7480898
-0.02415625 0.0133556845 1.2114027 -0.596719 -0.18622287 -0.19114038 0.013873176 -0.37964293
-9.518799e-05 -0.18577959 -0.27916113 0.014710301 -1.0007532 0.0047713676 -0.0022760755 -0.17008688
-1.0526389 1.0031362 0.59990764 -0.17078501 0.1359838 -0.68643844 0.0010307278 -0.009632441
-1.1834422 -0.032010656 0.02547287 -0.6446967 0.022995152 0.016287964 0.8751784 0.037469164
0.008625052 -0.2002553 -0.006163274 0.015695916

b f4 [60]
00000000: 0000 0000 412b 2b3d 0000 0000 ee11 4a3f
00000010: f54d 06bd 5510 1e3d c9c9 c4bb 3b4e 1d3d
00000020: 0000 0000 95c6 35bc c1c8 4f3c fbaf 15bf
00000030: 7fdd 813d 7c88 403d 0000 0000 f7e0 b6bb
00000040: 6962 48bd 0e9d 013d 0000 0000 ec4a 303c
00000050: 4198 3cbd a0e8 c3be b81e 3c3e 6b4c eabe
00000060: f810 02bd 1877 1ebc 3ec4 e73d c3b8 77bf
00000070: a929 8d3d 35a4 483d 9fc9 c4bb 5cbe 4d3f
00000080: 5b67 a9bc f7de 173d 9637 633f a62b 4abd
00000090: d1e6 933d c5c9 c4bb a0c9 c4bb 27d2 443c
000000a0: 7e16 76be 4933 373d 153b 9e3e 3373 123d
000000b0: 0008 da3e 79e7 3bbf b7c9 c4bb 0c45 e4bc
000000c0: 5bd6 483f 19b0 c3bc de02 07bd f5f9 56bd
000000d0: 0000 0000 c4b0 c13c 3002 c03d e871 2fbd
000000e0: 0000 0000 fbd9 673d b1bc d2bc fc54 f43a
0.0 0.041789297 0.0 0.7893361 -0.03278919 0.038589794 -0.0060055 0.038404685
0.0 -0.011094709 0.012682141 -0.5847165 0.06341075 0.04700516 0.0 -0.005581017
-0.048921976 0.03164392 0.0 0.01076005 -0.04604364 -0.38263416 0.18371093 -0.45761427
-0.031754464 -0.009671949 0.11316727 -0.967663 0.06892712 0.048984725 -0.0060054804 0.8036859
-0.020679167 0.03707787 0.8875669 -0.049358033 0.07221759 -0.006005498 -0.006005481 0.012012995
-0.24032018 0.044726644 0.3090445 0.035754394 0.4258423 -0.73400074 -0.0060054916 -0.027864955
0.7845208 -0.02388768 -0.03296172 -0.05248447 0.0 0.023643859 0.09375417 -0.04283324
0.0 0.056604367 -0.02572474 0.001864105
